src/Sci.NET.Mathematics.IntegrationTests/Tensors/Arithmetic/Examples/Add_2.safetensors (safetensors, 9576 bytes, 5 tensors)

left f8 [2, 16, 9]
000000 5b 1e c0 0e df 7a e9 3f 85 0f 12 a5 c3 a1 ed 3f
       0.796248940286158 0.9259966110262076
000010 b4 7d e7 69 86 69 db 3f 70 a0 d9 9c 0a 75 b0 3f
       0.4283157381268794 0.064285910886271
000020 0e b8 36 3a 0e 2a ef 3f 9a b4 06 eb 19 a7 d6 3f
       0.9738837372767664 0.35394905044342695
000030 c0 b6 a0 f6 35 43 bc 3f b4 2c 4d 52 8c a4 e3 3f
       0.11040055533586735 0.61383644175057
000040 c8 ed 98 89 64 1b cc 3f a8 aa 0d 6a 09 3c bf 3f
       0.21958595961210237 0.12200983847803093
000050 d5 6e 7b d7 c1 07 e5 3f 28 97 95 71 01 51 e2 3f
       0.6571969231258331 0.5723883837169739
000060 c0 d1 e1 3c 68 9b 93 3f 00 fe ab 4d 2a 61 cb 3f
       0.019147518840741062 0.21390274803705722
000070 10 a0 f8 4a 09 01 b2 3f 4b d5 8f 4b 35 16 e8 3f
       0.07032831268645645 0.752710959989295
000080 c0 5d b7 20 52 d3 c2 3f 00 fd 48 3a b9 71 77 3f
       0.14707399938082055 0.005723689599619108
000090 c1 7d d8 6c 3c ea e2 3f 9f f6 18 75 62 34 e2 3f
       0.5910932660953493 0.5688946044026187
0000a0 6d 80 5f 0a 78 a5 ea 3f f4 3e 7f f9 8e 11 d2 3f
       0.8326988413428019 0.2823216854567214
0000b0 68 46 43 3e ab 70 de 3f d9 ba 8f 30 73 cf e7 3f
       0.4756267650637711 0.744073481413433
0000c0 f5 f1 ad 3c fc e1 eb 3f 7d 00 e0 9a 47 c3 e1 3f
       0.8713360963006936 0.5550878548529138
0000d0 00 ec f5 b1 18 c6 48 3f 50 ac 96 5c 1d 64 cc 3f
       0.0007560368139104545 0.22180525799680817
0000e0 ca 5f 6f 53 99 f6 e1 3f f3 45 e2 a3 80 f8 ea 3f
       0.5613524083701062 0.8428347779137638
0000f0 b8 59 25 9d 0e f2 d1 3f f8 99 40 e8 7e 42 be 3f
       0.28039899202613183 0.1182021443388307
000100 30 1f f7 34 97 56 ea 3f 96 59 2b 46 be 9b e7 3f
       0.8230701479414844 0.7377616281981314
000110 12 52 7c db 25 fd d3 3f 2b fb 01 89 b4 22 e0 3f
       0.31232592043059626 0.5042364765102766
000120 c7 54 88 5b 5d 86 ec 3f b8 bc 08 6e 85 5d d8 3f
       0.8914019382233612 0.3807080816795394
000130 9a a4 30 b8 af f2 ea 3f 08 c4 14 e0 11 92 ce 3f
       0.8421248052083172 0.2388326973100734
000140 7d a9 e8 08 1c 36 e6 3f 60 c4 4e 20 be ea d8 3f
       0.6941051649094302 0.3893275561814047
000150 7c b2 ab 2c 40 a7 e8 3f c8 9f 72 59 a3 09 c5 3f
       0.7704163429712731 0.16435663096967645
000160 ac 9d ca 87 01 57 cb 3f 39 48 a4 c3 68 e4 ec 3f
       0.21359271173899452 0.902881986725567
000170 74 76 22 83 5b 2c e8 3f 5c f5 72 ca f7 9e cd 3f
       0.7554147301886602 0.23141381631095725
000180 f1 3a c0 c5 81 e5 e0 3f 04 64 a3 1a a6 7c ee 3f
       0.5280159818956617 0.9527159233358593
000190 44 04 da 42 ba 4f e6 3f 68 f6 ba b4 fe 28 d4 3f
       0.6972323709197856 0.31500213288732093
0001a0 ca 1d 94 fc c6 01 e7 3f ff 5a 20 10 67 3f e6 3f
       0.7189669545340902 0.6952395739525342
0001b0 30 46 c9 e5 82 47 aa 3f 00 a6 76 10 f8 4a 96 3f
       0.051326838064266744 0.02177035904393243
0001c0 7b 5f a2 47 ac a2 e0 3f 12 55 92 8c a6 bc dc 3f
       0.5198575400454354 0.44901431777664513
0001d0 68 08 3d cc 92 fb c1 3f dc 0c 1f ba 55 3c d3 3f
       0.1404899117715701 0.3005575482931826
0001e0 80 10 fe dc e2 fc cb 3f d2 60 34 20 8c f4 d4 3f
       0.21865497389456223 0.3274259867189474
0001f0 ba 74 9c c0 e0 e7 d1 3f 10 5f 19 23 11 be d6 3f
       0.27977770623858655 0.3553507654919352
000200 ba 25 ae 8c 9e 2b e7 3f 66 5b af 33 90 fe d8 3f
       0.7240746257459059 0.39053731009828707
000210 86 32 fc 60 e3 bf d2 3f 80 44 38 e2 b6 75 a5 3f
       0.29296192618566186 0.041913714518281076
000220 c6 65 04 15 8a b1 d7 3f 74 d4 32 33 35 b4 cf 3f
       0.3702111439939383 0.24768700599603088
000230 3f b4 df 3a 53 1e ee 3f c2 4c 0f 9a a1 7e da 3f
       0.941201796520211 0.4139789585580723
000240 32 55 1e 0c 2e c2 ea 3f 22 4a 93 40 40 6c e8 3f
       0.8362035977067193 0.7632142316090873
000250 38 18 e4 6f 9c 92 d3 3f 70 ec 9b fd bc 9d dd 3f
       0.30582343031744896 0.46275257841597917
000260 98 07 bb 47 a2 4e b4 3f c0 21 6a 36 48 be ed 3f
       0.0793248582004068 0.9294777930054394
000270 a0 0b 0b 2e 58 91 a8 3f 14 b9 c2 7f 46 67 c7 3f
       0.04798389017152904 0.18283921469032605
000280 10 a2 bb 61 bb c5 a2 3f 08 5f 69 cc a8 89 b2 3f
       0.0366648251345546 0.07241301527517063
000290 36 34 52 75 7b b5 d8 3f fe bf e7 db 21 56 d5 3f
       0.38607679803027695 0.33338209605335567
0002a0 1f 00 f8 b7 cb 1e e1 3f 8a 85 2f 3a 5d bd d7 3f
       0.5350092499866185 0.3709328716486985
0002b0 f5 d0 97 f9 89 63 ef 3f a8 25 73 e7 a8 d8 df 3f
       0.9809007525314245 0.4975988636257065
0002c0 57 82 21 c6 6e 96 e8 3f b9 2a 74 60 f5 b3 ea 3f
       0.768363368009953 0.8344675907004194
0002d0 4e 57 95 f6 97 38 d7 3f e2 f1 d1 48 9f 70 dc 3f
       0.3628291996040972 0.44437391387307745
0002e0 c4 96 df 22 8e 4f c6 3f 54 fb a0 6b fc 97 d2 3f
       0.17430283263018087 0.2905264903128473
0002f0 c2 ca 1a 59 9e 45 d0 3f e8 93 8d e5 bf 3f ba 3f
       0.254249178901926 0.10253524164507122
000300 6c 9d a2 b3 f1 dc c2 3f a5 67 69 a0 0c 9c ea 3f
       0.147367680275447 0.8315489895860436
000310 64 da 6d c3 a1 e6 e3 3f 48 16 39 48 99 52 de 3f
       0.6219033066725612 0.47379142811800934
000320 56 3b e3 d3 e2 7a da 3f 9c c9 5c e6 96 01 c4 3f
       0.4137503689971046 0.15629850624243324
000330 8e b4 8f 0b 65 28 e8 3f 86 6e 20 fe ec 0c de 3f
       0.7549309945876688 0.4695389253335879
000340 20 30 51 7d 25 1b e9 3f 3d 8c 31 46 e5 4a e3 3f
       0.7845637748337175 0.6028925295798967
000350 00 3a dc 77 54 68 67 3f 5c f7 9f a9 9c 28 de 3f
       0.002857365586243832 0.47122875752380877
000360 64 ca 63 45 20 54 d7 3f 17 3f fb 5a fc bc e2 3f
       0.36450964714382494 0.5855695511799891
000370 5a 36 3f 30 62 20 db 3f 87 1b 09 6f cd 90 e5 3f
       0.4238515349542006 0.6739260834373092
000380 20 57 63 91 07 0b c3 3f 96 3e ca ce c0 3c ec 3f
       0.14877409552598753 0.882416156660798
000390 62 e2 38 79 89 bd dc 3f 35 3c 35 e4 4d 58 ef 3f
       0.44906842077356235 0.9795293290316126
0003a0 73 ee c9 28 e1 17 ef 3f 78 e8 ae c4 ad 79 d4 3f
       0.9716649815231463 0.3199266834959711
0003b0 00 3e 56 44 89 04 da 3f 06 c1 cb 26 d3 9e dd 3f
       0.40652686761401924 0.462818897139201
0003c0 1c a5 03 4b 77 03 e7 3f 68 22 56 80 e0 1c c9 3f
       0.7191730942842329 0.1961937548296817
0003d0 f3 49 d3 ae be d1 ed 3f 70 f0 6f f3 43 f3 a4 3f
       0.9318536200101434 0.04091846796652099
0003e0 84 fd 50 d1 bc 1a d4 3f e0 ef 60 b1 ff ea e0 3f
       0.31413193169643017 0.5286863769938428
0003f0 f6 f1 e9 97 e2 24 e4 3f 0b 69 6f 4a 66 33 ef 3f
       0.6295025794093465 0.9750243619739946
000400 60 38 ba 60 17 ff c1 3f 3d 3d 68 28 db 4f ee 3f
       0.14059726927775085 0.9472480572893925
000410 c0 b1 d3 34 98 17 8e 3f 80 2f e9 0a f7 9e b7 3f
       0.014693440544271463 0.09226936355952198
000420 60 3e 6c 52 ed 3c d6 3f a8 19 55 c0 56 cc c1 3f
       0.3474686913404863 0.13904842749816493
000430 45 8a 23 c6 79 66 e0 3f c7 59 86 ff 43 12 ee 3f
       0.5125092382334705 0.9397296896666426
000440 38 fa d8 eb c9 70 b1 3f 5d d6 22 12 9f fb e3 3f
       0.06812726982114092 0.6244654993267421
000450 88 10 78 a1 67 6d c1 3f 78 47 65 a2 81 29 e6 3f
       0.13615126976231218 0.6925666972913254
000460 90 b1 f1 19 31 eb a7 3f ae ef 3b 2a 8d 98 e6 3f
       0.04671624604893332 0.7061220002064965
000470 d8 49 fd 51 9e c8 bd 3f 1b 3b ba 91 42 1a ea 3f
       0.11634244443602115 0.815705570815996
000480 9f 5b a3 ca 3a df ec 3f 6c be 93 6c 1a be e9 3f
       0.902249713685581 0.8044559593817673
000490 e2 51 c4 24 3a 24 ee 3f d5 e4 24 37 e9 e0 ef 3f
       0.9419222562888161 0.9962049557717828
0004a0 ab 32 07 1e 63 ca e3 3f e6 c3 e9 c0 7a 39 e4 3f
       0.6184554659353884 0.6320165412745353
0004b0 64 27 55 cf 9d df de 3f 5a 86 d0 dc 31 70 ef 3f
       0.48239846465422986 0.9824456513199025
0004c0 5e cc 95 26 5b f7 e8 3f a8 0d 54 57 ec b7 ec 3f
       0.7801948312393383 0.8974515634185325
0004d0 72 98 05 15 e8 92 df 3f ba 6b 71 e4 29 56 ea 3f
       0.4933414655009819 0.8230180227068253
0004e0 e0 51 b9 12 cf e5 a7 3f e4 ce 98 81 ff b4 e0 3f
       0.046675177608139995 0.5220944911183918
0004f0 5e d5 21 80 26 fc e6 3f 80 64 d7 c5 7b 91 b4 3f
       0.7182800772267617 0.08034490184890508
000500 5a 0d 54 04 af 3d e4 3f 50 98 b8 2c b2 09 aa 3f
       0.6325297436273261 0.050855224570384494
000510 e4 b0 81 95 e7 c3 df 3f 32 ff 87 82 6e a1 e3 3f
       0.4963320693993991 0.6134560155332791
000520 b3 25 8e f2 98 7b e3 3f 02 7a ca 8b 6a 79 ea 3f
       0.6088375794799304 0.8273213129321564
000530 1b 0b c2 c6 56 d1 e0 3f c8 95 6e a5 74 b3 e3 3f
       0.5255540735236964 0.6156562071889136
000540 f4 66 b7 aa 02 17 d6 3f 3d d6 19 ce 05 10 e4 3f
       0.34515444442295906 0.6269558930786797
000550 c1 78 21 02 a6 5b e3 3f a8 e4 d4 7b 9c 3d c2 3f
       0.6049375573745907 0.14250522657838371
000560 30 46 6b a3 e5 a3 cb 3f bc 0c 52 c0 50 8f dd 3f
       0.21593924025960254 0.4618722799425077
000570 78 24 db c6 bc 43 de 3f f4 27 75 ea 6a b6 ce 3f
       0.4728843633607265 0.23994194458128926
000580 da a5 17 aa 7a b3 e3 3f 28 b7 f0 8c d0 a1 c6 3f
       0.615659076892537 0.17681319124079065
000590 6a 46 fa e5 79 cb e3 3f 00 b4 f7 e7 f3 f6 a2 3f
       0.6185883991003724 0.03704035002360939
0005a0 b4 3d 36 a9 de 86 e4 3f a0 e4 f5 d5 93 e5 ec 3f
       0.6414635949058067 0.9030245951572802
0005b0 a5 e9 f6 ac 40 9f e7 3f e4 a2 9c 03 bc 17 eb 3f
       0.7381900194371168 0.8466472693008567
0005c0 39 58 1a 8d b4 50 e8 3f aa 56 2a eb ab 93 e9 3f
       0.7598517185131249 0.7992763131212162
0005d0 78 88 96 74 5a 99 ec 3f 00 4e a6 59 b6 60 71 3f
       0.8937198903188479 0.004242622666783102
0005e0 c5 55 8c 6f 85 a6 e8 3f f4 fc c9 d0 c0 c7 e2 3f
       0.7703272989917244 0.5868839338217229
0005f0 54 9b 48 6f 81 37 c3 3f 76 06 dc 16 5d bd d8 3f
       0.15013139661570085 0.38655783874865024
000600 a2 a8 06 7e b1 12 e0 3f 1f 4a 5e b1 37 54 e6 3f
       0.5022819005437393 0.6977804626679392
000610 2a e6 ae 08 28 ec ef 3f d6 a4 ae 75 c8 c7 d4 3f
       0.9975776834100476 0.3246937894096623
000620 93 62 bf dc 29 50 e9 3f e3 cb 11 a6 37 63 e2 3f
       0.7910355864979287 0.574611496309782
000630 b8 1e 55 35 30 14 cf 3f 7c a8 c2 07 c0 f0 da 3f
       0.24280359844327903 0.4209442210946077
000640 64 a9 69 51 b6 0f c8 3f a6 46 dc 3b aa b4 d2 3f
       0.187979497673335 0.2922769150328385
000650 0f bd 7f 17 6c 31 e6 3f 18 eb eb 2e 50 10 d1 3f
       0.6935329874958444 0.26662067968543246
000660 33 95 2c 2d 08 cd ef 3f 62 f0 1c 26 93 79 dc 3f
       0.99377831290318 0.4449203369329152
000670 d9 82 97 78 b5 5b e3 3f c6 67 82 7f b2 66 e5 3f
       0.6049449305829412 0.668786286393918
000680 5a b8 e5 da 26 7e ed 3f f0 b8 08 bf f6 c3 d9 3f
       0.9216493869150881 0.4025856843535527
000690 79 4e 24 56 67 27 ef 3f 8c 05 d3 37 7d e0 e1 3f
       0.9735600168664426 0.5586534586256433
0006a0 e2 ff c4 bd e2 7c df 3f c2 4d 46 06 ac 83 dd 3f
       0.4919974187105237 0.46116161930805444
0006b0 f3 e4 1c 8b 0f 60 e4 3f 00 32 1a 57 26 a4 88 3f
       0.6367261616752827 0.012031840832855245
0006c0 fe 01 55 2d e9 64 e8 3f 77 48 a8 3f 08 1a ec 3f
       0.7623182187454061 0.8781777613933305
0006d0 13 af 95 59 3f 68 e1 3f 9e 15 68 4b 9a e9 d3 3f
       0.5439755201054787 0.31113297809528173
0006e0 b5 26 d6 14 db 7c e8 3f 1e f3 20 fe 7f 26 d6 3f
       0.7652411848987045 0.3460998517728501
0006f0 c6 21 2b e0 5e c9 d6 3f 40 f7 f1 9c 97 95 c1 3f
       0.3560406865258553 0.13737769282664125
000700 d0 da a5 e8 bf c0 ce 3f 00 b4 07 26 9b fe 53 3f
       0.24025725230941086 0.001220370781193525
000710 08 2c 3a 83 18 f4 ba 3f 0e 4b fb 86 c2 5b d0 3f
       0.10528710559644605 0.25560057813452
000720 c6 63 32 3b d6 07 d2 3f 88 b0 61 90 df ea e1 3f
       0.28172832280102644 0.559921056742966
000730 00 30 36 21 7b 70 97 3f b0 33 68 a2 8a 16 d5 3f
       0.022890018369750464 0.3295008264547574
000740 60 67 43 86 46 8e b8 3f 80 60 fc c9 9b 38 c5 3f
       0.09592095163261893 0.16579005587187012
000750 7c 4e 57 4f 11 fd d6 3f e1 59 2b f4 83 50 e2 3f
       0.3591960215391976 0.5723285454685617
000760 06 2c c7 50 11 2a ee 3f 28 80 92 38 24 5b b6 3f
       0.9426352098174682 0.08732820874365699
000770 9d a5 0f b3 68 33 e6 3f b0 11 5f 59 05 fa a2 3f
       0.6937755105292812 0.0370637580486205
000780 a4 9b e9 51 2d b7 d7 3f 75 4b 95 84 1c 52 e7 3f
       0.37055523871679896 0.7287733640208517
000790 ca b7 18 33 f9 7c de 3f 86 02 b0 2f 64 b0 e3 3f
       0.4763777731885709 0.6152821475407826
0007a0 32 a2 1b bd 9e b8 eb 3f 46 1d f0 3c 7c 94 d0 3f
       0.86628663001199 0.259062823781694
0007b0 6a 52 b9 69 38 a8 d3 3f 40 b4 7a 04 b5 41 a0 3f
       0.3071423561534973 0.031751305386344075
0007c0 84 c1 43 55 09 61 e5 3f dc ee d0 5d 93 4b d5 3f
       0.6680952706647507 0.33273777162297136
0007d0 08 ab fc c4 1f f4 bd 3f 5c 2d 45 29 5c 04 d5 3f
       0.11700628813984448 0.32839111357016804
0007e0 8c 8d c1 fb b6 5c e4 3f 22 6b 13 12 83 78 de 3f
       0.6363177220450082 0.4761054684183127
0007f0 9c 4d 0a 9b 66 d9 d5 3f e8 91 94 a6 d1 22 b8 3f
       0.3413940919938001 0.09428129498389348

left_grad f8 [2, 16, 9]
000000 00 00 00 00 00 00 f0 3f 00 00 00 00 00 00 f0 3f
       1.0 1.0
000010 00 00 00 00 00 00 f0 3f 00 00 00 00 00 00 f0 3f
       1.0 1.0
000020 00 00 00 00 00 00 f0 3f 00 00 00 00 00 00 f0 3f
       1.0 1.0
000030 00 00 00 00 00 00 f0 3f 00 00 00 00 00 00 f0 3f
       1.0 1.0
000040 00 00 00 00 00 00 f0 3f 00 00 00 00 00 00 f0 3f
       1.0 1.0
000050 00 00 00 00 00 00 f0 3f 00 00 00 00 00 00 f0 3f
       1.0 1.0
000060 00 00 00 00 00 00 f0 3f 00 00 00 00 00 00 f0 3f
       1.0 1.0
000070 00 00 00 00 00 00 f0 3f 00 00 00 00 00 00 f0 3f
       1.0 1.0
000080 00 00 00 00 00 00 f0 3f 00 00 00 00 00 00 f0 3f
       1.0 1.0
000090 00 00 00 00 00 00 f0 3f 00 00 00 00 00 00 f0 3f
       1.0 1.0
0000a0 00 00 00 00 00 00 f0 3f 00 00 00 00 00 00 f0 3f
       1.0 1.0
0000b0 00 00 00 00 00 00 f0 3f 00 00 00 00 00 00 f0 3f
       1.0 1.0
0000c0 00 00 00 00 00 00 f0 3f 00 00 00 00 00 00 f0 3f
       1.0 1.0
0000d0 00 00 00 00 00 00 f0 3f 00 00 00 00 00 00 f0 3f
       1.0 1.0
0000e0 00 00 00 00 00 00 f0 3f 00 00 00 00 00 00 f0 3f
       1.0 1.0
0000f0 00 00 00 00 00 00 f0 3f 00 00 00 00 00 00 f0 3f
       1.0 1.0
000100 00 00 00 00 00 00 f0 3f 00 00 00 00 00 00 f0 3f
       1.0 1.0
000110 00 00 00 00 00 00 f0 3f 00 00 00 00 00 00 f0 3f
       1.0 1.0
000120 00 00 00 00 00 00 f0 3f 00 00 00 00 00 00 f0 3f
       1.0 1.0
000130 00 00 00 00 00 00 f0 3f 00 00 00 00 00 00 f0 3f
       1.0 1.0
000140 00 00 00 00 00 00 f0 3f 00 00 00 00 00 00 f0 3f
       1.0 1.0
000150 00 00 00 00 00 00 f0 3f 00 00 00 00 00 00 f0 3f
       1.0 1.0
000160 00 00 00 00 00 00 f0 3f 00 00 00 00 00 00 f0 3f
       1.0 1.0
000170 00 00 00 00 00 00 f0 3f 00 00 00 00 00 00 f0 3f
       1.0 1.0
000180 00 00 00 00 00 00 f0 3f 00 00 00 00 00 00 f0 3f
       1.0 1.0
000190 00 00 00 00 00 00 f0 3f 00 00 00 00 00 00 f0 3f
       1.0 1.0
0001a0 00 00 00 00 00 00 f0 3f 00 00 00 00 00 00 f0 3f
       1.0 1.0
0001b0 00 00 00 00 00 00 f0 3f 00 00 00 00 00 00 f0 3f
       1.0 1.0
0001c0 00 00 00 00 00 00 f0 3f 00 00 00 00 00 00 f0 3f
       1.0 1.0
0001d0 00 00 00 00 00 00 f0 3f 00 00 00 00 00 00 f0 3f
       1.0 1.0
0001e0 00 00 00 00 00 00 f0 3f 00 00 00 00 00 00 f0 3f
       1.0 1.0
0001f0 00 00 00 00 00 00 f0 3f 00 00 00 00 00 00 f0 3f
       1.0 1.0
000200 00 00 00 00 00 00 f0 3f 00 00 00 00 00 00 f0 3f
       1.0 1.0
000210 00 00 00 00 00 00 f0 3f 00 00 00 00 00 00 f0 3f
       1.0 1.0
000220 00 00 00 00 00 00 f0 3f 00 00 00 00 00 00 f0 3f
       1.0 1.0
000230 00 00 00 00 00 00 f0 3f 00 00 00 00 00 00 f0 3f
       1.0 1.0
000240 00 00 00 00 00 00 f0 3f 00 00 00 00 00 00 f0 3f
       1.0 1.0
000250 00 00 00 00 00 00 f0 3f 00 00 00 00 00 00 f0 3f
       1.0 1.0
000260 00 00 00 00 00 00 f0 3f 00 00 00 00 00 00 f0 3f
       1.0 1.0
000270 00 00 00 00 00 00 f0 3f 00 00 00 00 00 00 f0 3f
       1.0 1.0
000280 00 00 00 00 00 00 f0 3f 00 00 00 00 00 00 f0 3f
       1.0 1.0
000290 00 00 00 00 00 00 f0 3f 00 00 00 00 00 00 f0 3f
       1.0 1.0
0002a0 00 00 00 00 00 00 f0 3f 00 00 00 00 00 00 f0 3f
       1.0 1.0
0002b0 00 00 00 00 00 00 f0 3f 00 00 00 00 00 00 f0 3f
       1.0 1.0
0002c0 00 00 00 00 00 00 f0 3f 00 00 00 00 00 00 f0 3f
       1.0 1.0
0002d0 00 00 00 00 00 00 f0 3f 00 00 00 00 00 00 f0 3f
       1.0 1.0
0002e0 00 00 00 00 00 00 f0 3f 00 00 00 00 00 00 f0 3f
       1.0 1.0
0002f0 00 00 00 00 00 00 f0 3f 00 00 00 00 00 00 f0 3f
       1.0 1.0
000300 00 00 00 00 00 00 f0 3f 00 00 00 00 00 00 f0 3f
       1.0 1.0
000310 00 00 00 00 00 00 f0 3f 00 00 00 00 00 00 f0 3f
       1.0 1.0
000320 00 00 00 00 00 00 f0 3f 00 00 00 00 00 00 f0 3f
       1.0 1.0
000330 00 00 00 00 00 00 f0 3f 00 00 00 00 00 00 f0 3f
       1.0 1.0
000340 00 00 00 00 00 00 f0 3f 00 00 00 00 00 00 f0 3f
       1.0 1.0
000350 00 00 00 00 00 00 f0 3f 00 00 00 00 00 00 f0 3f
       1.0 1.0
000360 00 00 00 00 00 00 f0 3f 00 00 00 00 00 00 f0 3f
       1.0 1.0
000370 00 00 00 00 00 00 f0 3f 00 00 00 00 00 00 f0 3f
       1.0 1.0
000380 00 00 00 00 00 00 f0 3f 00 00 00 00 00 00 f0 3f
       1.0 1.0
000390 00 00 00 00 00 00 f0 3f 00 00 00 00 00 00 f0 3f
       1.0 1.0
0003a0 00 00 00 00 00 00 f0 3f 00 00 00 00 00 00 f0 3f
       1.0 1.0
0003b0 00 00 00 00 00 00 f0 3f 00 00 00 00 00 00 f0 3f
       1.0 1.0
0003c0 00 00 00 00 00 00 f0 3f 00 00 00 00 00 00 f0 3f
       1.0 1.0
0003d0 00 00 00 00 00 00 f0 3f 00 00 00 00 00 00 f0 3f
       1.0 1.0
0003e0 00 00 00 00 00 00 f0 3f 00 00 00 00 00 00 f0 3f
       1.0 1.0
0003f0 00 00 00 00 00 00 f0 3f 00 00 00 00 00 00 f0 3f
       1.0 1.0
000400 00 00 00 00 00 00 f0 3f 00 00 00 00 00 00 f0 3f
       1.0 1.0
000410 00 00 00 00 00 00 f0 3f 00 00 00 00 00 00 f0 3f
       1.0 1.0
000420 00 00 00 00 00 00 f0 3f 00 00 00 00 00 00 f0 3f
       1.0 1.0
000430 00 00 00 00 00 00 f0 3f 00 00 00 00 00 00 f0 3f
       1.0 1.0
000440 00 00 00 00 00 00 f0 3f 00 00 00 00 00 00 f0 3f
       1.0 1.0
000450 00 00 00 00 00 00 f0 3f 00 00 00 00 00 00 f0 3f
       1.0 1.0
000460 00 00 00 00 00 00 f0 3f 00 00 00 00 00 00 f0 3f
       1.0 1.0
000470 00 00 00 00 00 00 f0 3f 00 00 00 00 00 00 f0 3f
       1.0 1.0
000480 00 00 00 00 00 00 f0 3f 00 00 00 00 00 00 f0 3f
       1.0 1.0
000490 00 00 00 00 00 00 f0 3f 00 00 00 00 00 00 f0 3f
       1.0 1.0
0004a0 00 00 00 00 00 00 f0 3f 00 00 00 00 00 00 f0 3f
       1.0 1.0
0004b0 00 00 00 00 00 00 f0 3f 00 00 00 00 00 00 f0 3f
       1.0 1.0
0004c0 00 00 00 00 00 00 f0 3f 00 00 00 00 00 00 f0 3f
       1.0 1.0
0004d0 00 00 00 00 00 00 f0 3f 00 00 00 00 00 00 f0 3f
       1.0 1.0
0004e0 00 00 00 00 00 00 f0 3f 00 00 00 00 00 00 f0 3f
       1.0 1.0
0004f0 00 00 00 00 00 00 f0 3f 00 00 00 00 00 00 f0 3f
       1.0 1.0
000500 00 00 00 00 00 00 f0 3f 00 00 00 00 00 00 f0 3f
       1.0 1.0
000510 00 00 00 00 00 00 f0 3f 00 00 00 00 00 00 f0 3f
       1.0 1.0
000520 00 00 00 00 00 00 f0 3f 00 00 00 00 00 00 f0 3f
       1.0 1.0
000530 00 00 00 00 00 00 f0 3f 00 00 00 00 00 00 f0 3f
       1.0 1.0
000540 00 00 00 00 00 00 f0 3f 00 00 00 00 00 00 f0 3f
       1.0 1.0
000550 00 00 00 00 00 00 f0 3f 00 00 00 00 00 00 f0 3f
       1.0 1.0
000560 00 00 00 00 00 00 f0 3f 00 00 00 00 00 00 f0 3f
       1.0 1.0
000570 00 00 00 00 00 00 f0 3f 00 00 00 00 00 00 f0 3f
       1.0 1.0
000580 00 00 00 00 00 00 f0 3f 00 00 00 00 00 00 f0 3f
       1.0 1.0
000590 00 00 00 00 00 00 f0 3f 00 00 00 00 00 00 f0 3f
       1.0 1.0
0005a0 00 00 00 00 00 00 f0 3f 00 00 00 00 00 00 f0 3f
       1.0 1.0
0005b0 00 00 00 00 00 00 f0 3f 00 00 00 00 00 00 f0 3f
       1.0 1.0
0005c0 00 00 00 00 00 00 f0 3f 00 00 00 00 00 00 f0 3f
       1.0 1.0
0005d0 00 00 00 00 00 00 f0 3f 00 00 00 00 00 00 f0 3f
       1.0 1.0
0005e0 00 00 00 00 00 00 f0 3f 00 00 00 00 00 00 f0 3f
       1.0 1.0
0005f0 00 00 00 00 00 00 f0 3f 00 00 00 00 00 00 f0 3f
       1.0 1.0
000600 00 00 00 00 00 00 f0 3f 00 00 00 00 00 00 f0 3f
       1.0 1.0
000610 00 00 00 00 00 00 f0 3f 00 00 00 00 00 00 f0 3f
       1.0 1.0
000620 00 00 00 00 00 00 f0 3f 00 00 00 00 00 00 f0 3f
       1.0 1.0
000630 00 00 00 00 00 00 f0 3f 00 00 00 00 00 00 f0 3f
       1.0 1.0
000640 00 00 00 00 00 00 f0 3f 00 00 00 00 00 00 f0 3f
       1.0 1.0
000650 00 00 00 00 00 00 f0 3f 00 00 00 00 00 00 f0 3f
       1.0 1.0
000660 00 00 00 00 00 00 f0 3f 00 00 00 00 00 00 f0 3f
       1.0 1.0
000670 00 00 00 00 00 00 f0 3f 00 00 00 00 00 00 f0 3f
       1.0 1.0
000680 00 00 00 00 00 00 f0 3f 00 00 00 00 00 00 f0 3f
       1.0 1.0
000690 00 00 00 00 00 00 f0 3f 00 00 00 00 00 00 f0 3f
       1.0 1.0
0006a0 00 00 00 00 00 00 f0 3f 00 00 00 00 00 00 f0 3f
       1.0 1.0
0006b0 00 00 00 00 00 00 f0 3f 00 00 00 00 00 00 f0 3f
       1.0 1.0
0006c0 00 00 00 00 00 00 f0 3f 00 00 00 00 00 00 f0 3f
       1.0 1.0
0006d0 00 00 00 00 00 00 f0 3f 00 00 00 00 00 00 f0 3f
       1.0 1.0
0006e0 00 00 00 00 00 00 f0 3f 00 00 00 00 00 00 f0 3f
       1.0 1.0
0006f0 00 00 00 00 00 00 f0 3f 00 00 00 00 00 00 f0 3f
       1.0 1.0
000700 00 00 00 00 00 00 f0 3f 00 00 00 00 00 00 f0 3f
       1.0 1.0
000710 00 00 00 00 00 00 f0 3f 00 00 00 00 00 00 f0 3f
       1.0 1.0
000720 00 00 00 00 00 00 f0 3f 00 00 00 00 00 00 f0 3f
       1.0 1.0
000730 00 00 00 00 00 00 f0 3f 00 00 00 00 00 00 f0 3f
       1.0 1.0
000740 00 00 00 00 00 00 f0 3f 00 00 00 00 00 00 f0 3f
       1.0 1.0
000750 00 00 00 00 00 00 f0 3f 00 00 00 00 00 00 f0 3f
       1.0 1.0
000760 00 00 00 00 00 00 f0 3f 00 00 00 00 00 00 f0 3f
       1.0 1.0
000770 00 00 00 00 00 00 f0 3f 00 00 00 00 00 00 f0 3f
       1.0 1.0
000780 00 00 00 00 00 00 f0 3f 00 00 00 00 00 00 f0 3f
       1.0 1.0
000790 00 00 00 00 00 00 f0 3f 00 00 00 00 00 00 f0 3f
       1.0 1.0
0007a0 00 00 00 00 00 00 f0 3f 00 00 00 00 00 00 f0 3f
       1.0 1.0
0007b0 00 00 00 00 00 00 f0 3f 00 00 00 00 00 00 f0 3f
       1.0 1.0
0007c0 00 00 00 00 00 00 f0 3f 00 00 00 00 00 00 f0 3f
       1.0 1.0
0007d0 00 00 00 00 00 00 f0 3f 00 00 00 00 00 00 f0 3f
       1.0 1.0
0007e0 00 00 00 00 00 00 f0 3f 00 00 00 00 00 00 f0 3f
       1.0 1.0
0007f0 00 00 00 00 00 00 f0 3f 00 00 00 00 00 00 f0 3f
       1.0 1.0

result f8 [2, 16, 9]
000000 f0 c4 24 e6 2b b7 fb 3f 66 86 db c3 1f 9c f3 3f
       1.7322195997224377 1.225616231029926
000010 ee 1c 31 12 1b 3d f6 3f b8 ef 98 2d 5f dc d0 3f
       1.3899183951014566 0.2634504266059099
000020 04 a2 8a 75 0a 84 f4 3f aa 46 1e 86 b1 f1 e8 3f
       1.2822365371195028 0.7795035953042391
000030 6c 23 6b 0a 67 36 d4 3f f4 69 51 87 b8 3e f8 3f
       0.3158204652541403 1.515312698923137
000040 3e cc df 34 5a bf d3 3f c4 80 d0 3c 42 61 ed 3f
       0.30855422175881475 0.9181224048407093
000050 f6 9e f6 06 99 b1 f8 3f 7c 6d 1e a3 a6 39 ea 3f
       1.543358828735959 0.8195374666133115
000060 78 9b f5 d1 0e f3 e6 3f 40 85 44 86 b3 26 e7 3f
       0.7171701527375793 0.7234742758193207
000070 fc 92 09 9b cf bf ea 3f db 9b e1 db b5 57 ee 3f
       0.8359144237589073 0.9482068342739426
000080 c7 7e b4 65 04 0f e0 3f 30 6f bc 69 4e 5e dd 3f
       0.5018331514765685 0.45888099981106034
000090 f1 14 06 45 b0 dd f5 3f f3 9c c2 ca e9 55 f5 3f
       1.36662318193822 1.333474914581356
0000a0 7a 8f 0b b3 5a a6 f3 3f 09 84 4d a3 dc 53 ea 3f
       1.2281138414336668 0.8227370442874654
0000b0 f5 26 42 0e ab 85 f4 3f 61 3a 56 de 7d 61 ef 3f
       1.2826338345498105 0.9806508390918901
0000c0 b2 80 1d 84 ea 65 f8 3f 1f 9b 7a 51 0e c8 ef 3f
       1.5248818550826795 0.9931708899865476
0000d0 c7 a4 28 78 18 2b ec 3f 56 1b 12 ef fe 1e e4 3f
       0.8802606913424363 0.6287836713171184
0000e0 8c 59 11 1c 61 a8 f5 3f c6 9c d6 2d 18 fc fa 3f
       1.3536082359692925 1.6865464964446786
0000f0 c1 e8 4c d1 c3 b3 e0 3f 94 d3 ff 90 48 2c cd 3f
       0.5219439590357738 0.22791392402691868
000100 64 34 8c 6c da e9 f3 3f 42 c1 5d 70 12 1c f6 3f
       1.244593070997575 1.3818535222345223
000110 58 76 b8 4f 6d 9a e5 3f fa f9 3c 6d 10 52 f0 3f
       0.6751009518663507 1.0200351969830295
000120 fe a0 54 d4 00 97 f3 3f d6 47 19 c5 19 b8 f3 3f
       1.2243660253680555 1.2324464511079802
000130 b8 17 e2 48 e9 2b fc 3f 42 9f 2f 87 57 e3 dc 3f
       1.7607205245017052 0.4513758487869276
000140 5e b4 36 d2 dd 20 eb 3f 84 a0 a5 c2 14 03 ee 3f
       0.8477620225654723 0.9378761102389181
000150 f4 9d 1a 2b 04 86 f1 3f 6a 56 f8 a2 03 90 ee 3f
       1.0952188190220769 0.9550798590668823
000160 6a 2f cd ad fb 14 e3 3f 56 e3 3b 70 e1 5f f5 3f
       0.5963114161072387 1.3359083542001904
000170 3a ed 49 fa 41 16 f4 3f e3 37 31 7d fa fc e3 3f
       1.2554340149789156 0.6246311612283048
000180 34 00 fe 8e 9c b6 f1 3f d8 7a 52 6d 74 73 f6 3f
       1.1070828996307798 1.4031872053525856
000190 db 53 2f 5d 3d 12 e9 3f 15 8c 05 49 c7 1f ed 3f
       0.7834765262620026 0.9101292062954395
0001a0 a2 0c f9 4c ea a1 f3 3f 96 65 9d 78 26 4d f8 3f
       1.2270300871612467 1.5188355170742844
0001b0 47 42 ca a1 f3 74 e0 3f 0e 21 8b ec 66 d8 df 3f
       0.5142763290369395 0.49758313274334476
0001c0 3c 35 23 43 12 58 f3 3f 57 ca 57 08 af e2 e0 3f
       1.2090017912444884 0.5276713526676059
0001d0 1c a1 c1 22 71 8d e0 3f 40 40 85 a5 bb d1 f2 3f
       0.5172658614001509 1.1762043443341241
0001e0 ab c5 6e 93 13 0f e8 3f d9 a4 54 12 a9 61 e9 3f
       0.7518403892083162 0.7931714399357147
0001f0 40 2e f7 4d 11 3a ef 3f 72 88 02 a5 db 55 de 3f
       0.975838329578842 0.473990355627513
000200 38 3a fa 53 7e 92 f4 3f 9b c0 ad 4e 62 06 ed 3f
       1.2857650070542501 0.9070292984670404
000210 0a e0 1a 01 3a 55 d6 3f 98 46 2e b2 28 a8 bd 3f
       0.3489518175879317 0.11584715223423314
000220 b2 85 2d e6 09 32 f1 3f ed df dd 32 62 2b f1 3f
       1.0747164717980522 1.0730916964512247
000230 1c d1 47 ad 69 bc f7 3f e2 e9 12 b0 1a a5 f3 3f
       1.4834992188235168 1.2278086545835483
000240 50 d3 5a b4 6a 1d fa 3f 78 e0 4f 01 c1 a5 ef 3f
       1.6321818394764769 0.9889836335778588
000250 fc f4 85 76 77 d5 f3 3f 29 05 d8 4c 4d 4b ea 3f
       1.239615881902238 0.8216921330314665
000260 d0 9a d3 81 87 e4 df 3f d8 a9 a2 b3 ec 92 f0 3f
       0.4983233230436044 1.0358702675827
000270 d9 00 53 6a c2 ae ee 3f 40 22 8b de 61 7a d1 3f
       0.9588329388280058 0.2730946229244502
000280 69 db 8f eb 48 28 e4 3f 65 e4 68 7e 9b ab eb 3f
       0.6299175835436986 0.8646981686535012
000290 43 8b ae 77 7e b3 e1 3f ae e7 cc 87 38 b9 d6 3f
       0.553160890344181 0.3550549818206673
0002a0 dc 8f 17 0d a4 de e8 3f d5 3d 4f 68 01 e8 f5 3f
       0.777177835054768 1.3691419672576235
0002b0 56 21 5d ab 7c 92 fc 3f ae 1e 08 1f 2c 66 f4 3f
       1.7857634252450985 1.2749444210220804
0002c0 c8 a1 5b 6e f4 7b f1 3f 62 f3 17 b1 01 98 fc 3f
       1.0927624045235564 1.787110988399228
0002d0 69 70 37 7c 61 7a f2 3f ba 80 ae 38 b7 56 e8 3f
       1.1548781254014335 0.7605854136527548
0002e0 b3 05 b5 db ff 78 e0 3f 53 28 ac 1f 00 fc e7 3f
       0.5147704402117398 0.7495117777446104
0002f0 aa b2 53 9b 2d 23 da 3f cc 27 8a ce 89 6e c5 3f
       0.40839710396429985 0.16743586144394695
000300 27 5d 25 58 1e 98 ee 3f 36 0c 9d b4 00 7f fb 3f
       0.9560691567993772 1.7185065322125985
000310 60 be 99 e2 ff 4b ed 3f 82 c0 4d 62 2f d0 f6 3f
       0.9155272889892778 1.4258264389027606
000320 ac 00 34 0e 61 7f f2 3f 40 4a e6 01 7a 4e da 3f
       1.1560984186944934 0.41103983102326325
000330 90 ce 6d b7 85 13 f9 3f 5c 2c c9 12 64 71 e8 3f
       1.5672661938851071 0.7638416640196612
000340 8d eb 63 72 d9 df f2 3f a6 6d d0 c4 21 2d f9 3f
       1.1796507328387833 1.573518532567371
000350 b1 6b 30 d8 3d 26 ea 3f dc a0 f4 d9 1a 19 f5 3f
       0.8171681616253094 1.3186291231050324
000360 6f 1c 6d 00 ca 5f eb 3f a4 fc 10 81 2a 08 f7 3f
       0.8554430015873445 1.4394936601309292
000370 e0 b9 5f dc 6b f0 f3 3f 28 86 48 b9 40 59 f0 3f
       1.2461966141087188 1.021790241015319
000380 98 e9 11 1a 5c 7b c6 3f ce 58 9d cf ca 94 f4 3f
       0.17563964150378975 1.2863262281367045
000390 86 6b a0 94 be 49 f2 3f 1c e5 7a be 30 61 fc 3f
       1.1430040174224998 1.7737281265857012
0003a0 f2 f4 57 00 3e 66 f1 3f fa 2a d7 1d cb 70 f3 3f
       1.0874614728375573 1.2150374570507538
0003b0 f4 ca 19 84 47 93 f1 3f 40 b7 34 db af af f0 3f
       1.0984568748651187 1.0428923189860626
0003c0 c4 46 a1 f3 73 90 f9 3f a0 31 ce 73 ce 82 e8 3f
       1.5977668301388102 0.7659675847840397
0003d0 ce 85 0b d5 18 aa fb 3f 33 66 b3 8d a1 1c e4 3f
       1.7290275880881043 0.6284950034707378
0003e0 b3 95 1e e4 5d bd f3 3f e0 b3 a6 54 82 65 f7 3f
       1.2337321196476807 1.4622824961363605
0003f0 e4 b5 11 fb 65 1f eb 3f 6b 95 1c c4 af ad fe 3f
       0.8475828078932719 1.9174039517032166
000400 47 48 0c e7 a0 af f1 3f 3c 1a 67 44 df 90 fb 3f
       1.1053780579864154 1.7228691741926374
000410 01 2a c1 43 b9 be ef 3f 1e 17 73 bc 53 f6 de 3f
       0.9920317004519462 0.48378461268690554
000420 f0 95 7c 78 9f ec df 3f b4 6f 8e af 1d f7 d7 3f
       0.4988173176410262 0.3744577612321749
000430 cc c7 09 d0 00 98 f4 3f 1c 99 d5 fc ae 2c f8 3f
       1.2871101500027065 1.510909068712471
000440 82 c9 24 dd 0c d7 e2 3f cd c4 de c1 6a a0 e5 3f
       0.5887512511456381 0.6758321558501393
000450 d1 b1 40 89 26 8b e1 3f d4 17 b9 04 f4 5c fa 3f
       0.5482361489026123 1.647693651627823
000460 ff c8 d5 95 af 40 e2 3f c2 83 75 85 90 87 f9 3f
       0.5703962255923044 1.5955968106502358
000470 97 6b 8b 6f ad ef f0 3f e2 fd b5 7d 7d d0 fa 3f
       1.0585150105677934 1.6759009275991663
000480 92 63 16 c4 59 69 fd 3f d9 5d 9c 27 4b aa f1 3f
       1.8382203731218607 1.1040755793854855
000490 72 66 19 8a d6 74 fe 3f 52 14 2b bd 3b 20 f3 3f
       1.9035249132633933 1.1953694714914218
0004a0 a6 be e5 ce 69 a8 ed 3f 22 58 c2 a8 cf eb f0 3f
       0.9268082657781249 1.0575710861353476
0004b0 90 0e 0c ae 9b 02 e6 3f c7 16 93 4c 8b 24 fe 3f
       0.6878183745725028 1.8839219084924694
0004c0 0b 77 9f 1e 2f d0 eb 3f 8c 6c 71 b3 d6 18 fb 3f
       0.8691630933860507 1.693564129781211
0004d0 a8 4d 7a 20 72 12 f6 3f 07 21 fd 8a 67 1f f1 3f
       1.3795033711111078 1.070167105603163
0004e0 08 22 3a 81 90 d4 e7 3f 52 2a 39 3a b4 81 f0 3f
       0.7446978115049783 1.0316660189006552
0004f0 2c 2a e6 78 ea bd f7 3f 40 66 19 12 60 a7 d1 3f
       1.4838661882992126 0.2758407761335526
000500 b1 b4 da e1 de 97 ef 3f 23 2f 35 e5 de 20 e0 3f
       0.987288895723074 0.5040125347818257
000510 4a 42 fa f3 8b 59 f4 3f 3c 21 7a d1 6f 0c f6 3f
       1.27186198524227 1.3780363257120163
000520 1c e2 22 27 6b 11 f0 3f 48 2f 2c d9 3f e2 f5 3f
       1.004252579570795 1.3677366717629003
000530 e8 5a 12 a2 2b 52 f5 3f 50 15 35 53 7f 45 eb 3f
       1.3325611430097357 0.8522335648673707
000540 ea c2 e8 20 5a f5 ef 3f 70 38 5a 42 66 0a f1 3f
       0.998700203204945 1.0650389282123136
000550 06 d0 0e 7a 46 c0 f7 3f 6c a9 e1 b6 5e 95 e1 3f
       1.4844422119031164 0.549483639898694
000560 6d 12 c7 26 91 21 f0 3f fc fc f9 0b ac e3 f4 3f
       1.0081950678587888 1.3055839984734225
000570 21 ce 27 e6 9a dc e6 3f 46 57 aa 03 ba 60 d6 3f
       0.7144293303703685 0.34965372426937724
000580 b8 77 1c 27 4c 98 f0 3f b8 56 cc bd da 44 ea 3f
       1.0371819999486274 0.8209050852771815
000590 b9 93 f4 47 54 67 ef 3f 08 74 f7 8f db b0 e1 3f
       0.9813634305361268 0.5528390704963622
0005a0 e9 2a 57 f6 82 2e ef 3f f8 0a 92 54 82 13 fc 3f
       0.974427682050501 1.754762964585721
0005b0 3e 3a 45 c3 31 82 fa 3f c2 a0 97 a7 71 f2 f0 3f
       1.656785738730505 1.059190420777711
0005c0 1a 63 68 56 76 3b ed 3f 7f 4a d4 ce b0 90 f5 3f
       0.913508576169167 1.3478248671787296
0005d0 f2 08 10 4f 11 7f f3 3f 14 fb 4e 39 5c 70 e9 3f
       1.2185223663696516 0.794965850763989
0005e0 e2 6e b3 5d e0 72 f2 3f b3 bd ce 76 8d 51 f0 3f
       1.1530460033599685 1.0199103012963462
0005f0 d5 8a 43 cd 08 ce e4 3f c7 7d 02 16 eb f3 e8 3f
       0.6501506814059562 0.7797751836659977
000600 0d 37 21 6b 34 4d f1 3f e6 ed af 38 3d 5f f2 3f
       1.0813488182788575 1.1482517446846656
000610 e0 1a 82 91 55 57 f1 3f 4c 63 7f 29 2c 6f ed 3f
       1.0838218387522645 0.9198208628177809
000620 06 af 0e bd 1b c9 f4 3f 08 1e 96 c3 0e 5f f6 3f
       1.2990987191250851 1.3982074394315323
000630 92 f5 c2 80 87 95 e6 3f 95 2f a3 b9 3b b2 ec 3f
       0.7057530894159518 0.89675699479402
000640 56 75 fe d2 65 11 ec 3f 42 86 f9 bf 61 bd d7 3f
       0.877123748872388 0.37093394992379924
000650 08 0e 99 43 fc 1f f1 3f ce 77 b8 42 ba 46 f2 3f
       1.070308937124425 1.1422674757263738
000660 5f eb ad 84 71 6e f8 3f a1 ec 48 95 2c 24 ed 3f
       1.526963728216934 0.9106657901496825
000670 5e 3b 20 33 eb d0 f4 3f 77 fc 76 c0 97 32 e9 3f
       1.3010055539231966 0.7874258765294958
000680 88 03 16 7b c2 bb f7 3f 60 6f 5a 94 15 69 ed 3f
       1.4833397682234324 0.919077672722306
000690 9e d2 19 53 09 79 f0 3f 17 4a f5 df 26 3e e4 3f
       1.0295499082687125 0.6325868963415954
0006a0 39 ac 5d 10 e0 24 f3 3f cf 18 09 8e c6 95 f4 3f
       1.1965027465146376 1.2865663097632483
0006b0 76 69 66 d5 47 dd f2 3f 2c 96 7a 2c 75 6d ea 3f
       1.1790235839785885 0.8258615368583313
0006c0 b6 29 f6 44 c8 ee f8 3f 66 6f 32 80 c4 a9 f1 3f
       1.5582964605151637 1.1039471633621019
0006d0 77 c6 57 07 f0 a4 f7 3f c0 19 be f3 3b 71 e5 3f
       1.4777679716902676 0.670072532710769
0006e0 95 49 64 46 a5 f2 f2 3f fc 56 d7 5f a2 f5 dc 3f
       1.184239649741902 0.4524923263501106
0006f0 81 f0 c3 2b 2e 45 f4 3f ac 82 45 da 14 23 cd 3f
       1.266889735182332 0.2276331010607654
000700 fc 97 9d 2f 1d ac ea 3f 5e bc 6e b2 65 64 e9 3f
       0.8335100107185549 0.7935055241595241
000710 52 6d d9 9a 87 6e d1 3f be 72 e0 32 d9 be d1 3f
       0.27237119791035014 0.2772734639018316
000720 a0 c1 b8 72 c3 c3 e0 3f b6 34 f4 e1 19 ee f8 3f
       0.523896907869176 1.558130152351891
000730 36 23 2c 36 f3 7c ea 3f 30 62 c5 8d a4 b5 f1 3f
       0.8277526910834243 1.1068463838511313
000740 48 5c bc ce 85 e6 da 3f 16 6a 1d 7a 1a e5 f1 3f
       0.4203199881462223 1.1184334535706788
000750 34 ee 67 d2 7f 6b f2 3f aa e1 70 88 eb 6e ec 3f
       1.1512449473365338 0.888540045248239
000760 04 26 e2 d1 96 87 f4 3f ae fa ed 70 66 7b e1 3f
       1.283102817399027 0.5463134961754201
000770 91 19 2c 54 30 22 eb 3f 88 44 36 64 56 1a ba 3f
       0.8479234355916551 0.10196437784749623
000780 cf c1 18 4a 3c de f2 3f 1e fe b2 a6 08 da f9 3f
       1.1792567152407292 1.6157309066474066
000790 e1 3f b8 b8 da a3 e8 3f 33 7c 17 28 bb 13 f9 3f
       0.7700017555052875 1.5673171583255339
0007a0 ef 02 c9 b7 f7 bc f9 3f 5c 01 d4 65 15 71 e0 3f
       1.6086346797093787 0.513804148562524
0007b0 e4 48 14 4c 61 e9 f1 3f ba 40 01 c8 11 de d4 3f
       1.1194775554509357 0.32605404407241745
0007c0 3f 34 5d 5e cb 02 f1 3f 3f e3 2b f9 93 da f4 3f
       1.0631822286698165 1.3033637746104458
0007d0 d8 24 58 7c 59 cd ed 3f 5c ee dd b9 0a d0 f2 3f
       0.93131708417891 1.1757914791513917
0007e0 64 62 be 6c 38 09 f2 3f e2 37 18 18 cd 47 f5 3f
       1.1272510764885277 1.330029577369253
0007f0 b1 7f 12 f7 ac 9e f2 3f 0c 06 b5 70 1c 4c dc 3f
       1.1637391711483185 0.4421454525619033

right f8 [1, 16, 9]
000000 85 6b 89 bd 78 f3 ed 3f 8c fa 49 c5 f7 2c d3 3f
       0.9359706594362797 0.2996196200037182
000010 01 7b 6e ef 72 c5 ee 3f 38 0f c5 0c 39 7e c9 3f
       0.9616026569745771 0.1991645157196389
000020 f6 17 bd 61 0d bc d3 3f ba d8 35 21 49 3c db 3f
       0.30835279984273656 0.4255545448608121
000030 78 eb 85 19 33 4b ca 3f 34 a7 55 bc e4 d8 ec 3f
       0.20541990991827297 0.901476257172567
000040 68 55 4d c0 9f c6 b6 3f 6f cb 8e 0f c1 79 e9 3f
       0.08896826214671238 0.7961125663626784
000050 17 cf 71 36 70 5b ec 3f 50 59 23 c6 94 a2 cf 3f
       0.8861619056101259 0.24714908289633764
000060 ea 8c 0e 90 33 56 e6 3f c0 85 d9 f2 68 4e e0 3f
       0.6980226338968383 0.5095715277822634
000070 fa 7e aa 71 ae 7f e8 3f 40 1a 47 41 02 06 c9 3f
       0.7655861110724509 0.19549587428464754
000080 ae 4e 0d bb 5f b4 d6 3f 3c 4b d3 84 87 00 dd 3f
       0.35475915209574793 0.45315731021144123
000090 21 ac 33 1d 24 d1 e8 3f 47 43 6c 20 71 77 e8 3f
       0.7755299158428707 0.7645803101787373
0000a0 0c 3d 6f b7 7a 4e d9 3f 8f e4 8d 26 15 4b e1 3f
       0.3954150000908647 0.540415358830744
0000b0 b6 aa 62 7d 00 d3 e9 3f 20 fe 19 b7 2a 48 ce 3f
       0.8070070694860394 0.2365773576784571
0000c0 70 0f 8d cb d8 e9 e4 3f 44 35 35 6d 8d 09 dc 3f
       0.653545758781986 0.4380830351336338
0000d0 4c 27 fc f1 e6 24 ec 3f 84 e0 d8 2f ef 0b da 3f
       0.8795046545285259 0.40697841332031026
0000e0 4e 53 b3 e4 28 5a e9 3f 9a f3 ca b7 af ff ea 3f
       0.7922558275991862 0.8437117185309149
0000f0 94 ef e8 0a f2 ea ce 3f 30 0d bf 39 12 16 bc 3f
       0.241544967009642 0.10971177968808798
000100 2e 93 42 48 3b fa da 3f ee 28 90 9a 66 9c e4 3f
       0.4215229230560905 0.6440918940363909
000110 9e 9a f4 c3 b4 37 d7 3f c8 f8 77 51 6c 81 e0 3f
       0.3627750314357544 0.5157987204727528
000120 6a da 41 9a 48 4f d5 3f 50 31 2e d3 70 41 eb 3f
       0.3329640871446943 0.8517383694284408
000130 d7 8a 93 d9 22 65 ed 3f 7c 7a 4a 2e 9d 34 cb 3f
       0.9185957192933881 0.2125431514768542
000140 84 2b 38 25 07 ab c3 3f 54 3e 7e b2 b5 8d e1 3f
       0.1536568576560421 0.5485485540575135
000150 da 12 13 53 90 c9 d4 3f 78 ae 9b cc 9a 4d e9 3f
       0.3248024760508038 0.7907232280972059
000160 fe 0f b5 97 76 7e d8 3f e4 fc a6 39 b4 b6 db 3f
       0.3827187043682442 0.4330263674746233
000170 00 64 71 71 28 00 e0 3f 18 f5 28 15 79 2a d9 3f
       0.5000192847902554 0.3932173449173475
000180 78 c5 3b 58 b7 87 e2 3f 5a 23 03 80 85 d4 dc 3f
       0.5790669177351182 0.45047128201672637
000190 b8 7c aa d2 18 14 b6 3f e1 10 a8 ee 47 0b e3 3f
       0.08624415534221697 0.5951270734081185
0001a0 79 fb 5d 9d 0d 42 e0 3f 2d 70 1a e1 e5 5a ea 3f
       0.5080631326271564 0.8235959431217502
0001b0 c8 5b db e6 f6 a0 dd 3f ae b6 83 6b b7 73 de 3f
       0.4629494909726728 0.47581277369941233
0001c0 fd 0a a4 3e 78 0d e6 3f 70 fe 74 10 de 22 b4 3f
       0.689144251199053 0.07865703489096076
0001d0 04 be 64 df 18 1d d8 3f 11 fa fa 6d 4c 05 ec 3f
       0.37677594962858074 0.8756467960409414
0001e0 8b 41 2f dc da 0f e1 3f e0 e8 74 04 c6 ce dd 3f
       0.533185415313754 0.4657454532167673
0001f0 e3 f3 a8 ed 20 46 e6 3f 88 a5 a4 07 2a 5f be 3f
       0.6960606233402554 0.11863959013557779
000200 b6 4e 46 1b 5e f9 e1 3f e8 12 d6 34 1a 87 e0 3f
       0.5616903813083443 0.5164919883687533
000210 20 6c f5 00 b5 aa ac 3f 58 24 12 41 4d ed b2 3f
       0.05598989140226984 0.07393343771595207
000220 81 d8 d8 c1 4e 8b e6 3f bd 0a ef 18 b7 69 ea 3f
       0.7045053278041139 0.8254046904551938
000230 f8 ed af 1f 80 5a e1 3f 64 2d 1e 93 e4 0a ea 3f
       0.5422974223033057 0.8138296960254761
000240 6f 51 97 5c a7 78 e9 3f 58 59 f2 02 03 e6 cc 3f
       0.7959782417697577 0.2257694019687715
000250 db dd 19 b5 a0 e1 ed 3f e2 1d 14 9c dd f8 d6 3f
       0.933792451584789 0.3589395546154873
000260 ea d8 e4 ef de d0 da 3f 78 8f d9 86 89 3c bb 3f
       0.4189984648431976 0.10639247457726053
000270 1f 50 72 e7 ac 25 ed 3f d8 16 a7 7a fa 1a b7 3f
       0.9108490486564768 0.09025540823412415
000280 48 21 74 35 ed fb e2 3f 84 b8 db 64 66 5a e9 3f
       0.593252758409144 0.7922851533783306
000290 a0 c4 15 f4 02 63 c5 3f 00 7b 52 be 6a 31 96 3f
       0.1670840923139041 0.021672885767311634
0002a0 f4 3e 7e 54 61 ff ce 3f e5 b8 86 33 54 f1 ef 3f
       0.24216858506814953 0.998209095608925
0002b0 b6 71 22 5d 6f c1 e9 3f 88 aa 56 ca 03 e0 e8 3f
       0.8048626727136738 0.7773455573963739
0002c0 70 82 2b 2d f4 c2 d4 3f 0c bc bb 01 0e 7c ee 3f
       0.32439903651360336 0.9526433976988087
0002d0 2b 35 24 fd 76 58 e9 3f 92 0f 8b 28 cf 3c d4 3f
       0.7920489257973363 0.31621149977967733
0002e0 04 40 fa a5 38 ca d5 3f 52 55 b7 d3 03 60 dd 3f
       0.3404676075815589 0.45898528743176314
0002f0 d0 cf 71 84 1e bb c3 3f b0 bb 86 b7 53 9d b0 3f
       0.15414792506237385 0.06490061979887574
000300 cc b5 3c eb e1 e0 e9 3f c8 b0 d0 c8 f4 61 ec 3f
       0.8087014765239302 0.886957542626555
000310 f8 c7 57 3e bc ca d2 3f e0 f5 7e 20 12 77 ee 3f
       0.2936239823167166 0.9520350107847513
000320 ac 63 76 b2 50 c1 e7 3f 72 e5 b7 8e ae 4d d0 3f
       0.7423480496973887 0.25474132478083
000330 93 e8 4b 63 a6 fe e9 3f 32 ea 71 27 db d5 d2 3f
       0.8123351992974385 0.2943027386860734
000340 f4 4d ed ce 1a 49 d9 3f 10 4f 6f 43 5e 0f ef 3f
       0.39508695800506577 0.9706260029874745
000350 77 8f b8 83 d5 0e ea 3f 09 46 19 5f e7 1d eb 3f
       0.8143107960390655 0.8474003655812236
000360 7a 6e 76 bb 73 6b df 3f 32 ba 26 a7 58 53 eb 3f
       0.4909333544435196 0.8539241089509402
000370 94 d8 9f a0 a6 50 ea 3f 92 e1 0f 07 68 43 d6 3f
       0.8223450791545184 0.3478641575780098
000380 c0 93 74 45 a4 82 9b 3f 0c e6 e0 a0 a9 d9 d9 3f
       0.02686554597780222 0.4039100714759065
000390 dc 65 a4 6c b8 34 e6 3f 03 8e c0 98 13 6a e9 3f
       0.6939355966489376 0.7941987975540886
0003a0 80 db 2f bf d6 a4 bd 3f b8 e1 56 59 bf a4 ec 3f
       0.11579649131441094 0.8951107735547827
0003b0 e9 76 08 66 4a 24 e6 3f fd 8d 03 23 f6 8f e2 3f
       0.6919300072510995 0.5800734218468616
0003c0 6b e8 3e 9c 70 1d ec 3f 06 a9 b8 53 96 3b e2 3f
       0.8785937358545771 0.569773829954358
0003d0 a8 c1 43 fb 72 82 e9 3f 2c 67 7c 4e 6d cd e2 3f
       0.7971739680779608 0.5875765355042168
0003e0 a4 ac 94 5f 5d 6d ed 3f df 77 ec f7 04 e0 ed 3f
       0.9196001879512505 0.9335961191425176
0003f0 b8 0f 9f 8c 0d ea cb 3f cb c1 c9 3d f9 27 ee 3f
       0.2180802284839254 0.9423795897292221
000400 76 02 ea f5 7b df ee 3f 3a f7 65 60 e3 d1 e8 3f
       0.9647807887086646 0.7756211169032448
000410 3a db ed e2 5a 46 ef 3f 3e cb b8 f9 95 0e d9 3f
       0.9773382599076748 0.39151524912738356
000420 20 af 20 4c 64 5f c3 3f c0 c5 c7 9e e4 21 ce 3f
       0.1513486263005399 0.23540933373400996
000430 52 05 f0 d9 87 c9 e8 3f 70 d8 24 fa 19 47 e2 3f
       0.7746009117692358 0.5711793790458284
000440 3b aa a9 9f f3 a8 e0 3f 00 e7 be fb ba 4c aa 3f
       0.5206239813244972 0.051366656523397225
000450 5e 5b c5 41 99 5f da 3f 30 e8 0c 67 66 90 ee 3f
       0.4120848791403001 0.9551269543364977
000460 e6 ad 36 84 fc c1 e0 3f d6 17 af e0 93 76 ec 3f
       0.5236799795433711 0.8894748104437393
000470 f3 2d d7 14 47 26 ee 3f a9 c0 b1 69 b8 86 eb 3f
       0.9421725661317722 0.8601953567831703

right_grad f8 [1, 16, 9]
000000 00 00 00 00 00 00 00 40 00 00 00 00 00 00 00 40
       2.0 2.0
000010 00 00 00 00 00 00 00 40 00 00 00 00 00 00 00 40
       2.0 2.0
000020 00 00 00 00 00 00 00 40 00 00 00 00 00 00 00 40
       2.0 2.0
000030 00 00 00 00 00 00 00 40 00 00 00 00 00 00 00 40
       2.0 2.0
000040 00 00 00 00 00 00 00 40 00 00 00 00 00 00 00 40
       2.0 2.0
000050 00 00 00 00 00 00 00 40 00 00 00 00 00 00 00 40
       2.0 2.0
000060 00 00 00 00 00 00 00 40 00 00 00 00 00 00 00 40
       2.0 2.0
000070 00 00 00 00 00 00 00 40 00 00 00 00 00 00 00 40
       2.0 2.0
000080 00 00 00 00 00 00 00 40 00 00 00 00 00 00 00 40
       2.0 2.0
000090 00 00 00 00 00 00 00 40 00 00 00 00 00 00 00 40
       2.0 2.0
0000a0 00 00 00 00 00 00 00 40 00 00 00 00 00 00 00 40
       2.0 2.0
0000b0 00 00 00 00 00 00 00 40 00 00 00 00 00 00 00 40
       2.0 2.0
0000c0 00 00 00 00 00 00 00 40 00 00 00 00 00 00 00 40
       2.0 2.0
0000d0 00 00 00 00 00 00 00 40 00 00 00 00 00 00 00 40
       2.0 2.0
0000e0 00 00 00 00 00 00 00 40 00 00 00 00 00 00 00 40
       2.0 2.0
0000f0 00 00 00 00 00 00 00 40 00 00 00 00 00 00 00 40
       2.0 2.0
000100 00 00 00 00 00 00 00 40 00 00 00 00 00 00 00 40
       2.0 2.0
000110 00 00 00 00 00 00 00 40 00 00 00 00 00 00 00 40
       2.0 2.0
000120 00 00 00 00 00 00 00 40 00 00 00 00 00 00 00 40
       2.0 2.0
000130 00 00 00 00 00 00 00 40 00 00 00 00 00 00 00 40
       2.0 2.0
000140 00 00 00 00 00 00 00 40 00 00 00 00 00 00 00 40
       2.0 2.0
000150 00 00 00 00 00 00 00 40 00 00 00 00 00 00 00 40
       2.0 2.0
000160 00 00 00 00 00 00 00 40 00 00 00 00 00 00 00 40
       2.0 2.0
000170 00 00 00 00 00 00 00 40 00 00 00 00 00 00 00 40
       2.0 2.0
000180 00 00 00 00 00 00 00 40 00 00 00 00 00 00 00 40
       2.0 2.0
000190 00 00 00 00 00 00 00 40 00 00 00 00 00 00 00 40
       2.0 2.0
0001a0 00 00 00 00 00 00 00 40 00 00 00 00 00 00 00 40
       2.0 2.0
0001b0 00 00 00 00 00 00 00 40 00 00 00 00 00 00 00 40
       2.0 2.0
0001c0 00 00 00 00 00 00 00 40 00 00 00 00 00 00 00 40
       2.0 2.0
0001d0 00 00 00 00 00 00 00 40 00 00 00 00 00 00 00 40
       2.0 2.0
0001e0 00 00 00 00 00 00 00 40 00 00 00 00 00 00 00 40
       2.0 2.0
0001f0 00 00 00 00 00 00 00 40 00 00 00 00 00 00 00 40
       2.0 2.0
000200 00 00 00 00 00 00 00 40 00 00 00 00 00 00 00 40
       2.0 2.0
000210 00 00 00 00 00 00 00 40 00 00 00 00 00 00 00 40
       2.0 2.0
000220 00 00 00 00 00 00 00 40 00 00 00 00 00 00 00 40
       2.0 2.0
000230 00 00 00 00 00 00 00 40 00 00 00 00 00 00 00 40
       2.0 2.0
000240 00 00 00 00 00 00 00 40 00 00 00 00 00 00 00 40
       2.0 2.0
000250 00 00 00 00 00 00 00 40 00 00 00 00 00 00 00 40
       2.0 2.0
000260 00 00 00 00 00 00 00 40 00 00 00 00 00 00 00 40
       2.0 2.0
000270 00 00 00 00 00 00 00 40 00 00 00 00 00 00 00 40
       2.0 2.0
000280 00 00 00 00 00 00 00 40 00 00 00 00 00 00 00 40
       2.0 2.0
000290 00 00 00 00 00 00 00 40 00 00 00 00 00 00 00 40
       2.0 2.0
0002a0 00 00 00 00 00 00 00 40 00 00 00 00 00 00 00 40
       2.0 2.0
0002b0 00 00 00 00 00 00 00 40 00 00 00 00 00 00 00 40
       2.0 2.0
0002c0 00 00 00 00 00 00 00 40 00 00 00 00 00 00 00 40
       2.0 2.0
0002d0 00 00 00 00 00 00 00 40 00 00 00 00 00 00 00 40
       2.0 2.0
0002e0 00 00 00 00 00 00 00 40 00 00 00 00 00 00 00 40
       2.0 2.0
0002f0 00 00 00 00 00 00 00 40 00 00 00 00 00 00 00 40
       2.0 2.0
000300 00 00 00 00 00 00 00 40 00 00 00 00 00 00 00 40
       2.0 2.0
000310 00 00 00 00 00 00 00 40 00 00 00 00 00 00 00 40
       2.0 2.0
000320 00 00 00 00 00 00 00 40 00 00 00 00 00 00 00 40
       2.0 2.0
000330 00 00 00 00 00 00 00 40 00 00 00 00 00 00 00 40
       2.0 2.0
000340 00 00 00 00 00 00 00 40 00 00 00 00 00 00 00 40
       2.0 2.0
000350 00 00 00 00 00 00 00 40 00 00 00 00 00 00 00 40
       2.0 2.0
000360 00 00 00 00 00 00 00 40 00 00 00 00 00 00 00 40
       2.0 2.0
000370 00 00 00 00 00 00 00 40 00 00 00 00 00 00 00 40
       2.0 2.0
000380 00 00 00 00 00 00 00 40 00 00 00 00 00 00 00 40
       2.0 2.0
000390 00 00 00 00 00 00 00 40 00 00 00 00 00 00 00 40
       2.0 2.0
0003a0 00 00 00 00 00 00 00 40 00 00 00 00 00 00 00 40
       2.0 2.0
0003b0 00 00 00 00 00 00 00 40 00 00 00 00 00 00 00 40
       2.0 2.0
0003c0 00 00 00 00 00 00 00 40 00 00 00 00 00 00 00 40
       2.0 2.0
0003d0 00 00 00 00 00 00 00 40 00 00 00 00 00 00 00 40
       2.0 2.0
0003e0 00 00 00 00 00 00 00 40 00 00 00 00 00 00 00 40
       2.0 2.0
0003f0 00 00 00 00 00 00 00 40 00 00 00 00 00 00 00 40
       2.0 2.0
000400 00 00 00 00 00 00 00 40 00 00 00 00 00 00 00 40
       2.0 2.0
000410 00 00 00 00 00 00 00 40 00 00 00 00 00 00 00 40
       2.0 2.0
000420 00 00 00 00 00 00 00 40 00 00 00 00 00 00 00 40
       2.0 2.0
000430 00 00 00 00 00 00 00 40 00 00 00 00 00 00 00 40
       2.0 2.0
000440 00 00 00 00 00 00 00 40 00 00 00 00 00 00 00 40
       2.0 2.0
000450 00 00 00 00 00 00 00 40 00 00 00 00 00 00 00 40
       2.0 2.0
000460 00 00 00 00 00 00 00 40 00 00 00 00 00 00 00 40
       2.0 2.0
000470 00 00 00 00 00 00 00 40 00 00 00 00 00 00 00 40
       2.0 2.0
