src/Sci.NET.Mathematics.IntegrationTests/Tensors/Arithmetic/Examples/Multiply_3.safetensors (safetensors, 4376 bytes, 5 tensors)

left f8 [3, 6, 9]
000000 00 12 d1 8b d0 35 84 3f e4 b6 16 4f 7e 49 c0 3f
       0.009868268267504199 0.12724284040216738
000010 21 00 85 c6 4a b3 e5 3f f6 47 ad b1 ab 81 e2 3f
       0.6781362416586526 0.5783289404155301
000020 a0 18 f8 3a 2f c1 ea 3f 88 c7 25 dc 80 f2 b6 3f
       0.8360820914974916 0.08963780760475804
000030 30 71 eb 38 59 13 a4 3f 68 f1 55 13 9e 0e da 3f
       0.039210117529110966 0.40714218033078575
000040 82 b6 44 b0 f4 46 d5 3f 02 85 9b ec 43 0a eb 3f
       0.33245579923355006 0.8450030919304086
000050 34 5d 1c 3d c5 5d ca 3f 56 0b f6 de 65 94 d6 3f
       0.20598664745259898 0.3528074910502047
000060 e0 44 77 4a 78 e1 d0 3f bc 3c a2 07 b2 dc ca 3f
       0.26376158973751096 0.20986008999577688
000070 61 d8 e9 a7 cb af ee 3f ee 74 8e 3e 49 07 ee 3f
       0.9589594153938031 0.9383894178205574
000080 72 26 2b 97 82 67 e4 3f bf 39 f2 f1 26 9f e6 3f
       0.6376355125914428 0.7069277501594157
000090 00 26 a6 12 90 1f e5 3f 12 e4 46 84 79 61 d8 3f
       0.6601028789747829 0.38094938199680073
0000a0 ba b7 cc c1 d0 e0 dd 3f 5e 48 6d e0 ea cf de 3f
       0.4668466465544686 0.48144027630508457
0000b0 9a d7 95 14 57 16 e2 3f 2e 0c 9a 39 9b 12 ef 3f
       0.5652270700509121 0.9710212826761386
0000c0 d6 38 1f b9 ff da d4 3f 04 e7 cb cd 11 65 c2 3f
       0.32586663320843223 0.14370939778000758
0000d0 b8 c3 f0 cc 9c 18 be 3f ea 36 d4 b4 24 80 e8 3f
       0.11756305697851033 0.7656425029578859
0000e0 aa 72 4a 4d 70 3d da 3f 73 f6 0e 7f 64 55 eb 3f
       0.4099999193947875 0.8541738969431222
0000f0 fc 9d 20 d4 9e 3e c7 3f 28 c8 24 37 70 e1 cb 3f
       0.18159852369102214 0.2178173321968313
000100 30 36 b6 55 12 75 ef 3f b5 fa ba 5c 67 60 e5 3f
       0.9830409692819497 0.6680180369511023
000110 80 64 63 ca dd 79 79 3f a0 bc 52 28 31 f3 b3 3f
       0.006219736451577806 0.07792956575825594
000120 ca 44 eb 35 51 3f e0 3f 9f 78 06 b2 b3 7b ec 3f
       0.5077291539293125 0.8901003338867389
000130 a4 3d d0 eb 10 8e c6 3f 10 4a ef c2 55 60 ec 3f
       0.1762105132515731 0.8867596442526651
000140 d2 37 18 6d 15 41 de 3f 90 48 66 bc df 94 af 3f
       0.4727223935486765 0.061682693241111086
000150 ad a7 77 d9 1b 72 e7 3f 1d cd 60 70 08 de ec 3f
       0.7326792952928735 0.9021036333928439
000160 d6 32 c7 07 f4 a2 e7 3f 32 8f 0a 83 80 37 e7 3f
       0.738641753379478 0.725525146427094
000170 2c c5 e2 9d c9 8b d1 3f 00 7d 52 f2 d2 0a 76 3f
       0.2741569558957788 0.005381416330379141
000180 a4 5b 61 a6 2a 2d d0 3f ab 12 99 08 d9 fb e2 3f
       0.2527567505653059 0.5932431381157434
000190 9a 81 be aa 86 20 db 3f a2 96 1f 26 2b 5e dc 3f
       0.423860232107495 0.44324759219157717
0001a0 50 c9 3a 4a 67 fe d3 3f c2 2b dc d6 b7 94 e1 3f
       0.3124025559328816 0.5494040676579675
0001b0 97 0e 81 de 9a 6f e2 3f 07 74 6e d5 15 7c eb 3f
       0.5761236520560996 0.8588971298773921
0001c0 bb 35 61 57 35 27 eb 3f 54 3f 23 15 4f 0d d6 3f
       0.8485361773143077 0.3445623117850023
0001d0 37 4e ca 75 4c 3b eb 3f 1c c2 23 1d 28 fa ed 3f
       0.8509886074629723 0.9367867058882129
0001e0 10 d1 ee 2c b0 af c4 3f 1c 20 6f 1a 18 3c e1 3f
       0.16161157793033754 0.5385857120791147
0001f0 72 2c 6b 10 a7 d6 d6 3f 40 cb 6b 69 1a 31 eb 3f
       0.3568513546312665 0.8497440394406581
000200 00 e9 ac 9c b4 f1 69 3f 20 82 52 dd f7 d9 ec 3f
       0.0031670119837176047 0.901607448835481
000210 2d 45 04 b8 dc 92 e6 3f fb 59 16 42 74 70 e2 3f
       0.7054275125575821 0.5762273112075599
000220 bc b4 ee 7e 29 4b cd 3f cb b1 30 93 bd 56 e1 3f
       0.22885626504777246 0.5418384432610365
000230 c7 59 bc b8 ba fa e7 3f 30 fa 39 68 f0 f4 ee 3f
       0.7493566139335649 0.9673997913049046
000240 34 56 6c bb fc bb d8 3f 60 4f 6c fd 16 97 93 3f
       0.3864738302521318 0.019131049363820707
000250 14 64 89 df c3 a7 c7 3f a0 3c ab 3a 75 c3 e0 3f
       0.18480728545071712 0.5238596101643402
000260 f0 e2 29 4c 4f e5 bf 3f 30 3a fe d3 58 f0 e9 3f
       0.1245927391954742 0.8105892315377954
000270 80 6c fc 29 91 58 7c 3f f6 b7 29 94 aa 01 d0 3f
       0.006920401617914185 0.2501017043022097
000280 d6 08 95 1c ff 4e d6 3f 9c 27 e0 ef 1c 0b e7 3f
       0.3485715655443874 0.7201065716810606
000290 5e 2c 7b 5b 63 4b df 3f b5 a5 a5 4c b1 42 ed 3f
       0.48897632535653723 0.914391183568276
0002a0 f6 1b 3a 6a 9a 77 e7 3f 88 c9 f2 60 7c 6e da 3f
       0.7333499979730493 0.41299352138153056
0002b0 58 58 46 92 1f ec dd 3f 90 32 44 08 e3 5f a6 3f
       0.467536824079962 0.04370030856998597
0002c0 90 7c 3f b9 0a 11 b8 3f 27 01 3b 27 2a a8 ed 3f
       0.09401003859192003 0.9267779127331196
0002d0 96 ee 0e 17 68 20 d6 3f 0d f3 8a 19 5c 91 e7 3f
       0.345727942006968 0.7364941119081735
0002e0 b4 3a b1 16 91 77 e0 3f eb ac fa eb 20 79 e7 3f
       0.5145955508431457 0.7335362061470766
0002f0 84 6a 03 03 9b 0a c7 3f 7a 3d f5 68 70 4c e5 3f
       0.18001115462432804 0.6655809450111712
000300 d3 64 0e bc b6 92 ed 3f 48 e0 67 f7 d2 d1 e8 3f
       0.92415940026981 0.7756132919448726
000310 c2 af f1 35 8a ed e2 3f 37 77 ae d9 50 a2 e8 3f
       0.5914965680690261 0.7698139430610585
000320 2c 90 ab 4e ba 53 d2 3f a0 51 f6 95 a5 37 c5 3f
       0.2863603370917669 0.16576070616123406
000330 9d b9 a6 2b 48 dc ee 3f e0 15 fc a4 d1 e4 96 3f
       0.9643898823322165 0.022357249922626
000340 8c 56 d6 a5 0d 62 c2 3f 64 01 e3 fd d9 01 db 3f
       0.14361734960100525 0.42198800843836737
000350 aa 2c 50 5f b8 52 e3 3f 6d 75 04 55 ea b3 e6 3f
       0.6038476811967446 0.7094623241897985
000360 59 a4 ee 52 4b da eb 3f f7 e6 ca eb 71 20 e7 3f
       0.8703972453851164 0.7227105717967949
000370 ab 5b 95 a8 ee a7 ef 3f 9c f2 6b b5 a9 af e3 3f
       0.9892495434422605 0.6151932280914312
000380 45 60 c5 e8 00 6b e3 3f 11 bc 11 6f b7 b3 e6 3f
       0.6068119570072744 0.7094380540200992
000390 78 a6 9a e5 7b 8b ec 3f b6 c3 7b 31 cf 9d dd 3f
       0.892026852078927 0.4627569182621828
0003a0 91 99 c6 60 2b a8 ef 3f ff ae 5b ba 70 9f e6 3f
       0.9892784967567413 0.7069629325683023
0003b0 e8 cf 9b 86 a5 e1 db 3f a0 01 73 6a c9 9c c2 3f
       0.435647374585868 0.1454097528239915
0003c0 00 65 d2 c0 10 1c 74 3f 60 23 f8 3b ae 6a 9b 3f
       0.004909577791431419 0.026774141702876064
0003d0 c0 bc 40 bf c1 47 84 3f e1 18 d4 8d c5 07 ee 3f
       0.00990249028117629 0.9384486932838422
0003e0 78 0f 18 bd 52 b0 d8 3f 3d 37 e3 74 6a 7e ee 3f
       0.38576191393098425 0.9529316218338192
0003f0 c8 31 f2 b2 4e 61 cc 3f 53 a6 6f 7e 07 cd e1 3f
       0.22171958673096825 0.5562779874282547
000400 f4 85 3c b2 a9 36 dd 3f 24 17 27 76 1c ae c3 3f
       0.45646135717296876 0.15375095147299433
000410 5c dd ff d0 d9 13 d5 3f a1 5c f3 19 f2 81 e9 3f
       0.32933659944634086 0.7971125132416043
000420 d0 f5 00 3d 5d f7 d3 3f ef 71 96 c3 da ec ed 3f
       0.3119729133357767 0.9351629085609242
000430 30 04 d1 d5 b8 08 cc 3f 7c 24 40 82 9f 26 cc 3f
       0.21901617470033008 0.21992868289843048
000440 52 68 a4 4e 45 d1 e6 3f 74 35 21 92 48 c2 dd 3f
       0.7130457435589597 0.4649831225441041
000450 fc 55 94 e2 e0 3a cb 3f ca 36 6e c4 30 fc d9 3f
       0.2127343279213817 0.40601748640697777
000460 b3 c6 e4 ad 3d 2d e8 3f 77 3d 75 f9 6f ff ef 3f
       0.7555225750313269 0.9999313232637367
000470 58 d5 28 52 f6 56 e0 3f b0 53 ed a6 58 b0 d0 3f
       0.5106155018499221 0.26076332379789857
000480 1a c2 aa c7 18 8d e9 3f 6e ee f0 fc f4 b8 e5 3f
       0.7984737300631111 0.6788277569061856
000490 68 2c 76 68 82 26 e5 3f d9 ad af 60 98 76 e9 3f
       0.660950855280487 0.7957269562152148
0004a0 41 a6 05 c7 05 da e9 3f 16 b3 3a ac 81 4d d4 3f
       0.8078640830182807 0.31723062342898467
0004b0 b2 32 dc 3f db 60 ef 3f da 37 fd ba ba 22 e6 3f
       0.9805732962864424 0.6917394306308282
0004c0 13 1c fd 47 4b 95 e1 3f ea 20 49 92 30 72 d0 3f
       0.549474373438786 0.25696958814343296
0004d0 4a 15 1e ba 09 0b e4 3f 27 0c ee e8 7f d6 e5 3f
       0.6263474116428054 0.6824340390597897
0004e0 74 13 e3 08 44 93 e0 3f a0 81 81 9a 4c fc ac 3f
       0.5179767774176143 0.056612390385228695
0004f0 bc 87 9e 71 97 51 c4 3f 56 5b fc 19 36 62 d9 3f
       0.1587399773389374 0.39661934411690447
000500 10 3d ce 9b e7 2f c7 3f 25 24 a2 fb 38 d6 e5 3f
       0.18114943607040646 0.6824002184595243

left_grad f8 [3, 6, 9]
000000 40 d2 d1 a7 8f e3 bd 3f b9 e5 f5 8d 7a c4 e0 3f
       0.11675355765493922 0.5239842198054055
000010 91 7f db 6e ca a6 e4 3f b3 e8 d4 e6 f7 44 e2 3f
       0.6453601994689838 0.5709189899855772
000020 80 66 42 cb 59 78 b0 3f b4 65 92 d5 1e 24 dc 3f
       0.06433640682589647 0.43970461708667163
000030 cb 58 af 0d ac 00 ee 3f 90 6b 98 10 dc 93 ce 3f
       0.9375820414814141 0.23888731775590744
000040 00 2b 6b df 89 27 ec 3f 40 d2 d1 a7 8f e3 bd 3f
       0.8798264850277917 0.11675355765493922
000050 b9 e5 f5 8d 7a c4 e0 3f 91 7f db 6e ca a6 e4 3f
       0.5239842198054055 0.6453601994689838
000060 b3 e8 d4 e6 f7 44 e2 3f 80 66 42 cb 59 78 b0 3f
       0.5709189899855772 0.06433640682589647
000070 b4 65 92 d5 1e 24 dc 3f cb 58 af 0d ac 00 ee 3f
       0.43970461708667163 0.9375820414814141
000080 90 6b 98 10 dc 93 ce 3f 00 2b 6b df 89 27 ec 3f
       0.23888731775590744 0.8798264850277917
000090 40 d2 d1 a7 8f e3 bd 3f b9 e5 f5 8d 7a c4 e0 3f
       0.11675355765493922 0.5239842198054055
0000a0 91 7f db 6e ca a6 e4 3f b3 e8 d4 e6 f7 44 e2 3f
       0.6453601994689838 0.5709189899855772
0000b0 80 66 42 cb 59 78 b0 3f b4 65 92 d5 1e 24 dc 3f
       0.06433640682589647 0.43970461708667163
0000c0 cb 58 af 0d ac 00 ee 3f 90 6b 98 10 dc 93 ce 3f
       0.9375820414814141 0.23888731775590744
0000d0 00 2b 6b df 89 27 ec 3f 40 d2 d1 a7 8f e3 bd 3f
       0.8798264850277917 0.11675355765493922
0000e0 b9 e5 f5 8d 7a c4 e0 3f 91 7f db 6e ca a6 e4 3f
       0.5239842198054055 0.6453601994689838
0000f0 b3 e8 d4 e6 f7 44 e2 3f 80 66 42 cb 59 78 b0 3f
       0.5709189899855772 0.06433640682589647
000100 b4 65 92 d5 1e 24 dc 3f cb 58 af 0d ac 00 ee 3f
       0.43970461708667163 0.9375820414814141
000110 90 6b 98 10 dc 93 ce 3f 00 2b 6b df 89 27 ec 3f
       0.23888731775590744 0.8798264850277917
000120 40 d2 d1 a7 8f e3 bd 3f b9 e5 f5 8d 7a c4 e0 3f
       0.11675355765493922 0.5239842198054055
000130 91 7f db 6e ca a6 e4 3f b3 e8 d4 e6 f7 44 e2 3f
       0.6453601994689838 0.5709189899855772
000140 80 66 42 cb 59 78 b0 3f b4 65 92 d5 1e 24 dc 3f
       0.06433640682589647 0.43970461708667163
000150 cb 58 af 0d ac 00 ee 3f 90 6b 98 10 dc 93 ce 3f
       0.9375820414814141 0.23888731775590744
000160 00 2b 6b df 89 27 ec 3f 40 d2 d1 a7 8f e3 bd 3f
       0.8798264850277917 0.11675355765493922
000170 b9 e5 f5 8d 7a c4 e0 3f 91 7f db 6e ca a6 e4 3f
       0.5239842198054055 0.6453601994689838
000180 b3 e8 d4 e6 f7 44 e2 3f 80 66 42 cb 59 78 b0 3f
       0.5709189899855772 0.06433640682589647
000190 b4 65 92 d5 1e 24 dc 3f cb 58 af 0d ac 00 ee 3f
       0.43970461708667163 0.9375820414814141
0001a0 90 6b 98 10 dc 93 ce 3f 00 2b 6b df 89 27 ec 3f
       0.23888731775590744 0.8798264850277917
0001b0 40 d2 d1 a7 8f e3 bd 3f b9 e5 f5 8d 7a c4 e0 3f
       0.11675355765493922 0.5239842198054055
0001c0 91 7f db 6e ca a6 e4 3f b3 e8 d4 e6 f7 44 e2 3f
       0.6453601994689838 0.5709189899855772
0001d0 80 66 42 cb 59 78 b0 3f b4 65 92 d5 1e 24 dc 3f
       0.06433640682589647 0.43970461708667163
0001e0 cb 58 af 0d ac 00 ee 3f 90 6b 98 10 dc 93 ce 3f
       0.9375820414814141 0.23888731775590744
0001f0 00 2b 6b df 89 27 ec 3f 40 d2 d1 a7 8f e3 bd 3f
       0.8798264850277917 0.11675355765493922
000200 b9 e5 f5 8d 7a c4 e0 3f 91 7f db 6e ca a6 e4 3f
       0.5239842198054055 0.6453601994689838
000210 b3 e8 d4 e6 f7 44 e2 3f 80 66 42 cb 59 78 b0 3f
       0.5709189899855772 0.06433640682589647
000220 b4 65 92 d5 1e 24 dc 3f cb 58 af 0d ac 00 ee 3f
       0.43970461708667163 0.9375820414814141
000230 90 6b 98 10 dc 93 ce 3f 00 2b 6b df 89 27 ec 3f
       0.23888731775590744 0.8798264850277917
000240 40 d2 d1 a7 8f e3 bd 3f b9 e5 f5 8d 7a c4 e0 3f
       0.11675355765493922 0.5239842198054055
000250 91 7f db 6e ca a6 e4 3f b3 e8 d4 e6 f7 44 e2 3f
       0.6453601994689838 0.5709189899855772
000260 80 66 42 cb 59 78 b0 3f b4 65 92 d5 1e 24 dc 3f
       0.06433640682589647 0.43970461708667163
000270 cb 58 af 0d ac 00 ee 3f 90 6b 98 10 dc 93 ce 3f
       0.9375820414814141 0.23888731775590744
000280 00 2b 6b df 89 27 ec 3f 40 d2 d1 a7 8f e3 bd 3f
       0.8798264850277917 0.11675355765493922
000290 b9 e5 f5 8d 7a c4 e0 3f 91 7f db 6e ca a6 e4 3f
       0.5239842198054055 0.6453601994689838
0002a0 b3 e8 d4 e6 f7 44 e2 3f 80 66 42 cb 59 78 b0 3f
       0.5709189899855772 0.06433640682589647
0002b0 b4 65 92 d5 1e 24 dc 3f cb 58 af 0d ac 00 ee 3f
       0.43970461708667163 0.9375820414814141
0002c0 90 6b 98 10 dc 93 ce 3f 00 2b 6b df 89 27 ec 3f
       0.23888731775590744 0.8798264850277917
0002d0 40 d2 d1 a7 8f e3 bd 3f b9 e5 f5 8d 7a c4 e0 3f
       0.11675355765493922 0.5239842198054055
0002e0 91 7f db 6e ca a6 e4 3f b3 e8 d4 e6 f7 44 e2 3f
       0.6453601994689838 0.5709189899855772
0002f0 80 66 42 cb 59 78 b0 3f b4 65 92 d5 1e 24 dc 3f
       0.06433640682589647 0.43970461708667163
000300 cb 58 af 0d ac 00 ee 3f 90 6b 98 10 dc 93 ce 3f
       0.9375820414814141 0.23888731775590744
000310 00 2b 6b df 89 27 ec 3f 40 d2 d1 a7 8f e3 bd 3f
       0.8798264850277917 0.11675355765493922
000320 b9 e5 f5 8d 7a c4 e0 3f 91 7f db 6e ca a6 e4 3f
       0.5239842198054055 0.6453601994689838
000330 b3 e8 d4 e6 f7 44 e2 3f 80 66 42 cb 59 78 b0 3f
       0.5709189899855772 0.06433640682589647
000340 b4 65 92 d5 1e 24 dc 3f cb 58 af 0d ac 00 ee 3f
       0.43970461708667163 0.9375820414814141
000350 90 6b 98 10 dc 93 ce 3f 00 2b 6b df 89 27 ec 3f
       0.23888731775590744 0.8798264850277917
000360 40 d2 d1 a7 8f e3 bd 3f b9 e5 f5 8d 7a c4 e0 3f
       0.11675355765493922 0.5239842198054055
000370 91 7f db 6e ca a6 e4 3f b3 e8 d4 e6 f7 44 e2 3f
       0.6453601994689838 0.5709189899855772
000380 80 66 42 cb 59 78 b0 3f b4 65 92 d5 1e 24 dc 3f
       0.06433640682589647 0.43970461708667163
000390 cb 58 af 0d ac 00 ee 3f 90 6b 98 10 dc 93 ce 3f
       0.9375820414814141 0.23888731775590744
0003a0 00 2b 6b df 89 27 ec 3f 40 d2 d1 a7 8f e3 bd 3f
       0.8798264850277917 0.11675355765493922
0003b0 b9 e5 f5 8d 7a c4 e0 3f 91 7f db 6e ca a6 e4 3f
       0.5239842198054055 0.6453601994689838
0003c0 b3 e8 d4 e6 f7 44 e2 3f 80 66 42 cb 59 78 b0 3f
       0.5709189899855772 0.06433640682589647
0003d0 b4 65 92 d5 1e 24 dc 3f cb 58 af 0d ac 00 ee 3f
       0.43970461708667163 0.9375820414814141
0003e0 90 6b 98 10 dc 93 ce 3f 00 2b 6b df 89 27 ec 3f
       0.23888731775590744 0.8798264850277917
0003f0 40 d2 d1 a7 8f e3 bd 3f b9 e5 f5 8d 7a c4 e0 3f
       0.11675355765493922 0.5239842198054055
000400 91 7f db 6e ca a6 e4 3f b3 e8 d4 e6 f7 44 e2 3f
       0.6453601994689838 0.5709189899855772
000410 80 66 42 cb 59 78 b0 3f b4 65 92 d5 1e 24 dc 3f
       0.06433640682589647 0.43970461708667163
000420 cb 58 af 0d ac 00 ee 3f 90 6b 98 10 dc 93 ce 3f
       0.9375820414814141 0.23888731775590744
000430 00 2b 6b df 89 27 ec 3f 40 d2 d1 a7 8f e3 bd 3f
       0.8798264850277917 0.11675355765493922
000440 b9 e5 f5 8d 7a c4 e0 3f 91 7f db 6e ca a6 e4 3f
       0.5239842198054055 0.6453601994689838
000450 b3 e8 d4 e6 f7 44 e2 3f 80 66 42 cb 59 78 b0 3f
       0.5709189899855772 0.06433640682589647
000460 b4 65 92 d5 1e 24 dc 3f cb 58 af 0d ac 00 ee 3f
       0.43970461708667163 0.9375820414814141
000470 90 6b 98 10 dc 93 ce 3f 00 2b 6b df 89 27 ec 3f
       0.23888731775590744 0.8798264850277917
000480 40 d2 d1 a7 8f e3 bd 3f b9 e5 f5 8d 7a c4 e0 3f
       0.11675355765493922 0.5239842198054055
000490 91 7f db 6e ca a6 e4 3f b3 e8 d4 e6 f7 44 e2 3f
       0.6453601994689838 0.5709189899855772
0004a0 80 66 42 cb 59 78 b0 3f b4 65 92 d5 1e 24 dc 3f
       0.06433640682589647 0.43970461708667163
0004b0 cb 58 af 0d ac 00 ee 3f 90 6b 98 10 dc 93 ce 3f
       0.9375820414814141 0.23888731775590744
0004c0 00 2b 6b df 89 27 ec 3f 40 d2 d1 a7 8f e3 bd 3f
       0.8798264850277917 0.11675355765493922
0004d0 b9 e5 f5 8d 7a c4 e0 3f 91 7f db 6e ca a6 e4 3f
       0.5239842198054055 0.6453601994689838
0004e0 b3 e8 d4 e6 f7 44 e2 3f 80 66 42 cb 59 78 b0 3f
       0.5709189899855772 0.06433640682589647
0004f0 b4 65 92 d5 1e 24 dc 3f cb 58 af 0d ac 00 ee 3f
       0.43970461708667163 0.9375820414814141
000500 90 6b 98 10 dc 93 ce 3f 00 2b 6b df 89 27 ec 3f
       0.23888731775590744 0.8798264850277917

result f8 [3, 6, 9]
000000 d3 98 8e 78 7d e0 52 3f 81 a0 44 5b 7f 11 b1 3f
       0.0011521554281244586 0.06667324045395341
000010 82 43 dc 2d 54 02 dc 3f ae df 5e fe a6 21 d5 3f
       0.43764214018397507 0.3301789745414635
000020 e1 24 ab 43 6e 8a ab 3f 8f ac 18 ae 17 2e a4 3f
       0.053790517578429016 0.03941415786933888
000030 d2 29 f2 95 8f d2 a2 3f 1c 96 4b 8a 1a e6 b8 3f
       0.03676270203967004 0.09726110340451338
000040 1c 41 c8 40 60 b8 d2 3f 48 c8 f1 c3 97 41 b9 3f
       0.29250341726675955 0.09865711721229886
000050 38 7b 38 e2 8b a1 bb 3f 59 e5 94 a5 e0 24 cd 3f
       0.10793375275578121 0.22768791279831183
000060 1c 68 3d 1f 6b 46 c3 3f 2f 55 b9 ff bf a6 8b 3f
       0.15058650040992994 0.013501644126487548
000070 02 f9 a6 89 75 fc da 3f c9 be a6 1e 76 27 ec 3f
       0.4216588825473907 0.8798170660647538
000080 1a a3 d5 3f 52 7f c3 3f 89 67 7a 82 35 e7 e3 3f
       0.1523230373088829 0.6219737575913636
000090 34 e9 bd 4a d1 ba b3 3f 98 8a 6b 54 de 8c c9 3f
       0.07706935953857369 0.19961146471094504
0000a0 74 cf b4 b6 3d 48 d3 3f eb be 7a a4 5c 97 d1 3f
       0.30128424494181805 0.2748633962864761
0000b0 c8 1e bb 23 64 9e a2 3f d4 1e db b1 5a 53 db 3f
       0.03636467872780497 0.4269625412821203
0000c0 b9 07 97 df bf 8d d3 3f eb 16 1d 7b bf 93 a1 3f
       0.3055267032142371 0.03433035257198277
0000d0 88 0d ec dd b8 7a ba 3f b7 80 64 45 5c e2 b6 3f
       0.10343509119052474 0.0893914861121655
0000e0 2e 43 46 ea a9 7f cb 3f 88 e0 77 b2 d6 a3 e1 3f
       0.2148334878843569 0.5512498365124125
0000f0 04 a2 b7 f7 a4 8a ba 3f 09 83 f2 78 27 b3 8c 3f
       0.10367804572855027 0.014013584497946778
000100 ea 38 54 0f f2 a9 db 3f fa 29 3f d6 d3 0a e4 3f
       0.4322476529786302 0.6263217148310212
000110 9e fd a1 f3 f6 57 58 3f 10 8d a5 5b 71 8d b1 3f
       0.0014858161580660677 0.06856449592082847
000120 ac 28 37 62 d7 59 ae 3f 0a 54 3d 37 79 d9 dd 3f
       0.059279185046379496 0.46639852900017387
000130 62 9f 2e 74 b4 1c bd 3f c8 03 2c c8 58 33 e0 3f
       0.11371925198056723 0.5062679204567013
000140 6d ea 28 58 a7 24 9f 3f 0a a0 e6 ae e9 c5 9b 3f
       0.030413260227059192 0.02712216501245738
000150 7d b2 3c 2b 78 fb e5 3f 7c 85 91 65 8a 95 cb 3f
       0.6869469494318562 0.21550111731907495
000160 c7 45 e3 f6 c9 cb e4 3f fa 4f 2b 68 66 af b5 3f
       0.6498765775706311 0.08470764201348394
000170 27 bc 3f 69 40 63 c2 3f 89 35 d9 dc 4e 73 6c 3f
       0.14365391863927465 0.003472951916399129
000180 2e 94 13 93 8a 78 c2 3f a4 e8 6a 6e a4 8a a3 3f
       0.14430362874478092 0.038167131880485955
000190 c9 a2 71 90 14 db c7 3f 5c 3d 07 fa e0 98 da 3f
       0.18637330105709385 0.4155809823687002
0001a0 60 a8 78 ff e2 1a b3 3f 0b a9 01 b7 b3 ef de 3f
       0.07462900864689592 0.48338024970748056
0001b0 4f bd aa cf 3e 38 b1 3f 93 5f e7 66 98 cd dc 3f
       0.06726448602670597 0.45004854249190734
0001c0 61 c9 e3 80 08 86 e1 3f 3b 15 7b 33 07 2e c9 3f
       0.5476114766482106 0.19671716703138906
0001d0 dd 67 08 07 22 08 ac 3f 04 ed 37 69 b9 5c da 3f
       0.05474954925394091 0.41190943980446115
0001e0 47 8f 4b 63 24 65 c3 3f c0 75 97 2d f9 77 c0 3f
       0.15152411316295852 0.12866129614023514
0001f0 76 60 69 30 0a 18 d4 3f 29 19 ee 54 de 65 b9 3f
       0.31396727302263316 0.09921063970077583
000200 0e 1b 5e 3a 4c 30 5b 3f 35 7d ff 23 9c 9e e2 3f
       0.0016594643034026388 0.5818615630231877
000210 ca bf ed 39 86 c6 d9 3f 41 fa cb 25 27 fb a2 3f
       0.4027419629774128 0.03707239471804203
000220 ec e1 b8 17 d5 c2 b9 3f 51 dd a2 f3 ae 41 e0 3f
       0.10062915639071662 0.5080179937857939
000230 63 80 24 bf db e9 c6 3f be 97 f9 40 92 3c eb 3f
       0.17901179154523836 0.8511439580004134
000240 6f 59 74 9c 41 1a a7 3f f5 97 ec e4 a7 87 84 3f
       0.045122194622467464 0.010024367974960294
000250 32 bc 89 b1 4c 88 be 3f 73 7c 74 4f 26 24 d3 3f
       0.11926726660179623 0.2990813995292633
000260 89 f8 cf 0f 9d 6a 80 3f f3 b1 de 1b 95 cf d6 3f
       0.008015849156432846 0.35641982766790575
000270 5f 35 88 7f a0 93 7a 3f 79 13 83 4c 0b 97 ae 3f
       0.006488444276795262 0.05974612530693597
000280 aa a7 e2 9d af a0 d3 3f f0 28 2b 81 f0 85 b5 3f
       0.30668249529355285 0.08407500413446534
000290 09 5d 8d 48 d7 65 d0 3f 3d 4d 02 e2 31 e2 e2 3f
       0.25621587834525933 0.5901116766203028
0002a0 0e 30 b4 a0 b5 cb da 3f d9 3c 25 5c 4d 35 9b 3f
       0.4186834401486984 0.026570519208061725
0002b0 22 4c 94 18 62 50 ca 3f 88 ca b5 24 5d fa a4 3f
       0.20557810020599826 0.04097262452241518
0002c0 35 61 93 d8 2d ff 96 3f c8 20 b7 9c c9 17 ea 3f
       0.022457805961353123 0.815403753361374
0002d0 70 75 24 8c b7 aa a4 3f c6 4b 3d 47 c5 b2 d8 3f
       0.04036496721003402 0.3859112926194793
0002e0 f8 a3 48 35 1e 41 d5 3f 6c ba f6 85 73 cd da 3f
       0.3320994873379841 0.4187897499313411
0002f0 f7 72 4e dd eb b7 87 3f c2 48 1c e0 ec ba d2 3f
       0.011581270877110124 0.29265901456632204
000300 f6 57 89 51 2a ba eb 3f ef 6d 7b 58 64 b7 c7 3f
       0.8664752571592078 0.18528417892854018
000310 28 ae c3 fc 3b a7 e0 3f 56 32 58 49 47 02 b7 3f
       0.5204143463901731 0.0898785165847554
000320 bb 60 f7 59 c8 34 c3 3f 18 ec f3 c2 bc 62 bb 3f
       0.15004829781424242 0.10697536239233363
000330 23 36 d4 c4 6b 9e e1 3f a6 c4 f5 44 06 91 57 3f
       0.5505884975734187 0.0014383851265303087
000340 f8 ac 13 f7 8b 2a b0 3f 92 43 85 93 4d 52 d9 3f
       0.06314921171331267 0.3956483784323207
000350 83 f7 09 bb d5 76 c2 3f 43 91 c0 20 7a f9 e3 3f
       0.14425155289421462 0.624203742951558
000360 3e 06 0f d3 e5 03 ba 3f 3a 5b e9 83 70 3c d8 3f
       0.10162197497177147 0.3786889351080621
000370 24 d0 24 91 f4 6d e4 3f d1 79 2b 81 7a 7a d6 3f
       0.6384222826804984 0.3512254964279267
000380 b3 68 7a 69 10 fd a3 3f ba 89 8c 8f e0 f6 d3 3f
       0.039040100932838405 0.31194318788962117
000390 87 02 30 a1 5d c3 ea 3f f6 c4 7b da ca 4c bc 3f
       0.8363483570283997 0.11054675897664254
0003a0 e2 61 8b 4e 43 da eb 3f 0b 3c b1 bf 5e 21 b5 3f
       0.8703934225150614 0.0825404375075182
0003b0 38 e9 3b 42 07 38 cd 3f 4b 4a 24 eb 01 06 b8 3f
       0.2282723496826493 0.09384166708722678
0003c0 a7 d9 81 b3 41 f6 66 3f 49 60 6e 34 e8 38 5c 3f
       0.0028029711939396465 0.0017225520730104352
0003d0 c3 da ef cb ad d5 71 3f bd 67 94 ab ea 27 ec 3f
       0.0043541706972891085 0.8798726416746302
0003e0 f1 ca 61 56 61 97 b7 3f 3a 1f 24 9a 4a d4 ea 3f
       0.09215362891135805 0.838414479309882
0003f0 90 7b 1e 00 01 82 9a 3f 3d 07 86 73 9f a7 d2 3f
       0.0258865505526234 0.29148088723751525
000400 b1 ec f5 6d 6e da d2 3f 7b 3a a6 e9 b4 78 b6 3f
       0.2945819925150302 0.08777933792428343
000410 5d 4b ce fc 64 b2 95 3f 98 c0 22 9b 7e 6e d6 3f
       0.021188333444637098 0.35049405240989406
000420 66 f4 4f c3 52 b8 d2 3f 9d 7d 34 f0 52 98 cc 3f
       0.2925002009722618 0.2233985588909321
000430 b6 78 6d 25 45 aa c8 3f c9 0b c9 e9 30 4b 9a 3f
       0.19269623115082418 0.02567745615875675
000440 cb 1c cb a5 77 e9 d7 3f d8 e1 4c 75 89 34 d3 3f
       0.37362471762430677 0.30008160071477397
000450 de 39 72 20 9d 17 bf 3f 87 37 1a 07 a6 bf 9a 3f
       0.12145406763213581 0.026121706183907214
000460 10 60 51 29 e0 42 d5 3f a9 e1 86 04 25 00 ee 3f
       0.3322067645544857 0.9375176514068261
000470 2d ef cc 8d 0d 3a bf 3f 01 e6 36 cb d8 5d cd 3f
       0.12197956764151448 0.229426478601269
000480 38 c2 41 11 92 dd b7 3f 83 45 13 19 b5 c3 d6 3f
       0.09322464867887781 0.35569503258474117
000490 ab d0 48 24 9e 4c db 3f f4 86 8c fa 2d 13 dd 3f
       0.42655137580301056 0.45429563014668806
0004a0 f1 e5 83 07 7a 9c aa 3f 7d 79 bf 38 bc da c1 3f
       0.05197507230509391 0.13948776980300784
0004b0 99 30 e4 41 76 6b ed 3f de f1 56 d3 d6 26 c5 3f
       0.9193679129544022 0.16524777716939715
0004c0 61 91 55 29 b7 f0 de 3f 47 9b 51 c3 df b8 9e 3f
       0.4834421065954953 0.030002113624870288
0004d0 77 7f 45 77 2a 01 d5 3f 21 57 97 9d c5 2f dc 3f
       0.32819615981679057 0.4404157675720502
0004e0 7d 06 b1 3b 1f ed d2 3f b1 be ab 84 53 d6 6d 3f
       0.2957227785992485 0.0036422377792105433
0004f0 85 90 e4 e1 53 de b1 3f cf 5e 1a 33 9b cc d7 3f
       0.06979870095216441 0.3718631743481468
000500 1c c9 63 a7 0c 28 a6 3f 4b 81 3a 07 6d 36 e3 3f
       0.04327430289585463 0.6003937855894405

right f8 [9]
000000 40 d2 d1 a7 8f e3 bd 3f b9 e5 f5 8d 7a c4 e0 3f
       0.11675355765493922 0.5239842198054055
000010 91 7f db 6e ca a6 e4 3f b3 e8 d4 e6 f7 44 e2 3f
       0.6453601994689838 0.5709189899855772
000020 80 66 42 cb 59 78 b0 3f b4 65 92 d5 1e 24 dc 3f
       0.06433640682589647 0.43970461708667163
000030 cb 58 af 0d ac 00 ee 3f 90 6b 98 10 dc 93 ce 3f
       0.9375820414814141 0.23888731775590744
000040 00 2b 6b df 89 27 ec 3f
       0.8798264850277917

right_grad f8 [9]
000000 0c a5 55 fd fd 78 24 40 1a e0 09 9b 21 d4 20 40
       10.236312786774327 8.414318890529149
000010 49 dc 2f ae ec ec 22 40 5e 38 81 aa 6e e6 21 40
       9.462743228285165 8.950063064836453
000020 cf d9 86 de a1 2e 1d 40 fa bf 0b 68 6d fa 22 40
       7.295539357166901 9.489115954813304
000030 5c 29 c7 a7 ce 88 23 40 bd 65 f7 15 03 2d 21 40
       9.767201655446733 8.587914167833214
000040 ac f9 a7 db 99 27 24 40
       10.07734571862678
