src/Sci.NET.Mathematics.IntegrationTests/Tensors/Arithmetic/Examples/Multiply_2.safetensors (safetensors, 1496 bytes, 5 tensors)

left f8 [2, 2, 9]
000000 57 53 d2 c4 fa e6 e8 3f 67 35 71 f6 bc 85 e1 3f
       0.7781957477733198 0.5475754559826499
000010 b8 14 cb af ec 44 b6 3f 07 8c 00 37 f2 68 e9 3f
       0.08698920528248066 0.7940608095417482
000020 72 c7 95 0e 14 70 e9 3f 08 a9 a8 c0 0f 4a c3 3f
       0.7949314389099824 0.15069767863435168
000030 a4 aa 85 80 86 9b d7 3f d9 39 43 29 b2 2a ee 3f
       0.3688675170039153 0.9427119069967446
000040 9e 84 d2 a4 18 fc df 3f 05 2b c9 b8 db 30 eb 3f
       0.4997617349236608 0.8497141465280441
000050 ff 09 ca d6 4a 67 e2 3f 7a 74 89 f9 9e ce d4 3f
       0.5751089282132965 0.32511114472237745
000060 78 ba c0 2f e8 ff e2 3f bc aa 6c 63 98 93 ed 3f
       0.5937386448548088 0.9242670003780726
000070 07 47 c5 76 dd 77 ec 3f a2 df f3 dc 16 68 ee 3f
       0.8896319694269729 0.950206214473827
000080 7c 28 e0 b6 4a 7c ec 3f 70 4d 32 bb 81 e7 ba 3f
       0.8901723453320893 0.10509501285769374
000090 53 92 1d 8e d1 64 e1 3f ed 83 d3 7a 9e b0 e9 3f
       0.5435569549268372 0.8028099440526809
0000a0 c1 c9 b2 cd bf 92 ea 3f 8a 65 dd 99 af 93 d0 3f
       0.830413724665327 0.25901403451788296
0000b0 b8 88 d5 f0 bb 13 b4 3f 74 e7 73 22 d5 f4 c3 3f
       0.07842611913432307 0.15590919668448644
0000c0 b0 48 36 18 68 bb c9 3f b0 81 2e 2f a4 34 d2 3f
       0.20103169615010108 0.28446297271332366
0000d0 3e 1e 85 90 29 9b e8 3f f2 0f 2c b5 68 02 e6 3f
       0.7689407179504497 0.6877940691488205
0000e0 6c 94 1f 95 49 67 d1 3f 29 c0 45 69 0a 65 e6 3f
       0.2719291645319746 0.6998340660193253
0000f0 82 31 0c 0f a4 39 ef 3f fa 50 83 0d 82 98 e3 3f
       0.9757862371348411 0.6123667015004053
000100 32 6a 13 e0 30 6a d2 3f 90 a3 ba 0a c5 2e c7 3f
       0.2877313793411843 0.1811147978198986
000110 84 85 d2 eb e3 e6 d2 3f 60 63 01 5e 18 3b bd 3f
       0.295342426581634 0.11418297095350516

left_grad f8 [2, 2, 9]
000000 ee ff 61 64 c0 f3 d8 3f cf 5a 16 c0 e6 a0 e3 3f
       0.3898774128247159 0.6133912803369074
000010 62 2d 4e 21 73 40 ef 3f 4a ed 7f 5e 8c ec d3 3f
       0.9766173983092978 0.3113127634857916
000020 78 ba b9 cd 23 7d d1 3f 6c 52 fc d1 7b a3 d8 3f
       0.2732629307783223 0.38497825151833953
000030 06 7b 35 54 f7 bc e9 3f d0 37 69 34 ad 69 bc 3f
       0.804317154379391 0.11098749665799734
000040 8a c0 d0 84 68 04 d3 3f 6e c0 bf 71 9c 81 de 3f
       0.29714405985124215 0.4766608343916293
000050 88 38 bf 12 71 23 e4 3f d6 6b 8a 38 8a 00 d2 3f
       0.6293263784553043 0.2812829544215537
000060 10 4b b4 5d be 4e c3 3f 20 5c fe 7c 49 1f aa 3f
       0.1508405644932158 0.05101995135117243
000070 00 d9 6f 83 83 52 a6 3f c0 09 7f f9 c1 6d 89 3f
       0.04359827975706487 0.01241637747432811
000080 3c ca 41 9e e6 5c d7 3f f5 45 da 90 d4 15 ef 3f
       0.3650452180365027 0.9714148358490876
000090 ee ff 61 64 c0 f3 d8 3f cf 5a 16 c0 e6 a0 e3 3f
       0.3898774128247159 0.6133912803369074
0000a0 62 2d 4e 21 73 40 ef 3f 4a ed 7f 5e 8c ec d3 3f
       0.9766173983092978 0.3113127634857916
0000b0 78 ba b9 cd 23 7d d1 3f 6c 52 fc d1 7b a3 d8 3f
       0.2732629307783223 0.38497825151833953
0000c0 06 7b 35 54 f7 bc e9 3f d0 37 69 34 ad 69 bc 3f
       0.804317154379391 0.11098749665799734
0000d0 8a c0 d0 84 68 04 d3 3f 6e c0 bf 71 9c 81 de 3f
       0.29714405985124215 0.4766608343916293
0000e0 88 38 bf 12 71 23 e4 3f d6 6b 8a 38 8a 00 d2 3f
       0.6293263784553043 0.2812829544215537
0000f0 10 4b b4 5d be 4e c3 3f 20 5c fe 7c 49 1f aa 3f
       0.1508405644932158 0.05101995135117243
000100 00 d9 6f 83 83 52 a6 3f c0 09 7f f9 c1 6d 89 3f
       0.04359827975706487 0.01241637747432811
000110 3c ca 41 9e e6 5c d7 3f f5 45 da 90 d4 15 ef 3f
       0.3650452180365027 0.9714148358490876

result f8 [2, 2, 9]
000000 91 0b e3 cb eb 6a d3 3f 00 89 20 7b 06 7f d5 3f
       0.30340094481305707 0.3358780100262635
000010 a9 65 8c 42 9f bf b5 3f 7c 08 57 82 4a a4 cf 3f
       0.0849551713439697 0.24720126499420647
000020 4f 3f 70 d8 09 ce cb 3f 71 6c f8 67 2f b4 ad 3f
       0.21722529476437066 0.058015328828525344
000030 0d 64 31 41 e9 fc d2 3f 80 f8 ed 44 fb c8 ba 3f
       0.2966864716195808 0.10462923462725549
000040 75 3d 02 9d 16 02 c3 3f 25 1f d4 e1 ef eb d9 3f
       0.14850123087351688 0.40502545407842866
000050 ac 19 43 8f e1 29 d7 3f 0b fa 5c 98 26 69 b7 3f
       0.3619312190097854 0.09144822330288364
000060 b8 6d c8 52 65 ed b6 3f ff 45 a3 b8 d6 24 a8 3f
       0.08955987235133633 0.04715605739478334
000070 06 cc c8 68 d0 db a3 3f 4d b2 5b bb 9c 29 88 3f
       0.03878642348390575 0.011798119037359412
000080 5d 25 78 54 08 cc d4 3f f4 57 00 52 a0 22 ba 3f
       0.3249531578918175 0.10209085466371431
000090 26 0d be aa 36 20 cb 3f db e7 f8 e1 14 84 df 3f
       0.211920579309756 0.49243661944967493
0000a0 70 25 ea e9 ae f3 e9 3f 41 1e fd 52 74 a4 b4 3f
       0.8109964913029852 0.08063437486736637
0000b0 79 6a 7d c9 fe f1 95 3f cb 27 0c 5f 28 bb ae 3f
       0.021430951164214982 0.060021649935222486
0000c0 29 15 bb 38 5d b2 c4 3f 6f 88 6c ee 2e 2a a0 3f
       0.16169324178751168 0.031571833233344
0000d0 b1 80 d1 e2 08 3f cd 3f 45 80 ee 79 67 fb d4 3f
       0.22848616671672553 0.32784449489009077
0000e0 0e 8d 39 e9 a8 e7 c5 3f 01 a7 0b 2d 6d 32 c9 3f
       0.17113219631128412 0.19685139369476448
0000f0 bc 76 81 aa 0f d7 c2 3f 78 65 d6 d2 24 fe 9f 3f
       0.1471881468341304 0.03124291931962861
000100 c2 6a 4d cb fa b0 89 3f 25 ba 62 c6 0d 6c 62 3f
       0.01254459317140311 0.002248789695918479
000110 00 bc 8c b3 a7 99 bb 3f 1c c8 e1 8e 30 65 bc 3f
       0.10781334050692237 0.11091903198556036

right f8 [2, 9]
000000 ee ff 61 64 c0 f3 d8 3f cf 5a 16 c0 e6 a0 e3 3f
       0.3898774128247159 0.6133912803369074
000010 62 2d 4e 21 73 40 ef 3f 4a ed 7f 5e 8c ec d3 3f
       0.9766173983092978 0.3113127634857916
000020 78 ba b9 cd 23 7d d1 3f 6c 52 fc d1 7b a3 d8 3f
       0.2732629307783223 0.38497825151833953
000030 06 7b 35 54 f7 bc e9 3f d0 37 69 34 ad 69 bc 3f
       0.804317154379391 0.11098749665799734
000040 8a c0 d0 84 68 04 d3 3f 6e c0 bf 71 9c 81 de 3f
       0.29714405985124215 0.4766608343916293
000050 88 38 bf 12 71 23 e4 3f d6 6b 8a 38 8a 00 d2 3f
       0.6293263784553043 0.2812829544215537
000060 10 4b b4 5d be 4e c3 3f 20 5c fe 7c 49 1f aa 3f
       0.1508405644932158 0.05101995135117243
000070 00 d9 6f 83 83 52 a6 3f c0 09 7f f9 c1 6d 89 3f
       0.04359827975706487 0.01241637747432811
000080 3c ca 41 9e e6 5c d7 3f f5 45 da 90 d4 15 ef 3f
       0.3650452180365027 0.9714148358490876

right_grad f8 [2, 9]
000000 d5 f2 77 29 e6 25 f5 3f aa 5c a2 b8 2d 9b f5 3f
       1.321752702700157 1.3503854000353308
000010 58 2c ac 63 5d 5b ed 3f 66 9f f7 01 65 d9 f0 3f
       0.9174029299478077 1.0530748440596311
000020 89 78 b0 8c 8b f2 eb 3f 3e 48 8e 71 72 9f d3 3f
       0.8733575580443055 0.3066068753188381
000030 7e 67 50 46 9d 3c e2 3f 58 3d 6d 20 82 a2 f3 3f
       0.5698992131540164 1.2271748797100681
000040 46 30 77 f1 9a 4c f4 3f 7c 9d fa 36 a2 99 f8 3f
       1.2687024528741104 1.5375082156768647
000050 35 d4 59 a1 ef 1a eb 3f 33 3d 05 f3 2c 66 f0 3f
       0.8470380927452711 1.0249452107417028
000060 fd 75 66 1f c6 1c f9 3f db fd 77 38 0d 96 f8 3f
       1.56952488198965 1.536633701878478
000070 10 7e 67 f3 7a d6 f2 3f 43 44 d1 0f e4 19 f2 3f
       1.1773633487681572 1.1313210122937256
000080 9f b5 64 56 de f7 f2 3f 68 d8 99 0c 4d 11 cc 3f
       1.1855147719137233 0.2192779838111989
