src/Sci.NET.Mathematics.IntegrationTests/Tensors/Arithmetic/Examples/Multiply_1.safetensors (safetensors, 2592 bytes, 5 tensors)

left f8 [2, 4, 7]
000000 98 2d 98 80 ce 85 c3 3f a0 f4 24 17 c3 55 a4 3f
       0.1525209548857276 0.0397168126823797
000010 80 17 76 8e f2 24 83 3f 44 48 0b 69 e4 6b e0 3f
       0.009347815487455113 0.5131704379694004
000020 d4 0b f9 3d 8c d7 c3 3f a0 76 f5 57 ba c6 a5 3f
       0.15501549745576304 0.04253179858890843
000030 e4 d7 d3 99 7b 9b c2 3f fc 61 e8 65 24 47 e2 3f
       0.14536995898350746 0.5711843481431624
000040 44 f6 28 38 80 16 c9 3f 32 6b 75 c0 d0 09 e2 3f
       0.195999171659354 0.5636981734236086
000050 ec c0 3a 6a cb 41 d2 3f f4 9f f9 0e a8 dc ca 3f
       0.2852657830617449 0.20985890132146745
000060 80 ee d4 82 85 a2 91 3f fc bf 15 69 f6 00 df 3f
       0.017221532926881 0.48443374883845514
000070 2a e1 5e e3 17 60 db 3f 70 53 af 39 78 e0 ef 3f
       0.42774007038271356 0.9961510779054219
000080 7a a3 9e d6 ad c2 e1 3f ac d5 d1 e7 c2 6c de 3f
       0.5550145332136787 0.47538826597823447
000090 90 29 56 8e 1c 90 c5 3f 57 28 79 32 2e ca ef 3f
       0.16846043539073863 0.9934302316480722
0000a0 92 55 fe e3 c0 53 d7 3f 66 be 97 e6 55 5d ea 3f
       0.3644869066714246 0.8238934997334126
0000b0 7c b0 46 45 72 ff c7 3f 98 49 43 3b 6b da b0 3f
       0.18748310454009587 0.06583280751082154
0000c0 4d e8 78 72 1a 13 ee 3f 7b f8 7f fb 34 a8 e8 3f
       0.9398319469248776 0.7705330764872679
0000d0 da d8 ce da 45 f0 e6 3f fe f4 95 48 03 05 e0 3f
       0.7168301843255691 0.5006119172755061
0000e0 56 b3 7a 24 4a 18 e1 3f b0 57 c6 71 3a d5 d5 3f
       0.5342150413976963 0.34113942251985474
0000f0 f8 88 92 10 03 7a c0 3f 88 dc c8 ac 93 a1 b1 3f
       0.12872350987624492 0.06887171715139762
000100 4f 8b 2a 73 f6 48 e7 3f bc 1c 13 57 f8 e0 ca 3f
       0.7276565789546597 0.20999054195110556
000110 78 ff d1 e3 b9 fd c9 3f e0 3d bd 48 20 b5 b5 3f
       0.2030556070712881 0.08479501510486598
000120 b9 78 55 ad c3 5e ec 3f ac 9a 6f 47 7a 13 de 3f
       0.886567915480348 0.46993882156531686
000130 07 86 47 58 d6 d5 e8 3f cd ad 1a 17 5b 1d e1 3f
       0.7761031841475309 0.5348334742788495
000140 b8 5d 8a 46 a3 38 b9 3f 34 86 ec 69 5e 0f d2 3f
       0.09852047416858667 0.282188037339526
000150 cf 65 1d b2 ae e9 e5 3f f4 5e 23 52 d9 91 ce 3f
       0.6847756842427603 0.2388259554925224
000160 c5 1b 57 4b 3e ae e3 3f 6c ae 39 9e f6 4e e6 3f
       0.6150199386109924 0.6971390810335385
000170 9c db 3a b9 0e 96 de 3f ca ac 15 b0 5c 87 e0 3f
       0.47790878380640733 0.516523689189307
000180 44 a8 f5 bd 3e 5c ed 3f 90 3b 94 93 d8 2d d4 3f
       0.9175103864811338 0.3152982178880217
000190 b0 4b f3 e0 83 d1 dd 3f db bb 02 60 47 b8 ea 3f
       0.46591278999147345 0.8349949717720578
0001a0 ab a0 e2 2c 06 e5 e5 3f e8 40 96 ce 7e fd db 3f
       0.6842070461907687 0.43734712767128636
0001b0 bf 27 6b de 55 bf ec 3f 18 bd e0 3c b3 a7 e2 3f
       0.8983563751328275 0.5829712094327162

left_grad f8 [2, 4, 7]
000000 34 15 6d 93 76 bb e0 3f 7a 4c 41 03 15 4f d4 3f
       0.5228836898246869 0.3173267871654343
000010 b0 d3 96 30 7c 20 bf 3f 53 cb 93 75 62 f0 ee 3f
       0.12158943353899931 0.966843824046331
000020 92 91 ea 82 48 d4 d5 3f c6 7e 1f be 2b 91 dd 3f
       0.34108174118798573 0.46198552672101945
000030 08 da 20 f5 c6 10 c7 3f 74 fb 27 38 28 16 dd 3f
       0.1801994988361033 0.4544773624801828
000040 a0 79 3b 7e 8e 64 ec 3f 20 87 49 0e 69 bd ac 3f
       0.8872749772524919 0.05613258647350805
000050 d9 9b 59 f6 c9 d1 e5 3f 78 f2 d4 63 a9 74 d0 3f
       0.6818589984439952 0.25712046384050025
000060 4a ec a4 c5 80 b5 da 3f 07 63 2c dd 2a 9c eb 3f
       0.4173280649299086 0.8628134078781792
000070 a0 e1 d3 a8 e9 da dd 3f 5d 52 e5 5c b6 52 ee 3f
       0.46648637282444305 0.9475967230196819
000080 00 98 3a 79 73 c3 6b 3f cc d0 e6 5d ad e0 e9 3f
       0.003389096769597977 0.8086764177337726
000090 05 e3 0a e8 53 d6 ea 3f 88 74 bc a9 67 a4 bc 3f
       0.8386630565720173 0.11188362020443965
0000a0 38 5b 9a e5 4a 74 cc 3f 88 11 86 52 6c 92 cb 3f
       0.22229896746713407 0.2154059794376162
0000b0 80 4f 95 6f 7f 62 a8 3f 3a 7c 6b 19 3b 74 e4 3f
       0.047626478549005036 0.6391883369905209
0000c0 84 1f 86 af 22 09 ef 3f 68 86 f5 92 36 95 e1 3f
       0.9698651722146541 0.5494644995016644
0000d0 5a 45 ca c9 fc dd ed 3f a1 9c 4b 7b 9e 2b ed 3f
       0.9333480778897567 0.9115745933639979
0000e0 98 6e 56 68 e1 ff d3 3f f1 62 f6 71 63 00 e5 3f
       0.3124927061960334 0.6562974191502616
0000f0 23 58 8b fb 0e 7d e8 3f 07 d6 c8 f1 06 53 ef 3f
       0.7652659333205104 0.9788851473192047
000100 90 df cb f7 2a d6 c2 3f 6e d0 4c f6 42 91 eb 3f
       0.14716088389809245 0.8614821253345448
000110 66 82 ff 48 2c fe d2 3f 52 0a ff 46 05 c5 e3 3f
       0.2967634880897435 0.617800367989114
000120 52 19 e9 fb 9b 60 e7 3f 38 c0 98 c9 6d af e9 3f
       0.7305431289794717 0.8026646554408279
000130 14 90 96 e1 38 65 ea 3f 8f 2e 40 c4 83 9d ef 3f
       0.8248562246340065 0.9879778702756584
000140 28 b4 6c 0e 85 7f ef 3f a4 0f a4 02 37 15 e3 3f
       0.9843163758974969 0.596339707525193
000150 d8 c4 fb 09 53 1d d4 3f 1a ed 05 3c 26 98 e8 3f
       0.3142898175711486 0.7685729191138393
000160 60 c3 9d 28 9d 37 be 3f c0 5c cb 96 83 3f ec 3f
       0.11803610078437776 0.8827531762316525
000170 64 5b b8 54 f4 dd e7 3f 00 32 c4 bb b2 24 c2 3f
       0.7458440451326678 0.14174493950157796
000180 75 47 91 77 c1 fe e8 3f a8 62 5c 55 00 be e7 3f
       0.7810981116583507 0.7419435183720298
000190 50 a8 89 df 8f 66 ca 3f c0 81 d1 74 e3 60 95 3f
       0.2062549439900203 0.02087741280081601
0001a0 00 bb bf fe 82 3f ab 3f e0 e0 0f 7e c4 e2 ec 3f
       0.05321893081405982 0.9026815855168273
0001b0 40 b8 86 f4 ba fb b2 3f d2 46 ba ae b9 0a e4 3f
       0.07415359945181965 0.6263092434548645

result f8 [2, 4, 7]
000000 3b 87 cc 0c 8b 6a b4 3f d0 98 e3 04 b6 cf 89 3f
       0.07975071966623386 0.012603208564950924
000010 91 6c ce 38 3a 9f 52 3f 51 7a a0 b4 03 c1 df 3f
       0.001136595589946752 0.49615566863386557
000020 a5 52 dd ff 29 12 ab 3f 28 cb 80 20 e3 1e 94 3f
       0.05287295578333343 0.019649075373489172
000030 f8 f2 e6 89 04 d3 9a 3f f9 7d 61 de 20 9d d0 3f
       0.02619559375465294 0.25959035603406694
000040 67 8a a3 38 86 42 c6 3f b2 28 9a d9 5b 33 a0 3f
       0.17390516057556057 0.03164183646465925
000050 82 fa 2d e0 bc e5 c8 3f 8b 22 b0 33 84 a0 ab 3f
       0.1945110411288234 0.05395901804883348
000060 24 f5 f4 68 25 70 7d 3f fb b4 77 21 1e c0 da 3f
       0.007187029011501953 0.4179759337265094
000070 03 a2 e6 2c 5c 8a c9 3f a2 c1 5d 93 d5 34 ee 3f
       0.19953491394450404 0.9439494970557016
000080 f1 24 a6 2e 7a d1 5e 3f bc eb b7 6e 96 9a d8 3f
       0.0018809979615944073 0.38443527996394855
000090 35 18 c4 7c 83 15 c2 3f 3f 5e 50 94 3b 74 bc 3f
       0.1412815436562497 0.11114857073732141
0000a0 01 f6 c6 fb 0e be b4 3f a3 a8 7b 91 63 b7 c6 3f
       0.08102506300834734 0.17747158626236112
0000b0 35 bd 64 93 73 49 82 3f 6f ad b3 d3 73 8b a5 3f
       0.008929160056679744 0.042079562752259096
0000c0 ec f2 97 97 17 2b ed 3f d0 22 ca d2 aa 18 db 3f
       0.9115102730571301 0.42338057122155437
0000d0 62 e9 86 e5 df 68 e5 3f 67 89 55 19 c2 34 dd 3f
       0.6690520747136299 0.45634510492359087
0000e0 23 f4 03 fe 3b 5e c5 3f 3b 15 30 68 64 a8 cc 3f
       0.16693830397699214 0.2238889225701913
0000f0 94 83 99 3e cd 37 b9 3f fa f6 ed f9 45 42 b1 3f
       0.09850771692573651 0.06741750098987245
000100 b3 33 fa a9 c3 69 bb 3f ee dc a4 2d d5 27 c7 3f
       0.10708258533322983 0.1809030983801913
000110 b7 eb a0 f7 54 da ae 3f 30 dc cc 9c 63 d2 aa 3f
       0.06025949023065585 0.05238639153542868
000120 10 36 f7 39 c3 b9 e4 3f bf 47 58 3c 19 24 d8 3f
       0.6476760990278212 0.3772032822899937
000130 6d 3e 8c 39 4d 7c e4 3f 63 3b 6e be ae e8 e0 3f
       0.6401735424023635 0.5284036368701489
000140 b1 11 1b d3 5f d3 b8 3f e7 8c 83 61 32 8a c5 3f
       0.09697531608532618 0.1682799316541612
000150 43 12 2e a5 43 8c cb 3f 89 e1 69 4c bc 7e c7 3f
       0.21521802487781558 0.1835551617730398
000160 4c 9e 8f 89 8e 95 b2 3f 85 7b 5b fc 5e b1 e3 3f
       0.07259455545828891 0.6154017380575715
000170 8b ed fb 73 00 d0 d6 3f 3a 73 84 7a 31 be b2 3f
       0.35644542051860445 0.07321461907527019
000180 ab ca 8a c2 ec ee e6 3f 7c a8 a5 2b 88 f1 cd 3f
       0.7166656303073372 0.23393346911626967
000190 1a 5f b4 0b cd 99 b8 3f 34 17 e7 99 d5 d9 91 3f
       0.09609681640392545 0.017432534712290962
0001a0 09 bc bd ba b1 a4 a2 3f 21 36 43 23 29 44 d9 3f
       0.03641276745371875 0.3947851986275471
0001b0 27 f1 73 0a c5 0d b1 3f 07 56 e0 5a 21 5e d7 3f
       0.06661635880658832 0.36512025713577184

right f8 [2, 4, 7]
000000 34 15 6d 93 76 bb e0 3f 7a 4c 41 03 15 4f d4 3f
       0.5228836898246869 0.3173267871654343
000010 b0 d3 96 30 7c 20 bf 3f 53 cb 93 75 62 f0 ee 3f
       0.12158943353899931 0.966843824046331
000020 92 91 ea 82 48 d4 d5 3f c6 7e 1f be 2b 91 dd 3f
       0.34108174118798573 0.46198552672101945
000030 08 da 20 f5 c6 10 c7 3f 74 fb 27 38 28 16 dd 3f
       0.1801994988361033 0.4544773624801828
000040 a0 79 3b 7e 8e 64 ec 3f 20 87 49 0e 69 bd ac 3f
       0.8872749772524919 0.05613258647350805
000050 d9 9b 59 f6 c9 d1 e5 3f 78 f2 d4 63 a9 74 d0 3f
       0.6818589984439952 0.25712046384050025
000060 4a ec a4 c5 80 b5 da 3f 07 63 2c dd 2a 9c eb 3f
       0.4173280649299086 0.8628134078781792
000070 a0 e1 d3 a8 e9 da dd 3f 5d 52 e5 5c b6 52 ee 3f
       0.46648637282444305 0.9475967230196819
000080 00 98 3a 79 73 c3 6b 3f cc d0 e6 5d ad e0 e9 3f
       0.003389096769597977 0.8086764177337726
000090 05 e3 0a e8 53 d6 ea 3f 88 74 bc a9 67 a4 bc 3f
       0.8386630565720173 0.11188362020443965
0000a0 38 5b 9a e5 4a 74 cc 3f 88 11 86 52 6c 92 cb 3f
       0.22229896746713407 0.2154059794376162
0000b0 80 4f 95 6f 7f 62 a8 3f 3a 7c 6b 19 3b 74 e4 3f
       0.047626478549005036 0.6391883369905209
0000c0 84 1f 86 af 22 09 ef 3f 68 86 f5 92 36 95 e1 3f
       0.9698651722146541 0.5494644995016644
0000d0 5a 45 ca c9 fc dd ed 3f a1 9c 4b 7b 9e 2b ed 3f
       0.9333480778897567 0.9115745933639979
0000e0 98 6e 56 68 e1 ff d3 3f f1 62 f6 71 63 00 e5 3f
       0.3124927061960334 0.6562974191502616
0000f0 23 58 8b fb 0e 7d e8 3f 07 d6 c8 f1 06 53 ef 3f
       0.7652659333205104 0.9788851473192047
000100 90 df cb f7 2a d6 c2 3f 6e d0 4c f6 42 91 eb 3f
       0.14716088389809245 0.8614821253345448
000110 66 82 ff 48 2c fe d2 3f 52 0a ff 46 05 c5 e3 3f
       0.2967634880897435 0.617800367989114
000120 52 19 e9 fb 9b 60 e7 3f 38 c0 98 c9 6d af e9 3f
       0.7305431289794717 0.8026646554408279
000130 14 90 96 e1 38 65 ea 3f 8f 2e 40 c4 83 9d ef 3f
       0.8248562246340065 0.9879778702756584
000140 28 b4 6c 0e 85 7f ef 3f a4 0f a4 02 37 15 e3 3f
       0.9843163758974969 0.596339707525193
000150 d8 c4 fb 09 53 1d d4 3f 1a ed 05 3c 26 98 e8 3f
       0.3142898175711486 0.7685729191138393
000160 60 c3 9d 28 9d 37 be 3f c0 5c cb 96 83 3f ec 3f
       0.11803610078437776 0.8827531762316525
000170 64 5b b8 54 f4 dd e7 3f 00 32 c4 bb b2 24 c2 3f
       0.7458440451326678 0.14174493950157796
000180 75 47 91 77 c1 fe e8 3f a8 62 5c 55 00 be e7 3f
       0.7810981116583507 0.7419435183720298
000190 50 a8 89 df 8f 66 ca 3f c0 81 d1 74 e3 60 95 3f
       0.2062549439900203 0.02087741280081601
0001a0 00 bb bf fe 82 3f ab 3f e0 e0 0f 7e c4 e2 ec 3f
       0.05321893081405982 0.9026815855168273
0001b0 40 b8 86 f4 ba fb b2 3f d2 46 ba ae b9 0a e4 3f
       0.07415359945181965 0.6263092434548645

right_grad f8 [2, 4, 7]
000000 98 2d 98 80 ce 85 c3 3f a0 f4 24 17 c3 55 a4 3f
       0.1525209548857276 0.0397168126823797
000010 80 17 76 8e f2 24 83 3f 44 48 0b 69 e4 6b e0 3f
       0.009347815487455113 0.5131704379694004
000020 d4 0b f9 3d 8c d7 c3 3f a0 76 f5 57 ba c6 a5 3f
       0.15501549745576304 0.04253179858890843
000030 e4 d7 d3 99 7b 9b c2 3f fc 61 e8 65 24 47 e2 3f
       0.14536995898350746 0.5711843481431624
000040 44 f6 28 38 80 16 c9 3f 32 6b 75 c0 d0 09 e2 3f
       0.195999171659354 0.5636981734236086
000050 ec c0 3a 6a cb 41 d2 3f f4 9f f9 0e a8 dc ca 3f
       0.2852657830617449 0.20985890132146745
000060 80 ee d4 82 85 a2 91 3f fc bf 15 69 f6 00 df 3f
       0.017221532926881 0.48443374883845514
000070 2a e1 5e e3 17 60 db 3f 70 53 af 39 78 e0 ef 3f
       0.42774007038271356 0.9961510779054219
000080 7a a3 9e d6 ad c2 e1 3f ac d5 d1 e7 c2 6c de 3f
       0.5550145332136787 0.47538826597823447
000090 90 29 56 8e 1c 90 c5 3f 57 28 79 32 2e ca ef 3f
       0.16846043539073863 0.9934302316480722
0000a0 92 55 fe e3 c0 53 d7 3f 66 be 97 e6 55 5d ea 3f
       0.3644869066714246 0.8238934997334126
0000b0 7c b0 46 45 72 ff c7 3f 98 49 43 3b 6b da b0 3f
       0.18748310454009587 0.06583280751082154
0000c0 4d e8 78 72 1a 13 ee 3f 7b f8 7f fb 34 a8 e8 3f
       0.9398319469248776 0.7705330764872679
0000d0 da d8 ce da 45 f0 e6 3f fe f4 95 48 03 05 e0 3f
       0.7168301843255691 0.5006119172755061
0000e0 56 b3 7a 24 4a 18 e1 3f b0 57 c6 71 3a d5 d5 3f
       0.5342150413976963 0.34113942251985474
0000f0 f8 88 92 10 03 7a c0 3f 88 dc c8 ac 93 a1 b1 3f
       0.12872350987624492 0.06887171715139762
000100 4f 8b 2a 73 f6 48 e7 3f bc 1c 13 57 f8 e0 ca 3f
       0.7276565789546597 0.20999054195110556
000110 78 ff d1 e3 b9 fd c9 3f e0 3d bd 48 20 b5 b5 3f
       0.2030556070712881 0.08479501510486598
000120 b9 78 55 ad c3 5e ec 3f ac 9a 6f 47 7a 13 de 3f
       0.886567915480348 0.46993882156531686
000130 07 86 47 58 d6 d5 e8 3f cd ad 1a 17 5b 1d e1 3f
       0.7761031841475309 0.5348334742788495
000140 b8 5d 8a 46 a3 38 b9 3f 34 86 ec 69 5e 0f d2 3f
       0.09852047416858667 0.282188037339526
000150 cf 65 1d b2 ae e9 e5 3f f4 5e 23 52 d9 91 ce 3f
       0.6847756842427603 0.2388259554925224
000160 c5 1b 57 4b 3e ae e3 3f 6c ae 39 9e f6 4e e6 3f
       0.6150199386109924 0.6971390810335385
000170 9c db 3a b9 0e 96 de 3f ca ac 15 b0 5c 87 e0 3f
       0.47790878380640733 0.516523689189307
000180 44 a8 f5 bd 3e 5c ed 3f 90 3b 94 93 d8 2d d4 3f
       0.9175103864811338 0.3152982178880217
000190 b0 4b f3 e0 83 d1 dd 3f db bb 02 60 47 b8 ea 3f
       0.46591278999147345 0.8349949717720578
0001a0 ab a0 e2 2c 06 e5 e5 3f e8 40 96 ce 7e fd db 3f
       0.6842070461907687 0.43734712767128636
0001b0 bf 27 6b de 55 bf ec 3f 18 bd e0 3c b3 a7 e2 3f
       0.8983563751328275 0.5829712094327162
