src/Sci.NET.Mathematics.IntegrationTests/Tensors/Arithmetic/Examples/Subtract_1.safetensors (safetensors, 2400 bytes, 5 tensors)

left f8 [2, 8, 4]
0.46027723057554415 0.18602512681561256 0.7757354140360107 0.022119657649739888 0.8011516642328474 0.28369449787004986 0.13246639279644323 0.3646334336586253
0.5771994224372358 0.5830897072401002 0.9722246555124517 0.08943464313635185 0.9695519384960535 0.7594990471100085 0.6646286248296769 0.8539463510976517
0.9133287358371684 0.12532432687002193 0.17291324473297143 0.41150905073222344 0.840363874994232 0.10509844283310554 0.6946140335660089 0.3966878611757114
0.9171817691724543 0.9068088994981789 0.03728399409458427 0.8222521646950494 0.8653967782102514 0.08802375389271588 0.18620419654903553 0.871671123518618
0.5090421109467552 0.6781699312890367 0.7551131999437877 0.40131342112027213 0.6852665983024381 0.06594726257999783 0.9988634154945198 0.11752973513202569
0.13153644124338626 0.3929596847600998 0.4292204982113407 0.5638902136109226 0.8368047530673295 0.6710923097594826 0.87847441549376 0.16558444764913094
0.7235840167353099 0.5700960375372559 0.75189265886795 0.9421247313163787 0.7316834438834355 0.532072502251105 0.29374324203486946 0.8017238152716923
0.20706713362725304 0.23883754387469647 0.5422902025992273 0.443140844279465 0.4695327441821153 0.9411295685909735 0.6913001916676899 0.2873126227809073
00000000: 2296 1aa1 2e75 dd3f b022 f4dd abcf c73f
00000010: 2647 3413 d3d2 e83f e040 d118 89a6 963f
00000020: 8183 a0d0 08a3 e93f 620c 9af7 0c28 d23f
00000030: bc9d 70a4 a8f4 c03f 06e3 2578 2756 d73f
00000040: a16a 54ec 6a78 e23f ce5f e7be aba8 e23f
00000050: 9d4e 79e1 761c ef3f 786a 6653 30e5 b63f
00000060: 81a5 73c9 9106 ef3f e2c7 15f2 d04d e83f
00000070: 1420 f43f a344 e53f 2618 504c 8753 eb3f
00000080: 7c5d 5d2f fd39 ed3f 0865 a6a6 a00a c03f
00000090: 8c30 966d 0522 c63f 30c9 b90e 2a56 da3f
000000a0: c3e1 fac7 42e4 ea3f 9826 d446 bbe7 ba3f
000000b0: e646 b035 473a e63f 5412 9e7b 5563 d93f
000000c0: dba8 e294 8d59 ed3f 3020 e218 9404 ed3f
000000d0: b0da 993e e316 a33f 30c6 8dc5 e34f ea3f
000000e0: e841 8f95 54b1 eb3f b888 3d88 b988 b63f
000000f0: 182d 4703 8ad5 c73f 4b29 0cd7 bae4 eb3f
00000100: 23b3 59ae 124a e03f 198b 806d 91b3 e53f
00000110: d22a 5128 e329 e83f 9213 ca7c 1eaf d93f
00000120: 2701 9837 b4ed e53f 68b4 0a78 ebe1 b03f
00000130: c908 d768 b0f6 ef3f 8018 b3c0 6d16 be3f
00000140: 5cb0 afa4 2fd6 c03f f43a ac60 4026 d93f
00000150: 52cb a540 5978 db3f a9c9 3f7d 630b e23f
00000160: 1af8 f1c2 1ac7 ea3f 5773 6094 9679 e53f
00000170: a863 9d60 761c ec3f fc8a b005 df31 c53f
00000180: c92a f9aa 9927 e73f 8ca7 990b 3a3e e23f
00000190: 2e17 7e31 810f e83f 5836 b8c3 e225 ee3f
000001a0: d320 d065 f369 e73f c89e 88e9 bc06 e13f
000001b0: 5e7d 7d74 b0cc d23f 3c85 e0b3 b8a7 e93f
000001c0: acb4 8003 2d81 ca3f 3cd8 ff87 3a92 ce3f
000001d0: 4e5b a3fb 705a e13f b6ef 6c6a 6b5c dc3f
000001e0: d473 2a11 d30c de3f c0b2 ccc1 bb1d ee3f
000001f0: e1cc 5d94 211f e63f 589b a47b 5463 d23f

left_grad f8 [2, 8, 4]
1.0 1.0 1.0 1.0 1.0 1.0 1.0 1.0
1.0 1.0 1.0 1.0 1.0 1.0 1.0 1.0
1.0 1.0 1.0 1.0 1.0 1.0 1.0 1.0
1.0 1.0 1.0 1.0 1.0 1.0 1.0 1.0
1.0 1.0 1.0 1.0 1.0 1.0 1.0 1.0
1.0 1.0 1.0 1.0 1.0 1.0 1.0 1.0
1.0 1.0 1.0 1.0 1.0 1.0 1.0 1.0
1.0 1.0 1.0 1.0 1.0 1.0 1.0 1.0
00000000: 0000 0000 0000 f03f 0000 0000 0000 f03f
00000010: 0000 0000 0000 f03f 0000 0000 0000 f03f
00000020: 0000 0000 0000 f03f 0000 0000 0000 f03f
00000030: 0000 0000 0000 f03f 0000 0000 0000 f03f
00000040: 0000 0000 0000 f03f 0000 0000 0000 f03f
00000050: 0000 0000 0000 f03f 0000 0000 0000 f03f
00000060: 0000 0000 0000 f03f 0000 0000 0000 f03f
00000070: 0000 0000 0000 f03f 0000 0000 0000 f03f
00000080: 0000 0000 0000 f03f 0000 0000 0000 f03f
00000090: 0000 0000 0000 f03f 0000 0000 0000 f03f
000000a0: 0000 0000 0000 f03f 0000 0000 0000 f03f
000000b0: 0000 0000 0000 f03f 0000 0000 0000 f03f
000000c0: 0000 0000 0000 f03f 0000 0000 0000 f03f
000000d0: 0000 0000 0000 f03f 0000 0000 0000 f03f
000000e0: 0000 0000 0000 f03f 0000 0000 0000 f03f
000000f0: 0000 0000 0000 f03f 0000 0000 0000 f03f
00000100: 0000 0000 0000 f03f 0000 0000 0000 f03f
00000110: 0000 0000 0000 f03f 0000 0000 0000 f03f
00000120: 0000 0000 0000 f03f 0000 0000 0000 f03f
00000130: 0000 0000 0000 f03f 0000 0000 0000 f03f
00000140: 0000 0000 0000 f03f 0000 0000 0000 f03f
00000150: 0000 0000 0000 f03f 0000 0000 0000 f03f
00000160: 0000 0000 0000 f03f 0000 0000 0000 f03f
00000170: 0000 0000 0000 f03f 0000 0000 0000 f03f
00000180: 0000 0000 0000 f03f 0000 0000 0000 f03f
00000190: 0000 0000 0000 f03f 0000 0000 0000 f03f
000001a0: 0000 0000 0000 f03f 0000 0000 0000 f03f
000001b0: 0000 0000 0000 f03f 0000 0000 0000 f03f
000001c0: 0000 0000 0000 f03f 0000 0000 0000 f03f
000001d0: 0000 0000 0000 f03f 0000 0000 0000 f03f
000001e0: 0000 0000 0000 f03f 0000 0000 0000 f03f
000001f0: 0000 0000 0000 f03f 0000 0000 0000 f03f

result f8 [2, 8, 4]
0.10357018459220935 -0.7677008639280709 0.24816941634550738 -0.15484748599635711 0.5615779546744645 0.0859566983294574 -0.4522669909970528 0.3615042361186783
0.1285629862795843 -0.28937427405065586 0.523701872354115 -0.24728935170951372 0.10890493138233504 0.02407136289038536 -0.04715495315758744 -0.0015288671081499228
0.24093020637009288 -0.7428362759667037 0.1639433321252599 -0.26185764434573333 -0.014030359731985742 0.049835144205216175 0.1906037100528829 0.2788196329325442
0.6687564425069713 0.1680684184785085 -0.5503289568606745 0.5926263024019575 0.34466735263466974 -0.11201543304123152 -0.808541514470216 0.4419924779501374
0.15233506496342042 -0.2755560594546468 0.2275472022532844 0.22434627747417513 0.4456928887440551 -0.13179053696059462 0.4141300317010238 0.11440053759207869
-0.3170999949142652 -0.4795042965306563 -0.01930228494699604 0.22716621876505705 -0.023842254046388955 -0.06433537446014048 0.16669083750649571 -0.6898907705566707
0.05118548726823435 -0.2980645652994697 0.7429227462602385 0.268758036238422 -0.12271079084278225 0.47680920362321566 -0.21026708147825657 0.6838555870285251
-0.04135819303822996 -0.4999029371449739 -0.04532274835603145 0.2135149819863731 -0.05119668139346634 0.7410903816570261 -0.3034455193515617 -0.14236602278757327
00000000: 780a aa5b 9383 ba3f 08d3 f566 0191 e8bf
00000010: 6422 89f3 03c4 cf3f 2070 1cdc 0ad2 c3bf
00000020: 9767 af54 72f8 e13f e878 3218 4201 b63f
00000030: 7a21 d93f f1f1 dcbf 1eb1 dfa9 e222 d73f
00000040: 3001 c67e c074 c03f d67b d6ac 1b85 d2bf
00000050: 2fad d36d 2ac2 e03f 4ce6 1e6f 2da7 cfbf
00000060: 5806 a98e 31e1 bb3f e093 89d1 29a6 983f
00000070: 0000 50ab b124 a8bf 000c af8e 880c 59bf
00000080: b831 7d0e cdd6 ce3f cbe6 f194 50c5 e7bf
00000090: 7008 f058 18fc c43f a20a ab90 46c2 d0bf
000000a0: 8096 9901 f3bb 8cbf d00e 1bf5 fd83 a93f
000000b0: ec31 96ce b365 c83f 6264 3b4d 2ed8 d13f
000000c0: ddd0 31e9 7366 e53f 7c85 6d14 4483 c53f
000000d0: bf44 f878 4b9c e1bf 251b 726f cbf6 e23f
000000e0: c825 e4a7 070f d63f b032 8f1d 0bad bcbf
000000f0: d373 4374 92df e9bf 04ed 77d1 9a49 dc3f
00000100: 84a5 0625 b77f c33f 36a1 e4e1 b5a2 d1bf
00000110: 14b1 fc47 4420 cd3f e88e 5dfa 60b7 cc3f
00000120: 7aca 4d77 3b86 dc3f 1c82 1527 83de c0bf
00000130: 3aa1 9c3f 1b81 da3f e050 9a87 5a49 bd3f
00000140: 7cfc edc6 5d4b d4bf 7e00 f9c9 32b0 debf
00000150: a078 576a fac3 93bf 1c0b 2d5c c813 cd3f
00000160: 8093 9195 1a6a 98bf 603f 4879 4878 b0bf
00000170: 500e d117 2056 c53f ed4c 2bcf 9513 e6bf
00000180: b09b b1f3 fb34 aa3f 02b1 0366 7d13 d3bf
00000190: 278d 54ec 05c6 e73f de98 0be8 5433 d13f
000001a0: 503a 8971 f969 bfbf c495 ffbf 0a84 de3f
000001b0: f0ee 2f1f 08ea cabf 432e af1c 25e2 e53f
000001c0: 30ad 0aad e62c a5bf 8491 8de3 68fe dfbf
000001d0: c071 e813 8b34 a7bf 4033 6b7c 7554 cb3f
000001e0: a051 7f90 7336 aabf 531b 132d 03b7 e73f
000001f0: 70e4 6ec1 a66b d3bf 7494 f7c1 0c39 c2bf

right f8 [1, 8, 4]
0.3567070459833348 0.9537259907436835 0.5275659976905033 0.176967143646097 0.23957370955838297 0.19773779954059245 0.584733383793496 0.003129197539947004
0.4486364361576515 0.8724639812907561 0.4485227831583367 0.33672399484586557 0.8606470071137184 0.7354276842196231 0.7117835779872643 0.8554752182058016
0.6723985294670756 0.8681606028367256 0.008969912607711517 0.6733666950779568 0.8543942347262178 0.05526329862788937 0.504010323513126 0.11786822824316723
0.248425326665483 0.7387404810196704 0.5876129509552588 0.2296258622930919 0.5207294255755817 0.2000391869339474 0.9947457110192516 0.42967864556848057
00000000: 8413 30ca 49d4 d63f b4db 725e ec84 ee3f
00000010: 8dfe 5116 d2e1 e03f 3c98 36ff dba6 c63f
00000020: a86f c4ef 59aa ce3f 50dc 1ae3 784f c93f
00000030: 2cb8 08c9 22b6 e23f 00f4 1823 67a2 693f
00000040: aad4 4599 75b6 dc3f b99d 5295 39eb eb3f
00000050: dc42 4be7 98b4 dc3f c40d 69cc e28c d53f
00000060: b684 9e97 6b8a eb3f 437b 89a3 9f88 e73f
00000070: 1420 a95a eec6 e63f ac6f 9790 0d60 eb3f
00000080: 0e11 beeb 4984 e53f 0d80 9bbe f8c7 eb3f
00000090: c081 624a d15e 823f e969 b24f 388c e53f
000000a0: 1d48 0194 3257 eb3f 603e 8d98 784b ac3f
000000b0: 6bba 0a42 da20 e03f c8b7 8ab9 9c2c be3f
000000c0: f85f c3ae 66cc cf3f d1be c613 c3a3 e73f
000000d0: 6ae2 e1ac b9cd e23f 2cac 6e58 6164 cd3f
000000e0: 042f 9dc1 d0a9 e03f b45d e652 e29a c93f
000000f0: 193f 15f5 f4d4 ef3f 9265 a0dc da7f db3f

right_grad f8 [1, 8, 4]
-2.0 -2.0 -2.0 -2.0 -2.0 -2.0 -2.0 -2.0
-2.0 -2.0 -2.0 -2.0 -2.0 -2.0 -2.0 -2.0
-2.0 -2.0 -2.0 -2.0 -2.0 -2.0 -2.0 -2.0
-2.0 -2.0 -2.0 -2.0 -2.0 -2.0 -2.0 -2.0
00000000: 0000 0000 0000 00c0 0000 0000 0000 00c0
00000010: 0000 0000 0000 00c0 0000 0000 0000 00c0
00000020: 0000 0000 0000 00c0 0000 0000 0000 00c0
00000030: 0000 0000 0000 00c0 0000 0000 0000 00c0
00000040: 0000 0000 0000 00c0 0000 0000 0000 00c0
00000050: 0000 0000 0000 00c0 0000 0000 0000 00c0
00000060: 0000 0000 0000 00c0 0000 0000 0000 00c0
00000070: 0000 0000 0000 00c0 0000 0000 0000 00c0
00000080: 0000 0000 0000 00c0 0000 0000 0000 00c0
00000090: 0000 0000 0000 00c0 0000 0000 0000 00c0
000000a0: 0000 0000 0000 00c0 0000 0000 0000 00c0
000000b0: 0000 0000 0000 00c0 0000 0000 0000 00c0
000000c0: 0000 0000 0000 00c0 0000 0000 0000 00c0
000000d0: 0000 0000 0000 00c0 0000 0000 0000 00c0
000000e0: 0000 0000 0000 00c0 0000 0000 0000 00c0
000000f0: 0000 0000 0000 00c0 0000 0000 0000 00c0
