src/Sci.NET.Mathematics.IntegrationTests/Tensors/Arithmetic/Examples/Subtract_3.safetensors (safetensors, 3928 bytes, 5 tensors)

left f8 [6, 3, 8]
0.9523455697306282 0.2940996378543618 0.8308282955898297 0.42292415378471493 0.6356428511857598 0.8550813080822354 0.07065836530939784 0.0725794018702205
0.30358430803447223 0.8606571465110835 0.17497861378368595 0.08121285047100879 0.3949429682029898 0.7776621968855661 0.6497035136640702 0.43815488231200583
0.6267280032376055 0.1188786385430215 0.45433144117662316 0.09957573937003139 0.8655434803057392 0.49551720115730713 0.11482198398104582 0.4930740652625022
0.007773276743038737 0.19821834307078323 0.8461242678035517 0.08221151662622306 0.8130331059639433 0.5887814487665655 0.6715611093892234 0.7940943224166047
0.4481024566088929 0.32285488820212394 0.787574813261387 0.8756406651438207 0.6464500319299534 0.8471252603727834 0.4392224475695944 0.2250428058414531
0.5627073229815088 0.1999025923296881 0.7361841200689319 0.6858010806156768 0.8543469800953579 0.8017542574430527 0.7922479612745522 0.5173329086355848
0.1053187675119478 0.12111356196525602 0.1531178152435162 0.19313437182095816 0.5951810504855007 0.8355829045275874 0.6519790958569701 0.21725454722233484
0.5403896041876082 0.1134363399903825 0.6438803875343488 0.18314789679160548 0.49717745679325465 0.6910370485601506 0.9241089391348231 0.9251234831208409
0.10457967094385778 0.8258444591915534 0.8692550511967472 0.3790932380868034 0.9569798887271125 0.7082341501847171 0.3445399560007367 0.6425248990617498
0.314067633505699 0.3176600952938986 0.30475931725570193 0.5632248026471011 0.5438845687009178 0.14032520581615415 0.05533340396494224 0.07778448815216621
0.6899219354405985 0.13237623157332445 0.32953974112725515 0.2952972344537417 0.9661222492644765 0.5730640851601004 0.8876816810744991 0.4617113791894929
0.675850545571279 0.4023592924922814 0.3725486228639737 0.9441017315898103 0.9165849935259032 0.2585588716438184 0.9984675304757745 0.5101777162204384
0.5232086821251206 0.8978087994338668 0.6818703301711629 0.11650361234845219 0.8154298693205998 0.2140838128017878 0.646370707148493 0.21262280144821455
0.4583743899023949 0.34341154679731556 0.12125618482178824 0.695699822490668 0.39585289073262553 0.37551799831887256 0.3549464649636398 0.9625813113405157
0.6569032595929664 0.44800900524056886 0.8841432871182655 0.2949908476661489 0.5140825182976881 0.584660080986516 0.9011421839261116 0.007108553025615971
0.060567135892416024 0.33015301258761154 0.4330345152924773 0.97974386317875 0.9153481684326372 0.8880739067148041 0.38398938779018255 0.845256916095937
0.9086636897301408 0.5960447322541257 0.8886499716600222 0.8312276924346272 0.7579432533978778 0.7251891663050445 0.8201954280988407 0.4448915298254378
0.8099134425900364 0.08838493178829443 0.8708360857109186 0.4263863730857981 0.09291007684069819 0.4338423551433481 0.6982361523872743 0.4558998607797693
00000000: 2079 8f6a 9d79 ee3f 3665 9649 87d2 d23f
00000010: abca c438 2596 ea3f a267 4c78 3011 db3f
00000020: d7ed 38ad 2f57 e43f 8f4a b479 d35c eb3f
00000030: c853 31a8 aa16 b23f a855 654d 9094 b23f
00000040: ec8e a5e0 ec6d d33f 5cae 2adb 808a eb3f
00000050: f0a4 d9ff b265 c63f 30b5 c988 5dca b43f
00000060: 7ae3 0ddf be46 d93f 4ab0 ded4 9be2 e83f
00000070: 3112 e905 5fca e43f 0438 87c6 ba0a dc3f
00000080: 9e92 ace2 270e e43f 783b bc98 d46e be3f
00000090: 327b 592e c413 dd3f f0bd 11b0 cb7d b93f
000000a0: c3bb a53d 88b2 eb3f 9ede 64c7 8db6 df3f
000000b0: 3078 0f3a f964 bd3f d2b9 3386 868e df3f
000000c0: 0045 4e16 dfd6 7f3f c468 7afa 375f c93f
000000d0: b22e 5233 7313 eb3f d8a1 435f d00b b53f
000000e0: 28c6 1501 5e04 ea3f 6a34 5e31 4cd7 e23f
000000f0: 3ff3 42b9 6d7d e53f bffe 167f 3869 e93f
00000100: f81d 19ed b5ad dc3f 92a3 8b8c a7a9 d43f
00000110: 058d 4318 d033 e93f 88e4 7a92 3f05 ec3f
00000120: cf64 34fa b7af e43f b354 1d6f a61b eb3f
00000130: 3ac0 fe77 381c dc3f d801 a5e1 33ce cc3f
00000140: f99b adc9 b201 e23f 5c87 387c 6896 c93f
00000150: acfa f0ff d18e e73f 0bc9 991b 15f2 e53f
00000160: 0545 5e7a cf56 eb3f 92b1 648b f8a7 e93f
00000170: 69e6 7f65 185a e93f 2580 77be fd8d e03f
00000180: 806c 1eb6 2bf6 ba3f 082b be63 4c01 bf3f
00000190: a0f3 7354 5d99 c33f b02d 5a89 a0b8 c83f
000001a0: c317 6121 b90b e33f 9f5d 015c 18bd ea3f
000001b0: e733 cc43 03dd e43f 6815 9d3b ffce cb3f
000001c0: 74b1 a223 df4a e13f f8c6 6ffa 290a bd3f
000001d0: e0dd df0a ab9a e43f 648b 86e9 6371 c73f
000001e0: 2212 4f65 c1d1 df3f 9b7c 7cba f91c e63f
000001f0: 6bcf f0e8 4c92 ed3f f57f 1890 9c9a ed3f
00000200: 70c2 87ba bbc5 ba3f d9ef f95b 516d ea3f
00000210: 10bb 18f8 efd0 eb3f 8aec ed48 1043 d83f
00000220: c567 a049 949f ee3f d084 1eaa daa9 e63f
00000230: 740f cc50 f10c d63f d4bf 8a60 908f e43f
00000240: dee6 a821 af19 d43f b804 2202 8b54 d43f
00000250: 08ee 3039 2d81 d33f 934a 7505 f005 e23f
00000260: 01d3 6b9c 8067 e13f 0076 e424 2df6 c13f
00000270: e0c2 cff0 a854 ac3f 48e9 bf28 afe9 b33f
00000280: 2655 b02a d713 e63f f404 b050 b4f1 c03f
00000290: 70ed b7da 2d17 d53f 04ff 245f 26e6 d23f
000002a0: a4ec 1035 79ea ee3f 15cb 087e 8a56 e23f
000002b0: 1325 af69 e367 ec3f d8d5 73e2 ad8c dd3f
000002c0: fdcb c652 91a0 e53f 3cbf 9f30 41c0 d93f
000002d0: feb7 d72d d6d7 d73f 7bce a8d5 1436 ee3f
000002e0: 0c57 660d aa54 ed3f 5241 7382 3a8c d03f
000002f0: db5c b02d 72f3 ef3f 7212 ca37 6053 e03f
00000300: abbd 5622 20be e03f b624 f484 d9ba ec3f
00000310: ed54 06ba e1d1 e53f e007 e744 2ed3 bd3f
00000320: a33b 9d61 0018 ea3f d417 4b2f 1967 cb3f
00000330: 0a72 099f 11af e43f 504f 4d55 3937 cb3f
00000340: 701a 7d89 0156 dd3f 300c a46c 74fa d53f
00000350: d84f 3f34 a50a bf3f 09c6 2d46 2c43 e63f
00000360: e850 ee5c a755 d93f 34b1 75a4 7c08 d83f
00000370: 8c60 b660 71b7 d63f 8c58 7e52 77cd ee3f
00000380: 87cd 12fc 5905 e53f 5297 74f6 2dac dc3f
00000390: 14d4 e4dc e64a ec3f 7c1b d64a 21e1 d23f
000003a0: a515 712e 5d73 e03f 3ba4 e30e 89b5 e23f
000003b0: fe46 2022 28d6 ec3f 803b 45ac db1d 7d3f
000003c0: e099 bdd7 a702 af3f b856 ef19 3a21 d53f
000003d0: 101b 4e66 d6b6 db3f d9e6 59cd 0f5a ef3f
000003e0: c6e4 fb3d 884a ed3f 59ac 38f8 196b ec3f
000003f0: 2c79 a439 4893 d83f 1932 6b3b 580c eb3f
00000400: 4484 cedf c513 ed3f 6781 ff66 cc12 e33f
00000410: 3ce0 bb10 d26f ec3f 2129 51d1 6a99 ea3f
00000420: d02a b235 1241 e83f 8e32 16e9 bf34 e73f
00000430: 776c 807b 0a3f ea3f ce87 b752 1a79 dc3f
00000440: b77a 9098 cfea e93f 186b 7d17 65a0 b63f
00000450: f5c2 89a3 e3dd eb3f 8644 f711 ea49 db3f
00000460: c8e8 7f6d f4c8 b73f 8475 bdb9 12c4 db3f
00000470: 436c ec57 f357 e63f 3834 139c 762d dd3f

left_grad f8 [6, 3, 8]
1.0 1.0 1.0 1.0 1.0 1.0 1.0 1.0
1.0 1.0 1.0 1.0 1.0 1.0 1.0 1.0
1.0 1.0 1.0 1.0 1.0 1.0 1.0 1.0
1.0 1.0 1.0 1.0 1.0 1.0 1.0 1.0
1.0 1.0 1.0 1.0 1.0 1.0 1.0 1.0
1.0 1.0 1.0 1.0 1.0 1.0 1.0 1.0
1.0 1.0 1.0 1.0 1.0 1.0 1.0 1.0
1.0 1.0 1.0 1.0 1.0 1.0 1.0 1.0
1.0 1.0 1.0 1.0 1.0 1.0 1.0 1.0
1.0 1.0 1.0 1.0 1.0 1.0 1.0 1.0
1.0 1.0 1.0 1.0 1.0 1.0 1.0 1.0
1.0 1.0 1.0 1.0 1.0 1.0 1.0 1.0
1.0 1.0 1.0 1.0 1.0 1.0 1.0 1.0
1.0 1.0 1.0 1.0 1.0 1.0 1.0 1.0
1.0 1.0 1.0 1.0 1.0 1.0 1.0 1.0
1.0 1.0 1.0 1.0 1.0 1.0 1.0 1.0
1.0 1.0 1.0 1.0 1.0 1.0 1.0 1.0
1.0 1.0 1.0 1.0 1.0 1.0 1.0 1.0
00000000: 0000 0000 0000 f03f 0000 0000 0000 f03f
00000010: 0000 0000 0000 f03f 0000 0000 0000 f03f
00000020: 0000 0000 0000 f03f 0000 0000 0000 f03f
00000030: 0000 0000 0000 f03f 0000 0000 0000 f03f
00000040: 0000 0000 0000 f03f 0000 0000 0000 f03f
00000050: 0000 0000 0000 f03f 0000 0000 0000 f03f
00000060: 0000 0000 0000 f03f 0000 0000 0000 f03f
00000070: 0000 0000 0000 f03f 0000 0000 0000 f03f
00000080: 0000 0000 0000 f03f 0000 0000 0000 f03f
00000090: 0000 0000 0000 f03f 0000 0000 0000 f03f
000000a0: 0000 0000 0000 f03f 0000 0000 0000 f03f
000000b0: 0000 0000 0000 f03f 0000 0000 0000 f03f
000000c0: 0000 0000 0000 f03f 0000 0000 0000 f03f
000000d0: 0000 0000 0000 f03f 0000 0000 0000 f03f
000000e0: 0000 0000 0000 f03f 0000 0000 0000 f03f
000000f0: 0000 0000 0000 f03f 0000 0000 0000 f03f
00000100: 0000 0000 0000 f03f 0000 0000 0000 f03f
00000110: 0000 0000 0000 f03f 0000 0000 0000 f03f
00000120: 0000 0000 0000 f03f 0000 0000 0000 f03f
00000130: 0000 0000 0000 f03f 0000 0000 0000 f03f
00000140: 0000 0000 0000 f03f 0000 0000 0000 f03f
00000150: 0000 0000 0000 f03f 0000 0000 0000 f03f
00000160: 0000 0000 0000 f03f 0000 0000 0000 f03f
00000170: 0000 0000 0000 f03f 0000 0000 0000 f03f
00000180: 0000 0000 0000 f03f 0000 0000 0000 f03f
00000190: 0000 0000 0000 f03f 0000 0000 0000 f03f
000001a0: 0000 0000 0000 f03f 0000 0000 0000 f03f
000001b0: 0000 0000 0000 f03f 0000 0000 0000 f03f
000001c0: 0000 0000 0000 f03f 0000 0000 0000 f03f
000001d0: 0000 0000 0000 f03f 0000 0000 0000 f03f
000001e0: 0000 0000 0000 f03f 0000 0000 0000 f03f
000001f0: 0000 0000 0000 f03f 0000 0000 0000 f03f
00000200: 0000 0000 0000 f03f 0000 0000 0000 f03f
00000210: 0000 0000 0000 f03f 0000 0000 0000 f03f
00000220: 0000 0000 0000 f03f 0000 0000 0000 f03f
00000230: 0000 0000 0000 f03f 0000 0000 0000 f03f
00000240: 0000 0000 0000 f03f 0000 0000 0000 f03f
00000250: 0000 0000 0000 f03f 0000 0000 0000 f03f
00000260: 0000 0000 0000 f03f 0000 0000 0000 f03f
00000270: 0000 0000 0000 f03f 0000 0000 0000 f03f
00000280: 0000 0000 0000 f03f 0000 0000 0000 f03f
00000290: 0000 0000 0000 f03f 0000 0000 0000 f03f
000002a0: 0000 0000 0000 f03f 0000 0000 0000 f03f
000002b0: 0000 0000 0000 f03f 0000 0000 0000 f03f
000002c0: 0000 0000 0000 f03f 0000 0000 0000 f03f
000002d0: 0000 0000 0000 f03f 0000 0000 0000 f03f
000002e0: 0000 0000 0000 f03f 0000 0000 0000 f03f
000002f0: 0000 0000 0000 f03f 0000 0000 0000 f03f
00000300: 0000 0000 0000 f03f 0000 0000 0000 f03f
00000310: 0000 0000 0000 f03f 0000 0000 0000 f03f
00000320: 0000 0000 0000 f03f 0000 0000 0000 f03f
00000330: 0000 0000 0000 f03f 0000 0000 0000 f03f
00000340: 0000 0000 0000 f03f 0000 0000 0000 f03f
00000350: 0000 0000 0000 f03f 0000 0000 0000 f03f
00000360: 0000 0000 0000 f03f 0000 0000 0000 f03f
00000370: 0000 0000 0000 f03f 0000 0000 0000 f03f
00000380: 0000 0000 0000 f03f 0000 0000 0000 f03f
00000390: 0000 0000 0000 f03f 0000 0000 0000 f03f
000003a0: 0000 0000 0000 f03f 0000 0000 0000 f03f
000003b0: 0000 0000 0000 f03f 0000 0000 0000 f03f
000003c0: 0000 0000 0000 f03f 0000 0000 0000 f03f
000003d0: 0000 0000 0000 f03f 0000 0000 0000 f03f
000003e0: 0000 0000 0000 f03f 0000 0000 0000 f03f
000003f0: 0000 0000 0000 f03f 0000 0000 0000 f03f
00000400: 0000 0000 0000 f03f 0000 0000 0000 f03f
00000410: 0000 0000 0000 f03f 0000 0000 0000 f03f
00000420: 0000 0000 0000 f03f 0000 0000 0000 f03f
00000430: 0000 0000 0000 f03f 0000 0000 0000 f03f
00000440: 0000 0000 0000 f03f 0000 0000 0000 f03f
00000450: 0000 0000 0000 f03f 0000 0000 0000 f03f
00000460: 0000 0000 0000 f03f 0000 0000 0000 f03f
00000470: 0000 0000 0000 f03f 0000 0000 0000 f03f

result f8 [6, 3, 8]
0.7953028350459946 -0.27802648258687945 0.8135808881464608 -0.018592624817743708 -0.1930364245499363 0.4244504138393075 -0.24229032421688024 -0.1608558793177286
0.14654157334983864 0.28853102606984227 0.157731206340317 -0.36030392813144985 -0.4337363075327063 0.34703130264263826 0.3367548241377921 0.20471960112405674
0.4696852685529719 -0.45324748189821973 0.4370840337332542 -0.34194103923242725 0.036864204570043135 0.06488630691437924 -0.19812670554523226 0.2596387840745531
-0.14926945794159485 -0.373907777370458 0.8288768603601827 -0.3593052619762356 -0.015646169771752816 0.15815055452363758 0.35861241986294534 0.5606590412286556
0.29105972192425933 -0.2492712322391173 0.7703274058180181 0.434123886541362 -0.18222924380574268 0.41649436612985546 0.1262737580433163 -0.008392475346496009
0.40566458829687524 -0.3722235281115531 0.7189367126255629 0.24428430201321816 0.025667704359661814 0.37112336320012485 0.47929927174827414 0.2838976274476357
-0.05172396717268579 -0.4510125584759852 0.13587040780014725 -0.24838240678150048 -0.23349822525019537 0.40495201028465955 0.33903040633069204 -0.016180733965614258
0.3833468695029746 -0.45868978045085873 0.6266329800909799 -0.25836888181085316 -0.33150181894244146 0.2604061543172227 0.611160249608545 0.6916882019328918
-0.052463063740775806 0.25371833875031213 0.8520076437533782 -0.06242354051565524 0.12830061299141637 0.27760325594178925 0.031591266474458646 0.4090896178738007
0.1570248988210654 -0.2544660251473426 0.287511909812333 0.12170802404464243 -0.28479470703477827 -0.29030568842677373 -0.25761528556133584 -0.1556507930357829
0.532879200755965 -0.43974988886791677 0.3122923336838862 -0.14621954414871696 0.13744297352878043 0.14243319091717255 0.574732991548221 0.2282760980015438
0.5188078108866454 -0.1697668279489598 0.3553012154206048 0.5025849529873516 0.08790571779020706 -0.17207202259910948 0.6855188409494964 0.2767424350324893
0.366165947440487 0.3256826789926256 0.664622922727794 -0.32501316625400645 -0.01324940641509631 -0.2165470814411401 0.3334220176222149 -0.020812479739734546
0.3013316552177613 -0.22871457364392567 0.10400877737841929 0.25418304388820934 -0.4328263850030706 -0.05511289592405533 0.04199777543736172 0.7291460301525666
0.49986052490833277 -0.12411711520067237 0.8668958796748966 -0.14652593093630972 -0.31459675743800797 0.15402918674358812 0.5881934943998335 -0.22632672816233312
-0.09647559879221757 -0.2419731078536297 0.41578710784910833 0.5382270845762913 0.08666889269694111 0.45744301247187624 0.07104069826390447 0.6118216349079879
0.7516209550455072 0.02391861181288446 0.8714025642166533 0.3897109138321686 -0.07073602233781828 0.2945582720621166 0.5072467385725626 0.2114562486374887
0.6528707079054028 -0.4837411886529468 0.8535886782675497 -0.015130405516660561 -0.7357691988949979 0.0032114609004202377 0.38528746286099624 0.2224645795918202
00000000: 4109 5eee 1e73 e93f e07b 8896 2fcb d1bf
00000010: 7cab 67c9 da08 ea3f 80f1 27ee f109 93bf
00000020: d07a 30e5 6ab5 c8bf d8a9 8d11 322a db3f
00000030: d409 538d 5e03 cfbf e0fc 84ea ec96 c4bf
00000040: 5c5e 85d0 dfc1 c23f a27b 36d6 4a77 d23f
00000050: 3428 6542 8930 c43f 6e79 fc34 380f d7bf
00000060: 9c35 fced 55c2 dbbf 4e75 e2c7 c235 d63f
00000070: 864a 1c1b 648d d53f 54c8 d67b 4034 ca3f
00000080: 7e45 f6cc 520f de3f 38d2 efb9 0102 ddbf
00000090: d43c 9f4f 2ff9 db3f 3e77 2aab 5ce2 d5bf
000000a0: 80f3 0a72 dddf a23f 60cd 2796 639c b03f
000000b0: a0f7 6344 375c c9bf f8e5 97fd eb9d d03f
000000c0: 544d 13f8 421b c3bf b4ac e1e2 1aee d7bf
000000d0: 830f f5c3 2886 ea3f 44fe 5d7f dbfe d6bf
000000e0: 60cc e8ad 8c05 90bf 1cfb c201 473e c43f
000000f0: a20c d081 81f3 d63f d214 c93a ebf0 e13f
00000100: 3a3e b6f4 b8a0 d23f 087b 26a7 1ee8 cfbf
00000110: d66d e6a8 85a6 e83f 56e2 c68d afc8 db3f
00000120: f09e 42b1 4953 c7bf 20be 5ffc d7a7 da3f
00000130: bccc 910e bd29 c03f c05d 2af9 1230 81bf
00000140: 3458 f89a 68f6 d93f 689d 02a2 82d2 d7bf
00000150: 7ddb 9390 8701 e73f b856 0940 b544 cf3f
00000160: 400f 277b a248 9a3f de77 ee34 7cc0 d73f
00000170: f6f2 49da d6ac de3f 702c 53f4 602b d23f
00000180: f024 da56 907b aabf 5456 2fc7 63dd dcbf
00000190: e476 ff96 3364 c13f c49f 03a5 feca cfbf
000001a0: 20d3 8f14 45e3 cdbf f8cf 27d6 bbea d93f
000001b0: f28d e296 acb2 d53f 6092 d4ac ae91 90bf
000001c0: 2a83 e24e c188 d83f 58ef 8261 2c5b ddbf
000001d0: b1be 829b 600d e43f 08a1 6ba2 1d89 d0bf
000001e0: f406 bb67 5337 d5bf f00d 1e93 7eaa d03f
000001f0: 7de2 95f0 9f8e e33f 0896 ca4b 4f22 e63f
00000200: 1079 074e 70dc aabf 9cfe d4d7 eb3c d03f
00000210: e19b bb88 a543 eb3f 80d1 0772 faf5 afbf
00000220: e86c 6d8c 276c c03f 5a1e 6272 40c4 d13f
00000230: c0ac b100 bb2c a03f ceab 7938 862e da3f
00000240: 400e 8c52 6419 c43f 5edc fcdd 2b49 d0bf
00000250: aaaf 765a 9866 d23f b0b9 eece 4128 bf3f
00000260: 1473 3294 133a d2bf 46b0 684f 5e94 d2bf
00000270: 80e1 9bd2 c47c d0bf 10b3 d77c 5dec c3bf
00000280: 47e5 7eae 580d e13f 9cde c6b7 dc24 dcbf
00000290: 12af fdfb 98fc d33f 6ccf 1370 52b7 c2bf
000002a0: 6480 2f3a bb97 c13f c855 6d34 403b c23f
000002b0: 2538 5471 3664 e23f fc03 b0b3 2638 cd3f
000002c0: 1e5c 95d6 129a e03f b443 fe5e ebba c5bf
000002d0: a079 1d4f 41bd d63f 1e5b 110a 2d15 e03f
000002e0: 0854 0a37 fd80 b63f e853 cfbe 7406 c6bf
000002f0: ed6f 5535 c5ef e53f 0a51 f8e6 25b6 d13f
00000300: 989b 4a4c 436f d73f 5668 c929 fcd7 d43f
00000310: be35 a94a 9744 e53f c224 f505 04cd d4bf
00000320: 003a f439 8122 8bbf b8be 6a94 d0b7 cbbf
00000330: 380a 5d4d c956 d53f 20c3 52df dd4f 95bf
00000340: b23a 1a91 0449 d33f cca9 f5e6 8446 cdbf
00000350: 6056 56b9 51a0 ba3f 58a5 2cf5 8844 d03f
00000360: 2ec8 1b70 6db3 dbbf 90d0 29eb c137 acbf
00000370: 8035 0480 bb80 a53f 9f6e 300e 2a55 e73f
00000380: 50bb c2ff b6fd df3f 1027 a9a6 23c6 bfbf
00000390: e5b4 876d 9cbd eb3f 7c96 b198 5cc1 c2bf
000003a0: cced 2770 5a22 d4bf 60ba d877 3ab7 c33f
000003b0: 105a c529 7bd2 e23f d87d d533 46f8 ccbf
000003c0: 08b2 acf5 9fb2 b8bf bc14 5f8c f9f8 cebf
000003d0: b2dc 9387 419c da3f 7c73 c201 2839 e13f
000003e0: d8c1 b6bb ee2f b63f 6c6d 960e bf46 dd3f
000003f0: 407d ba23 b92f b23f 2c48 1df7 0a94 e33f
00000400: 6514 9d63 470d e83f 801b 02de 1e7e 983f
00000410: 0dc1 5ea1 87e2 eb3f 886b 730b 06f1 d83f
00000420: d80d 9786 c11b b2bf d679 51f0 0ada d23f
00000430: 897f 2583 5d3b e03f e867 3794 ff10 cb3f
00000440: d80a 5f1c 51e4 e43f 5086 3f9a 9df5 debf
00000450: c6a3 2c34 9950 eb3f 8046 f4a6 b0fc 8ebf
00000460: 720f d5d8 6b8b e7bf 001f 45f1 eb4e 6a3f
00000470: aafe 22bf 8ca8 d83f bcc0 ee26 b879 cc3f

right f8 [8]
0.1570427346846336 0.5721261204412412 0.017247407443368945 0.44151677860245864 0.8286792757356961 0.4306308942429279 0.3129486895262781 0.2334352811879491
00000000: 7cbf c5f0 f919 c43f 8b70 0f70 db4e e23f
00000010: e0e5 a3eb 4da9 913f bae6 2e97 cf41 dc3f
00000020: 8b0c 8566 8a84 ea3f 46eb dae1 748f db3f
00000030: dcd9 b5f0 5907 d43f b4a7 3711 35e1 cd3f

right_grad f8 [8]
-18.0 -18.0 -18.0 -18.0 -18.0 -18.0 -18.0 -18.0
00000000: 0000 0000 0000 32c0 0000 0000 0000 32c0
00000010: 0000 0000 0000 32c0 0000 0000 0000 32c0
00000020: 0000 0000 0000 32c0 0000 0000 0000 32c0
00000030: 0000 0000 0000 32c0 0000 0000 0000 32c0
