src/Sci.NET.Mathematics.IntegrationTests/Tensors/Arithmetic/Examples/Subtract_2.safetensors (safetensors, 3224 bytes, 5 tensors)

left f8 [2, 9, 5]
0	0x3fe97b6580ff30ae	0.7963130492658104
1	0x3fe1a8d208eafbe0	0.5518579649141166
2	0x3fea670844dea184	0.8250771851644889
3	0x3fd1113b2a53ee88	0.2666767037733071
4	0x3fed6203543f7b8f	0.9182144780605642
5	0x3fe47d103b40fd9a	0.6402665288259641
6	0x3fecb5429f331734	0.8971264943472534
7	0x3f958768281394c0	0.021024348684382188
8	0x3fe8dc1a21b2b8ca	0.7768679292837757
9	0x3f954e67233ef460	0.020806895757904065
10	0x3fd32360a55c396a	0.2990342726560785
11	0x3fdf0b43e94f5af2	0.4850625780504024
12	0x3febc42797650d6b	0.8676946598938405
13	0x3fe70231650187ef	0.7190176937840514
14	0x3fc8eda55b376fd0	0.19475237802441692
15	0x3fd2bde441786724	0.2928400649412757
16	0x3fc8d9ddefda18d8	0.1941487713958796
17	0x3fe46ec33332c020	0.6385208129850106
18	0x3feb32ff5f2d9d43	0.8499752863835187
19	0x3fc8552cc222c39c	0.1900993297508905
20	0x3fe4cad782ab9878	0.6497609665064052
21	0x3fd2b50f75a8ba02	0.2923010491385015
22	0x3fea7f1723a27cb5	0.8280139633169684
23	0x3feff33957f50e12	0.9984404294886551
24	0x3fe9763939fdcd93	0.7956815846104511
25	0x3fc563a7762aad88	0.16710370321139245
26	0x3fe3ef1ce21ef472	0.6229385773109597
27	0x3fed7003996405e7	0.919923591223946
28	0x3fd04666df2df160	0.2542969874846417
29	0x3fb01ea873367228	0.06296780407723956
30	0x3f7c89a33772a280	0.006967198910537875
31	0x3fd67c78bc31f0e2	0.3513471448748203
32	0x3fd8ae9e65bc8db0	0.3856578820725316
33	0x3fca57e27da14ac8	0.20580702909736304
34	0x3feb6416ca4c9e30	0.8559678984792694
35	0x3fe3d6004fae3d50	0.619873195291726
36	0x3fe3307f39e9dd33	0.5996700411914503
37	0x3fd0f1a1f5c1b388	0.26474808692619733
38	0x3fea9d18194ce4f4	0.8316765302799056
39	0x3fb998b801f28608	0.09998655364554321
40	0x3fdbec711ea1a12c	0.4363062667021207
41	0x3faa4e319ec9e330	0.05137782157266313
42	0x3fe2b33850b89930	0.5843774391731014
43	0x3fded6ad5d1ec9de	0.4818528565766921
44	0x3fbdddf5eaac1930	0.11666810015967566
45	0x3fee78da15eb2280	0.952252428826867
46	0x3fee664602cf7baf	0.949984555711003
47	0x3fe206a0ac812576	0.5633090371349414
48	0x3fe05b4ab2b251cc	0.5111440172354889
49	0x3fd8bf4121ba83a2	0.38667324346357124
50	0x3fbc7f8dd31580f0	0.11132131961267411
51	0x3fdcde6f96ab8738	0.4510764094721824
52	0x3fe6833e1a9c3a84	0.703520824406795
53	0x3fdb26e7f6bc7f12	0.4242496404203716
54	0x3febed97dc145a17	0.8727530764034012
55	0x3fe0e6c03d7e9413	0.5281678391517083
56	0x3feb242c57726330	0.8481656749673672
57	0x3fdc16db8b90c2d8	0.43889511708679896
58	0x3fd516a3e609aca4	0.3295068499052809
59	0x3fec2bbcbe7aa363	0.8803390236181311
60	0x3fe7bc1dda3afd54	0.741713453513436
61	0x3fe276e72baa7afc	0.5770145275926946
62	0x3fc9cb1c00f70eb0	0.20151090666887717
63	0x3fe20d3b58125128	0.564115211500881
64	0x3fe62bf3491d191e	0.6928650310517559
65	0x3fdc630cf8d7ba96	0.4435455732445147
66	0x3fe10afaa4a85ac8	0.5325902191132963
67	0x3fea0e27be8251c9	0.8142279358749472
68	0x3fde1630f4c7f8b8	0.47010444549949737
69	0x3fc3db6991722b70	0.15513343431333793
70	0x3fd5b74f067b08f4	0.3393132746970331
71	0x3fea9591c2899477	0.8307579803046242
72	0x3fe5252aa3aaa95e	0.6607869335760304
73	0x3fb6b6f8cad913b0	0.08872942879049961
74	0x3feb3a1df042a6a7	0.8508443539223735
75	0x3f895eee3f11fc00	0.012388097095252348
76	0x3f9c7788f0a78e00	0.027799739540467883
77	0x3fefc55345f2d5ca	0.9928375593360041
78	0x3fea67faeb1caa23	0.8251928894072232
79	0x3fe75f114f6ce38a	0.7303549338604267
80	0x3fb5ae6ffab4def8	0.08469295378460717
81	0x3fe99597042aef32	0.7995104867363578
82	0x3fe00a89880983e9	0.5012862832046469
83	0x3fdc913fff49e400	0.44636535578280245
84	0x3fb62f005b424c60	0.08665468433382406
85	0x3fef28194bfddc88	0.9736448749744264
86	0x3fa9cbe70b4b39a0	0.05038377774109226
87	0x3fe367be16dcffc2	0.6064138838337316
88	0x3fee1cde8db4666c	0.9410240905446705
89	0x3fe062a084b2ac68	0.5120394317394927

left_grad f8 [2, 9, 5]
0	0x3ff0000000000000	1.0
1	0x3ff0000000000000	1.0
2	0x3ff0000000000000	1.0
3	0x3ff0000000000000	1.0
4	0x3ff0000000000000	1.0
5	0x3ff0000000000000	1.0
6	0x3ff0000000000000	1.0
7	0x3ff0000000000000	1.0
8	0x3ff0000000000000	1.0
9	0x3ff0000000000000	1.0
10	0x3ff0000000000000	1.0
11	0x3ff0000000000000	1.0
12	0x3ff0000000000000	1.0
13	0x3ff0000000000000	1.0
14	0x3ff0000000000000	1.0
15	0x3ff0000000000000	1.0
16	0x3ff0000000000000	1.0
17	0x3ff0000000000000	1.0
18	0x3ff0000000000000	1.0
19	0x3ff0000000000000	1.0
20	0x3ff0000000000000	1.0
21	0x3ff0000000000000	1.0
22	0x3ff0000000000000	1.0
23	0x3ff0000000000000	1.0
24	0x3ff0000000000000	1.0
25	0x3ff0000000000000	1.0
26	0x3ff0000000000000	1.0
27	0x3ff0000000000000	1.0
28	0x3ff0000000000000	1.0
29	0x3ff0000000000000	1.0
30	0x3ff0000000000000	1.0
31	0x3ff0000000000000	1.0
32	0x3ff0000000000000	1.0
33	0x3ff0000000000000	1.0
34	0x3ff0000000000000	1.0
35	0x3ff0000000000000	1.0
36	0x3ff0000000000000	1.0
37	0x3ff0000000000000	1.0
38	0x3ff0000000000000	1.0
39	0x3ff0000000000000	1.0
40	0x3ff0000000000000	1.0
41	0x3ff0000000000000	1.0
42	0x3ff0000000000000	1.0
43	0x3ff0000000000000	1.0
44	0x3ff0000000000000	1.0
45	0x3ff0000000000000	1.0
46	0x3ff0000000000000	1.0
47	0x3ff0000000000000	1.0
48	0x3ff0000000000000	1.0
49	0x3ff0000000000000	1.0
50	0x3ff0000000000000	1.0
51	0x3ff0000000000000	1.0
52	0x3ff0000000000000	1.0
53	0x3ff0000000000000	1.0
54	0x3ff0000000000000	1.0
55	0x3ff0000000000000	1.0
56	0x3ff0000000000000	1.0
57	0x3ff0000000000000	1.0
58	0x3ff0000000000000	1.0
59	0x3ff0000000000000	1.0
60	0x3ff0000000000000	1.0
61	0x3ff0000000000000	1.0
62	0x3ff0000000000000	1.0
63	0x3ff0000000000000	1.0
64	0x3ff0000000000000	1.0
65	0x3ff0000000000000	1.0
66	0x3ff0000000000000	1.0
67	0x3ff0000000000000	1.0
68	0x3ff0000000000000	1.0
69	0x3ff0000000000000	1.0
70	0x3ff0000000000000	1.0
71	0x3ff0000000000000	1.0
72	0x3ff0000000000000	1.0
73	0x3ff0000000000000	1.0
74	0x3ff0000000000000	1.0
75	0x3ff0000000000000	1.0
76	0x3ff0000000000000	1.0
77	0x3ff0000000000000	1.0
78	0x3ff0000000000000	1.0
79	0x3ff0000000000000	1.0
80	0x3ff0000000000000	1.0
81	0x3ff0000000000000	1.0
82	0x3ff0000000000000	1.0
83	0x3ff0000000000000	1.0
84	0x3ff0000000000000	1.0
85	0x3ff0000000000000	1.0
86	0x3ff0000000000000	1.0
87	0x3ff0000000000000	1.0
88	0x3ff0000000000000	1.0
89	0x3ff0000000000000	1.0

result f8 [2, 9, 5]
0	0x3fda94e61de47024	0.4153380672376008
1	0x3fbb7b016625ef70	0.10734566444255988
2	0xbfc5ce6da9249174	-0.17036219366958572
3	0xbfbf4465da802e28	-0.12213741859903193
4	0x3fbd95ab68adb240	0.11556502633693189
5	0xbfc221d634798b14	-0.14165761530156173
6	0x3fb9b0a1952cdf98	0.10035142795538687
7	0xbfea1c0e7fd8bc90	-0.8159248826031149
8	0x3fc04ae8f5cc7a24	0.12728607179538287
9	0xbfd7e25761d9e9a4	-0.3731897788599332
10	0xbfd0a3c2f386a548	-0.2599952104743193
11	0xbfdd7e80efd73962	-0.46084617063470124
12	0x3fe635c9ddbcbf43	0.6940659838491928
13	0x3fba16e3c6481d48	0.1019117697797941
14	0xbfe61fa3b696421d	-0.691362244238977
15	0xbfe3a5323a9032cf	-0.6139155525030108
16	0xbfd6dc5055bb8da2	-0.3571968877060617
17	0x3fd08112ec741f62	0.25787804690525296
18	0x3fe380f12dcd2e49	0.6094900030670455
19	0xbfc09d3378d77f68	-0.12979739571073456
20	0x3fe015c704993910	0.5026583757224063
21	0xbfbb21e71ab7a408	-0.10598606493262264
22	0x3fe2754618a0f215	0.5768156510380914
23	0x3fb5363e5e3715b0	0.08285894203353084
24	0x3fdada5e10825b28	0.4195780907843294
25	0xbfc8f2740573c964	-0.19489908472275908
26	0x3fb81cee8d4b9630	0.09419146489707297
27	0xbfa5c40e17cf7140	-0.042511406332524704
28	0xbfe036b4b7e9daff	-0.5066779701290612
29	0xbfcb5992f4c11c04	-0.21367108298201754
30	0xbfd8fd8dfa23a44e	-0.39047574451121114
31	0xbfe243bf24884258	-0.570769854881358
32	0xbfd06bf3b564f37a	-0.2565888663701156
33	0xbfe432e6514499a2	-0.6312133395447754
34	0x3fdb17c278ae1194	0.42332517419006277
35	0xbfd0430505fa4df4	-0.25409055312886086
36	0x3f8b20807a252c40	0.013245586135459786
37	0xbfd239e50866af7e	-0.2847836095850126
38	0x3fbf6d1cb06ca098	0.12275866801485547
39	0xbfd3b3f97f5234c2	-0.30785977777197726
40	0xbfe06b7c8d8b38f2	-0.5131209148910598
41	0xbfc5542d70aa4b64	-0.16663139344435784
42	0xbfda8e7c94a90638	-0.41494669454195643
43	0x3fc13b63f75539a4	0.13462495400240215
44	0xbfbd6971946ed430	-0.11489019273615564
45	0x3fe247e7a3de29e4	0.5712774467986574
46	0x3fe02cd426a93dbd	0.5054722552394463
47	0xbfdba806054d40d6	-0.4321303416991332
48	0x3fbf510311c2a618	0.12232989486314982
49	0xbfda9f5aac9906ec	-0.4159762082600611
50	0xbfe575940dfcb041	-0.6706028245148518
51	0xbfd61fed426f6f4a	-0.34569865691968416
52	0xbfc1142e99f47ac8	-0.13342840688070212
53	0xbfccd7afa3856ae0	-0.2253322170680212
54	0x3fdea3f1e41adb44	0.4787564017855639
55	0xbf9f9a31de5b68c0	-0.030861643978689512
56	0xbfb905b0a90737d0	-0.0977430737177365
57	0x3fd0fa2018402688	0.26526644104215125
58	0xbfd26805f2675be8	-0.28759907409897645
59	0xbf77a82774bd5700	-0.0057755986452627806
60	0xbfc5201a0445a434	-0.16504216393085047
61	0x3f9a48f09ac5bea0	0.025668868490753227
62	0xbfc6edcaf2ebb30c	-0.1791318594108805
63	0x3fd4b65a4d63c45c	0.3236299281844077
64	0x3fd7deb674bd10ba	0.37296830559013083
65	0x3fd2f8ebfcb2fbc6	0.2964429824605158
66	0x3fc130d819f42518	0.13430310504217213
67	0x3fe20456b380c729	0.5630296235960702
68	0xbfdc82b223945e00	-0.4454770419556269
69	0xbfcc48bf3580548c	-0.2209700595127838
70	0xbf973beb75432820	-0.02268951323711843
71	0x3fd3542564282596	0.3020108678907375
72	0xbfd34e33ae6ca73a	-0.3016480639804403
73	0xbfe583090e25b139	-0.6722455288232033
74	0x3fe25fe424ab9161	0.5742054668631164
75	0xbfd8a4bd1508def8	-0.38505484632649667
76	0xbfec9e3f3b1bfe59	-0.8943172602157105
77	0x3fd6701470c42a6a	0.350590810893357
78	0xbf88390164108c40	-0.011827479234915228
79	0x3fd30db782ee9c48	0.29771220957122013
80	0xbfe941b4d354c86b	-0.7892707946359797
81	0x3fcb466730a69ac0	0.21308603168036733
82	0xbfa8b39f70aad9a0	-0.04824541330656307
83	0xbfd0cda90734bdc2	-0.2625525064822477
84	0xbfd48e6768fe432c	-0.3211916470836964
85	0x3f98cc85e43a6000	0.02421769338124591
86	0xbfc574c01589f5c8	-0.1676254372759287
87	0xbfd9257108603914	-0.39291024988132617
88	0x3fe30060dcfa4fe6	0.5937961879703806
89	0x3fd1f367299e9d78	0.28048113884366144

right f8 [9, 5]
0	0x3fd861e4e419f138	0.38097498202820956
1	0x3fdc72e3b84c7be4	0.44451230047155676
2	0x3fefdaa3af27c5e1	0.9954393788340746
3	0x3fd8e254a0f3fa12	0.38881412237233903
4	0x3fe9af4de729c547	0.8026494517236323
5	0x3fe90585c85f605f	0.7819241441275259
6	0x3fe97f2e6c8d7b41	0.7967750663918666
7	0x3feac849c1195936	0.8369492312874971
8	0x3fe4c95fe43f9a41	0.6495818574883928
9	0x3fd9373dd40dd8ea	0.3939966746178373
10	0x3fe1e391cc716f59	0.5590294831303978
11	0x3fee44e26c934a2a	0.9459087486851037
12	0x3fc63976e6a138a0	0.1736286760446477
13	0x3fe3bf54ec388446	0.6171059240042573
14	0x3fec5b0d0d641e11	0.8861146222633939
15	0x3fed04245b4c6661	0.9067556174442865
16	0x3fe1a49fa6d44d07	0.5513456591019413
17	0x3fd85c7379f160de	0.38064276607975767
18	0x3fcec838c581bbe8	0.24048528331647323
19	0x3fd479301d7d2182	0.31989672546162506
20	0x3fc2d441f8497da0	0.1471025907839989
21	0x3fd97d893c56a304	0.39828711407112416
22	0x3fd013a216031540	0.251198312278877
23	0x3fed4c718c2e2b5c	0.9155814874551242
24	0x3fd8121463793ffe	0.37610349382612174
25	0x3fd72b0dbdcf3b76	0.3620027879341515
26	0x3fe0eb7f107581ac	0.5287471124138867
27	0x3feecc447ae0fcfb	0.9624349975564707
28	0x3fe859e82780d3af	0.7609749576137029
29	0x3fd1b473972e2a8c	0.2766388870592571
30	0x3fd96fb487016ed8	0.397442943421749
31	0x3fed81fb82a13ac9	0.9221169997561783
32	0x3fe48d490d90c095	0.6422467484426472
33	0x3feac8def0acec54	0.8370203686421385
34	0x3fdbb06b1beb2acc	0.4326427242892066
35	0x3febf782d2ab644a	0.8739637484205869
36	0x3fe2c3fd38014882	0.5864244550559905
37	0x3fe195c37f143183	0.5495316965112099
38	0x3fe6af74833f50e1	0.7089178622650502
39	0x3fda1a277fced644	0.40784633141752047
40	0x3fee61b51cdc0988	0.9494271815931805
41	0x3fcbe7b9d85cc430	0.21800921501702097
42	0x3feffa769b0d1c4c	0.9993241337150578
43	0x3fd638fb61742d0c	0.3472279025742899
44	0x3fcda3b3bf8d76b0	0.2315582928958313

right_grad f8 [9, 5]
0	0xc000000000000000	-2.0
1	0xc000000000000000	-2.0
2	0xc000000000000000	-2.0
3	0xc000000000000000	-2.0
4	0xc000000000000000	-2.0
5	0xc000000000000000	-2.0
6	0xc000000000000000	-2.0
7	0xc000000000000000	-2.0
8	0xc000000000000000	-2.0
9	0xc000000000000000	-2.0
10	0xc000000000000000	-2.0
11	0xc000000000000000	-2.0
12	0xc000000000000000	-2.0
13	0xc000000000000000	-2.0
14	0xc000000000000000	-2.0
15	0xc000000000000000	-2.0
16	0xc000000000000000	-2.0
17	0xc000000000000000	-2.0
18	0xc000000000000000	-2.0
19	0xc000000000000000	-2.0
20	0xc000000000000000	-2.0
21	0xc000000000000000	-2.0
22	0xc000000000000000	-2.0
23	0xc000000000000000	-2.0
24	0xc000000000000000	-2.0
25	0xc000000000000000	-2.0
26	0xc000000000000000	-2.0
27	0xc000000000000000	-2.0
28	0xc000000000000000	-2.0
29	0xc000000000000000	-2.0
30	0xc000000000000000	-2.0
31	0xc000000000000000	-2.0
32	0xc000000000000000	-2.0
33	0xc000000000000000	-2.0
34	0xc000000000000000	-2.0
35	0xc000000000000000	-2.0
36	0xc000000000000000	-2.0
37	0xc000000000000000	-2.0
38	0xc000000000000000	-2.0
39	0xc000000000000000	-2.0
40	0xc000000000000000	-2.0
41	0xc000000000000000	-2.0
42	0xc000000000000000	-2.0
43	0xc000000000000000	-2.0
44	0xc000000000000000	-2.0
