src/Sci.NET.Mathematics.IntegrationTests/Tensors/LinearAlgebra/Examples/MatrixMultiply_2.safetensors (safetensors, 196984 bytes, 5 tensors)

left f4 [128, 64]
0	0x3ef710da	0.48255044
1	0x3f3fdabb	0.7494313
2	0x3f5a7aef	0.8534383
3	0x3e3d3dd8	0.18480623
4	0x3eda926c	0.42689836
5	0x3f0763c9	0.52886635
6	0x3e8d30ee	0.27576393
7	0x3b48cb00	0.0030638576
8	0x3eb75506	0.35807055
9	0x3f3b6ae7	0.73209995
10	0x3f33d8f5	0.70252925
11	0x3ede9c06	0.4347841
12	0x3e24ee64	0.16106564
13	0x3e8a94f2	0.2706676
14	0x3f7fc4fb	0.99909943
15	0x3f2fed2b	0.68721265
16	0x3e3995fc	0.18123621
17	0x3e82f132	0.25574642
18	0x3e991362	0.298976
19	0x3d8eb800	0.06968689
20	0x3edbd998	0.42939448
21	0x3ee823e2	0.45339876
22	0x3f6ffabd	0.9374197
23	0x3eb0251a	0.34403306
24	0x3e0750f4	0.13214475
25	0x3e79a850	0.24380612
26	0x3d628940	0.055306673
27	0x3edb14e0	0.42789364
28	0x3f49caac	0.7882488
29	0x3efdc280	0.49562454
30	0x3e2c2ed4	0.16814739
31	0x3f268eb9	0.6506153
32	0x3ee6d340	0.45083046
33	0x3ed0bf30	0.40770864
34	0x3f69a6c8	0.91270113
35	0x3f0a9669	0.5413576
36	0x3f497b33	0.7870361
37	0x3f32c089	0.69825035
38	0x3f6d4916	0.92689645
39	0x3d46fd30	0.048581302
40	0x3f67214f	0.902852
41	0x3f0cf6c2	0.5506402
42	0x3f73755c	0.9510095
43	0x3ea32120	0.3186121
44	0x3f34e409	0.70660454
45	0x3f4597c7	0.7718472
46	0x3eb877d8	0.36028934
47	0x3e31fbf8	0.17381275
48	0x3ea7a986	0.32746524
49	0x3f3d4e4d	0.739476
50	0x3f734c6e	0.950385
51	0x3ebd2ec8	0.36949754
52	0x3f0a7e84	0.540993
53	0x3f541cfb	0.8285672
54	0x3f57f4dd	0.84358007
55	0x3d56a260	0.052400947
56	0x3f28a2ec	0.658736
57	0x3e085708	0.1331445
58	0x3f0cbff0	0.54980373
59	0x3e2e5ebc	0.17028326
60	0x3f6404e6	0.89069974
61	0x3f7bcc3c	0.9835851
62	0x3e7b82e4	0.2456165
63	0x3f5ba67b	0.85800904
64	0x3e7c3650	0.24630094
65	0x3f2acf49	0.6672254
66	0x3d734d30	0.059399784
67	0x3e047fa0	0.1293931
68	0x3ecd41ae	0.40089172
69	0x3e6f597c	0.2337398
70	0x3f02e67f	0.5113296
71	0x3f0085ce	0.5020417
72	0x3f2188e0	0.6309948
73	0x3f63bd6d	0.88960916
74	0x3f1f3283	0.6218645
75	0x3ed9d344	0.42543995
76	0x3ef9ce06	0.48789996
77	0x3ec84c4e	0.39120716
78	0x3e240be4	0.16020161
79	0x3f21a4a2	0.63141835
80	0x3f0f04a2	0.55866444
81	0x3bb3f700	0.005492091
82	0x3f31e1e0	0.6948528
83	0x3f2de2a1	0.67923933
84	0x3f6a5d7e	0.9154891
85	0x3ea87458	0.32901263
86	0x3f37df5e	0.71825206
87	0x3f633129	0.8874689
88	0x3f3c98cd	0.73670655
89	0x3dd45ae0	0.103688955
90	0x3dd54328	0.104132
91	0x3e7cfb98	0.2470535
92	0x3f4b08f6	0.7931055
93	0x3ed80816	0.4219367
94	0x3f7b262b	0.98105115
95	0x3e68dbd8	0.22740114
96	0x3e3d5930	0.18491054
97	0x3f1fd0b7	0.6242785
98	0x3eccb4c2	0.39981657
99	0x3e99f650	0.30070734
100	0x3f414761	0.7549954
101	0x3ebcc8ec	0.3687204
102	0x3f621f9c	0.8832948
103	0x3f3712c5	0.71513015
104	0x3e4181b0	0.18897128
105	0x3f17591f	0.59120363
106	0x3f3e703d	0.7439001
107	0x3f148568	0.5801606
108	0x3ecc5892	0.39911324
109	0x3db6ab88	0.08919436
110	0x3f220722	0.63292134
111	0x3eb034ce	0.34415287
112	0x3f21f206	0.63259923
113	0x3f445ca5	0.76703864
114	0x3e8f5a90	0.2799878
115	0x3ea27c0c	0.31735265
116	0x3f03f212	0.51541245
117	0x3f0d0a70	0.5509405
118	0x3f4263ec	0.7593372
119	0x3f0876fb	0.5330655
120	0x3f6d6f3a	0.92747843
121	0x3f3f9b9c	0.74846816
122	0x3e5bdd78	0.21471202
123	0x3f3b1327	0.730761
124	0x3e7ea490	0.24867463
125	0x3e483c74	0.19554311
126	0x3de98948	0.114031374
127	0x3ec49a4e	0.38398975
128	0x3f37d35b	0.7180688
129	0x3f054ba5	0.5206855
130	0x3ee08014	0.43847716
131	0x3d2d09a0	0.042245507
132	0x3ee9a1ec	0.4563135
133	0x3f17482a	0.5909449
134	0x3e9c9a7e	0.30586618
135	0x3f4ee7f1	0.80822664
136	0x3f4b3c50	0.79388905
137	0x3f2731c5	0.6531032
138	0x3ec3661c	0.3816384
139	0x3eae4eb4	0.3404442
140	0x3f5e2281	0.867714
141	0x3f7e194c	0.9925735
142	0x3e6e80a4	0.2329126
143	0x3f5be1d6	0.85891473
144	0x3f34172a	0.70347846
145	0x3f48144c	0.7815597
146	0x3d3d13d0	0.046161473
147	0x3f620bcc	0.8829925
148	0x3e5e1e58	0.21691263
149	0x3f35e981	0.71059424
150	0x3f70eeee	0.9411458
151	0x3e66fe6c	0.22557992
152	0x3f2d4e62	0.6769773
153	0x3f4db2b7	0.8035082
154	0x3f12de1f	0.5737018
155	0x3f6c38c1	0.922741
156	0x3f095dac	0.53658557
157	0x3f7b3fb9	0.9814411
158	0x3edcf9ba	0.43159276
159	0x3e8df806	0.2772829
160	0x3e354a90	0.17704225
161	0x3f507784	0.81432366
162	0x3f4d3416	0.801576
163	0x3f015507	0.50520366
164	0x3e6b70e0	0.22992277
165	0x3e226d38	0.15861976
166	0x3f74da66	0.9564575
167	0x3df08898	0.11744803
168	0x3f25856a	0.646567
169	0x3ee6b384	0.45058835
170	0x3f2f340d	0.684388
171	0x3d828bf0	0.06374347
172	0x3f446719	0.76719815
173	0x3f1f977c	0.6234052
174	0x3ec31fb4	0.38110125
175	0x3bbd5580	0.0057780147
176	0x3f7ec9c5	0.99526626
177	0x3f19cb7b	0.6007611
178	0x3eafdf0a	0.34349853
179	0x3ee370d4	0.4442202
180	0x3e28e0b0	0.16491961
181	0x3f122450	0.5708666
182	0x3e344d4c	0.17607611
183	0x3f090f3b	0.53538865
184	0x3e807f84	0.25097287
185	0x3e453a90	0.19260621
186	0x3f3a3ff9	0.72753865
187	0x3f51eac6	0.8199886
188	0x3e15e520	0.14638186
189	0x3f2b036b	0.6680209
190	0x3f568ffb	0.83813447
191	0x3ee7759c	0.45206916
192	0x3aafa000	0.0013399124
193	0x3f22c076	0.6357492
194	0x3e23ca74	0.15995198
195	0x3f363e10	0.7118845
196	0x3ec4a3a0	0.38406086
197	0x3ef6d6ba	0.48210698
198	0x3e94fea6	0.2910053
199	0x3ecf95f8	0.40544105
200	0x3e752d5c	0.23943084
201	0x3ee472d4	0.44618857
202	0x3f73f6c1	0.9529839
203	0x3e9c2a7e	0.3050117
204	0x3f28ff41	0.66014487
205	0x3e28efc8	0.1649772
206	0x3f60944b	0.8772628
207	0x3f31bb62	0.6942655
208	0x3f51f397	0.82012314
209	0x3f61f562	0.8826505
210	0x3f196434	0.5991852
211	0x3efbc1be	0.4917125
212	0x3f013d87	0.5048451
213	0x3d24aad0	0.040201962
214	0x3f790b9f	0.9728336
215	0x3f7a2539	0.9771305
216	0x3e376aa8	0.1791178
217	0x3c45c540	0.012070954
218	0x3e752c7c	0.2394275
219	0x3e56379c	0.20919651
220	0x3ec07a9a	0.37593538
221	0x3e7a6e70	0.24456191
222	0x3ebd38ae	0.36957306
223	0x3ee69130	0.45032644
224	0x3e0319dc	0.12802833
225	0x3e39e060	0.18151999
226	0x3d92ea98	0.071736515
227	0x3c5b22c0	0.013374984
228	0x3f6741dd	0.90334874
229	0x3f68a08e	0.90869987
230	0x3dab48d0	0.08363497
231	0x3f06cbf4	0.5265496
232	0x3f613789	0.87975365
233	0x3f3d7cf5	0.74018794
234	0x3f689de1	0.90865904
235	0x3f2bcdc3	0.6711084
236	0x3f53bbaa	0.8270823
237	0x3f4c1574	0.79720235
238	0x3f445fa1	0.7670842
239	0x3f3bbbf8	0.7333369
240	0x3dde0748	0.108412325
241	0x3e21aee4	0.15789372
242	0x3f05dc28	0.52289057
243	0x3f26206c	0.6489322
244	0x3f2b445d	0.6690119
245	0x3e92acde	0.28647512
246	0x3f082249	0.53177315
247	0x3f17bf3c	0.59276175
248	0x3f482ba0	0.78191566
249	0x3f7a5e8c	0.9780052
250	0x3e0cdd08	0.13756192
251	0x3ec1f642	0.37883192
252	0x3e5dfb74	0.21677953
253	0x3e75a158	0.23987329
254	0x3e7c8e38	0.24663627
255	0x3eb40532	0.35160214

left_grad f4 [128, 64]
0	0x427ef642	63.740486
1	0x4281cd24	64.900665
2	0x4282bd56	65.3698
3	0x42793720	62.303833
4	0x42781bf3	62.027294
5	0x4282653e	65.19774
6	0x42798448	62.37918
7	0x42783b8c	62.05815
8	0x42670f28	57.7648
9	0x42860822	67.015884
10	0x426f2ef8	59.795868
11	0x42761804	61.523453
12	0x42689361	58.143925
13	0x428729a2	67.581314
14	0x4283c682	65.88771
15	0x4281b80a	64.85945
16	0x4267ade2	57.919807
17	0x42815bdd	64.67942
18	0x4274fca5	61.246723
19	0x4277ea59	61.978855
20	0x4266a6a8	57.66275
21	0x428b7033	69.71914
22	0x427490f0	61.14154
23	0x42806e99	64.21601
24	0x4282fc0b	65.49227
25	0x427ea760	63.663452
26	0x4277c144	61.938736
27	0x42822268	65.0672
28	0x428bddf8	69.93353
29	0x427d1849	63.273716
30	0x4274a3b7	61.159878
31	0x427b5033	62.82832
32	0x4280e12c	64.43979
33	0x4283b4f2	65.85341
34	0x427dbd57	63.434902
35	0x4293c299	73.88007
36	0x42812b22	64.58424
37	0x4283ce52	65.90297
38	0x428252fc	65.16208
39	0x42726cf6	60.606407
40	0x42853e00	66.62109
41	0x427420d9	61.032078
42	0x427db121	63.422977
43	0x42818921	64.76783
44	0x4288bdc5	68.37064
45	0x426ad0b7	58.703823
46	0x4279f91c	62.49327
47	0x4280002b	64.00033
48	0x426f48d9	59.82114
49	0x42731225	60.76772
50	0x427abc7c	62.684067
51	0x428aa2f2	69.31825
52	0x42747172	61.110786
53	0x4281d7b9	64.92133
54	0x4282c059	65.37568
55	0x42805739	64.17036
56	0x4277d178	61.95456
57	0x4280a59e	64.32347
58	0x426981c3	58.37672
59	0x4277c319	61.940525
60	0x42775c81	61.840336
61	0x42890287	68.50494
62	0x42849842	66.29738
63	0x427a60e1	62.59461
64	0x427ef642	63.740486
65	0x4281cd24	64.900665
66	0x4282bd56	65.3698
67	0x42793720	62.303833
68	0x42781bf3	62.027294
69	0x4282653e	65.19774
70	0x42798448	62.37918
71	0x42783b8c	62.05815
72	0x42670f28	57.7648
73	0x42860822	67.015884
74	0x426f2ef8	59.795868
75	0x42761804	61.523453
76	0x42689361	58.143925
77	0x428729a2	67.581314
78	0x4283c682	65.88771
79	0x4281b80a	64.85945
80	0x4267ade2	57.919807
81	0x42815bdd	64.67942
82	0x4274fca5	61.246723
83	0x4277ea59	61.978855
84	0x4266a6a8	57.66275
85	0x428b7033	69.71914
86	0x427490f0	61.14154
87	0x42806e99	64.21601
88	0x4282fc0b	65.49227
89	0x427ea760	63.663452
90	0x4277c144	61.938736
91	0x42822268	65.0672
92	0x428bddf8	69.93353
93	0x427d1849	63.273716
94	0x4274a3b7	61.159878
95	0x427b5033	62.82832
96	0x4280e12c	64.43979
97	0x4283b4f2	65.85341
98	0x427dbd57	63.434902
99	0x4293c299	73.88007
100	0x42812b22	64.58424
101	0x4283ce52	65.90297
102	0x428252fc	65.16208
103	0x42726cf6	60.606407
104	0x42853e00	66.62109
105	0x427420d9	61.032078
106	0x427db121	63.422977
107	0x42818921	64.76783
108	0x4288bdc5	68.37064
109	0x426ad0b7	58.703823
110	0x4279f91c	62.49327
111	0x4280002b	64.00033
112	0x426f48d9	59.82114
113	0x42731225	60.76772
114	0x427abc7c	62.684067
115	0x428aa2f2	69.31825
116	0x42747172	61.110786
117	0x4281d7b9	64.92133
118	0x4282c059	65.37568
119	0x42805739	64.17036
120	0x4277d178	61.95456
121	0x4280a59e	64.32347
122	0x426981c3	58.37672
123	0x4277c319	61.940525
124	0x42775c81	61.840336
125	0x42890287	68.50494
126	0x42849842	66.29738
127	0x427a60e1	62.59461
128	0x427ef642	63.740486
129	0x4281cd24	64.900665
130	0x4282bd56	65.3698
131	0x42793720	62.303833
132	0x42781bf3	62.027294
133	0x4282653e	65.19774
134	0x42798448	62.37918
135	0x42783b8c	62.05815
136	0x42670f28	57.7648
137	0x42860822	67.015884
138	0x426f2ef8	59.795868
139	0x42761804	61.523453
140	0x42689361	58.143925
141	0x428729a2	67.581314
142	0x4283c682	65.88771
143	0x4281b80a	64.85945
144	0x4267ade2	57.919807
145	0x42815bdd	64.67942
146	0x4274fca5	61.246723
147	0x4277ea59	61.978855
148	0x4266a6a8	57.66275
149	0x428b7033	69.71914
150	0x427490f0	61.14154
151	0x42806e99	64.21601
152	0x4282fc0b	65.49227
153	0x427ea760	63.663452
154	0x4277c144	61.938736
155	0x42822268	65.0672
156	0x428bddf8	69.93353
157	0x427d1849	63.273716
158	0x4274a3b7	61.159878
159	0x427b5033	62.82832
160	0x4280e12c	64.43979
161	0x4283b4f2	65.85341
162	0x427dbd57	63.434902
163	0x4293c299	73.88007
164	0x42812b22	64.58424
165	0x4283ce52	65.90297
166	0x428252fc	65.16208
167	0x42726cf6	60.606407
168	0x42853e00	66.62109
169	0x427420d9	61.032078
170	0x427db121	63.422977
171	0x42818921	64.76783
172	0x4288bdc5	68.37064
173	0x426ad0b7	58.703823
174	0x4279f91c	62.49327
175	0x4280002b	64.00033
176	0x426f48d9	59.82114
177	0x42731225	60.76772
178	0x427abc7c	62.684067
179	0x428aa2f2	69.31825
180	0x42747172	61.110786
181	0x4281d7b9	64.92133
182	0x4282c059	65.37568
183	0x42805739	64.17036
184	0x4277d178	61.95456
185	0x4280a59e	64.32347
186	0x426981c3	58.37672
187	0x4277c319	61.940525
188	0x42775c81	61.840336
189	0x42890287	68.50494
190	0x42849842	66.29738
191	0x427a60e1	62.59461
192	0x427ef642	63.740486
193	0x4281cd24	64.900665
194	0x4282bd56	65.3698
195	0x42793720	62.303833
196	0x42781bf3	62.027294
197	0x4282653e	65.19774
198	0x42798448	62.37918
199	0x42783b8c	62.05815
200	0x42670f28	57.7648
201	0x42860822	67.015884
202	0x426f2ef8	59.795868
203	0x42761804	61.523453
204	0x42689361	58.143925
205	0x428729a2	67.581314
206	0x4283c682	65.88771
207	0x4281b80a	64.85945
208	0x4267ade2	57.919807
209	0x42815bdd	64.67942
210	0x4274fca5	61.246723
211	0x4277ea59	61.978855
212	0x4266a6a8	57.66275
213	0x428b7033	69.71914
214	0x427490f0	61.14154
215	0x42806e99	64.21601
216	0x4282fc0b	65.49227
217	0x427ea760	63.663452
218	0x4277c144	61.938736
219	0x42822268	65.0672
220	0x428bddf8	69.93353
221	0x427d1849	63.273716
222	0x4274a3b7	61.159878
223	0x427b5033	62.82832
224	0x4280e12c	64.43979
225	0x4283b4f2	65.85341
226	0x427dbd57	63.434902
227	0x4293c299	73.88007
228	0x42812b22	64.58424
229	0x4283ce52	65.90297
230	0x428252fc	65.16208
231	0x42726cf6	60.606407
232	0x42853e00	66.62109
233	0x427420d9	61.032078
234	0x427db121	63.422977
235	0x42818921	64.76783
236	0x4288bdc5	68.37064
237	0x426ad0b7	58.703823
238	0x4279f91c	62.49327
239	0x4280002b	64.00033
240	0x426f48d9	59.82114
241	0x42731225	60.76772
242	0x427abc7c	62.684067
243	0x428aa2f2	69.31825
244	0x42747172	61.110786
245	0x4281d7b9	64.92133
246	0x4282c059	65.37568
247	0x42805739	64.17036
248	0x4277d178	61.95456
249	0x4280a59e	64.32347
250	0x426981c3	58.37672
251	0x4277c319	61.940525
252	0x42775c81	61.840336
253	0x42890287	68.50494
254	0x42849842	66.29738
255	0x427a60e1	62.59461

result f4 [128, 128]
0	0x418a4139	17.281847
1	0x4182677a	16.300526
2	0x416cafed	14.792951
3	0x41894914	17.160683
4	0x4187a6c3	16.956427
5	0x417142a1	15.078767
6	0x418ccdca	17.600483
7	0x419adac7	19.356825
8	0x4183d2d1	16.477938
9	0x418a6f99	17.304491
10	0x416ee8ad	14.931806
11	0x4191ab4c	18.208641
12	0x417c466b	15.767192
13	0x418966cd	17.175196
14	0x41894420	17.158264
15	0x4188baea	17.091267
16	0x4180691d	16.051325
17	0x4185cf2d	16.72616
18	0x414dba10	12.857925
19	0x4175fc6a	15.374125
20	0x418a43c4	17.283089
21	0x417ecf24	15.925571
22	0x417bd8d2	15.740435
23	0x4171336a	15.075052
24	0x418a68e4	17.301216
25	0x41460d2a	12.378214
26	0x41872e3e	16.89758
27	0x41881a6d	17.012903
28	0x4170f64a	15.060129
29	0x417ece4b	15.9253645
30	0x41865887	16.793226
31	0x4178c070	15.546982
32	0x41797fd1	15.593705
33	0x41916a0c	18.17678
34	0x418c7530	17.55722
35	0x41664890	14.392715
36	0x418ef251	17.868319
37	0x4195d8ad	18.730799
38	0x418b2dec	17.397423
39	0x417d3bd8	15.82711
40	0x4177c547	15.485663
41	0x41830c48	16.380997
42	0x4183da1d	16.4815
43	0x416d72f5	14.840566
44	0x41894810	17.160187
45	0x41849530	16.572845
46	0x4172dc03	15.178714
47	0x419031d9	18.02434
48	0x4176e835	15.431691
49	0x41812cab	16.14681
50	0x418572c0	16.68103
51	0x418739a2	16.903141
52	0x4188e08f	17.109648
53	0x4181243e	16.142696
54	0x418651c7	16.78993
55	0x41809d07	16.076674
56	0x4173438e	15.203993
57	0x418537c7	16.652235
58	0x4181a641	16.206179
59	0x41826926	16.301342
60	0x416b162c	14.692913
61	0x41800dde	16.006771
62	0x4173c0de	15.234587
63	0x4188b937	17.090437
64	0x417880df	15.531463
65	0x4186f57a	16.869862
66	0x416ecdbb	14.925227
67	0x41753e3b	15.327693
68	0x4185ed3a	16.740833
69	0x418c3cad	17.529627
70	0x4181599e	16.168758
71	0x415cd8ea	13.802958
72	0x417b7fb2	15.718676
73	0x416393fc	14.223629
74	0x414b4776	12.7049465
75	0x41905f45	18.046518
76	0x4197bff8	18.968735
77	0x417865dd	15.524869
78	0x418b530e	17.415554
79	0x4150d963	13.053073
80	0x4171e946	15.1194515
81	0x416c3b0a	14.764414
82	0x4167a49d	14.477689
83	0x4186c997	16.848433
84	0x418cb416	17.587933
85	0x418c8e3d	17.569452
86	0x417d7812	15.841814
87	0x41855b1f	16.669493
88	0x417e87d7	15.908164
89	0x4183737b	16.431387
90	0x41852236	16.641705
91	0x4167157e	14.442747
92	0x415d9b65	13.850438
93	0x418b4446	17.408337
94	0x418fdafa	17.981922
95	0x416f19b4	14.943775
96	0x418e94c5	17.822641
97	0x4182936b	16.321981
98	0x4183d846	16.480602
99	0x4176b5de	15.419401
100	0x418336e8	16.40181
101	0x41817a62	16.184757
102	0x416778e7	14.467017
103	0x4188090c	17.004417
104	0x417d7fe7	15.843726
105	0x417bfcb4	15.749195
106	0x4180d1c0	16.102417
107	0x4175b049	15.355538
108	0x41671b94	14.444233
109	0x415fca43	13.98688
110	0x417fb555	15.9817705
111	0x41646af1	14.276109
112	0x41742039	15.257867
113	0x41803d5c	16.02996
114	0x41737567	15.216163
115	0x4193d9af	18.48129
116	0x41838d30	16.44394
117	0x4186a684	16.831306
118	0x418ad8f5	17.355936
119	0x418f813e	17.938107
120	0x418489e4	16.56733
121	0x4189fea9	17.249346
122	0x4181188a	16.136982
123	0x4175eaf3	15.369861
124	0x418a2f02	17.272953
125	0x418d63b0	17.673676
126	0x418dbffe	17.718746
127	0x41925844	18.293098
128	0x4174da0f	15.303237
129	0x4180d0e0	16.10199
130	0x415678fe	13.404539
131	0x4169a2cb	14.602244
132	0x417372ed	15.215558
133	0x4180eb68	16.114944
134	0x4183ed01	16.490725
135	0x4196c890	18.84793
136	0x41877c7a	16.93578
137	0x4180fa52	16.122227
138	0x415ce8da	13.806849
139	0x418b546e	17.416225
140	0x4172c9b1	15.174241
141	0x4184c308	16.59523
142	0x4178576c	15.521343
143	0x41807ee9	16.061968
144	0x41761f32	15.382616
145	0x4177f29a	15.496729
146	0x414a8976	12.65856
147	0x41661f72	14.382677
148	0x4183e5a4	16.48713
149	0x417f1b40	15.944153
150	0x416b68b4	14.713062
151	0x416525be	14.321714
152	0x4181b662	16.214054
153	0x4155bfe8	13.359352
154	0x4183c227	16.4698
155	0x41836d6b	16.428427
156	0x4148797c	12.529659
157	0x41757469	15.34092
158	0x4167565e	14.458586
159	0x41804dd8	16.03801
160	0x4176ba60	15.420502
161	0x41764cce	15.393751
162	0x4181cdca	16.225483
163	0x415c0342	13.750795
164	0x418943be	17.158077
165	0x417b3f04	15.702885
166	0x4184e4a6	16.611645
167	0x4162530a	14.145273
168	0x416d2f97	14.824119
169	0x417bef76	15.745962
170	0x41736c84	15.213993
171	0x41707c8f	15.03041
172	0x4178a585	15.54041
173	0x416d511a	14.8323
174	0x417649c6	15.393011
175	0x41746778	15.275261
176	0x416b7849	14.7168665
177	0x417c7085	15.777471
178	0x41818692	16.190708
179	0x417e1d90	15.882217
180	0x418789c6	16.942272
181	0x41761460	15.379974
182	0x41836fcf	16.429594
183	0x41741e16	15.257345
184	0x4160c535	14.048146
185	0x41820d3d	16.256464
186	0x4171418a	15.078501
187	0x418953df	17.165953
188	0x4160767f	14.02893
189	0x418417f5	16.511698
190	0x41630b9e	14.190336
191	0x417e4377	15.891471
192	0x41732562	15.196627
193	0x4169d575	14.614614
194	0x41636ede	14.214567
195	0x416d9691	14.849259
196	0x416f37da	14.951136
197	0x417ae803	15.6816435
198	0x4186b1eb	16.836874
199	0x4154d3c0	13.301697
200	0x416e780c	14.904308
201	0x4164f7f6	14.310537
202	0x413029ed	11.010236
203	0x4186bf7e	16.843502
204	0x4192bd1f	18.342344
205	0x416150cb	14.082225
206	0x4174ea1c	15.307156
207	0x415eb56a	13.919291
208	0x4177ed1a	15.495386
209	0x4171dbd6	15.116171
210	0x417af482	15.684694
211	0x416ee6be	14.931334
212	0x41707b8d	15.030164
213	0x41818e19	16.194384
214	0x4163be93	14.234027
215	0x4182f699	16.370409
216	0x41777df7	15.468253
217	0x41719526	15.098913
218	0x415d6755	13.837728
219	0x4162ef59	14.1834345
220	0x415bcc4e	13.737379
221	0x4180fa82	16.122318
222	0x418ba4e7	17.455519
223	0x4166db2a	14.428507
224	0x41885bc5	17.04481
225	0x417af2ed	15.684308
226	0x417d7423	15.840854
227	0x415ef285	13.934209
228	0x4177f964	15.498386
229	0x4160304a	14.011789
230	0x41578f6f	13.472518
231	0x41786b33	15.526172
232	0x4171f35a	15.121912
233	0x41671b63	14.444186
234	0x41725f7f	15.148314
235	0x4163f724	14.247837
236	0x41670839	14.4395075
237	0x4168343e	14.512754
238	0x41847f11	16.562044
239	0x415fb61f	13.981963
240	0x41798f7c	15.59753
241	0x416d1831	14.818406
242	0x41644073	14.265735
243	0x417fe770	15.994003
244	0x417091b2	15.03557
245	0x4183831b	16.439016
246	0x4189bba4	17.216621
247	0x4185b338	16.71251
248	0x4181b302	16.212406
249	0x4187d588	16.979263
250	0x416eb9ec	14.920391
251	0x417d65d3	15.837359
252	0x418211c4	16.258675
253	0x41850b6b	16.630575
254	0x4182b6ca	16.339252
255	0x4191ca11	18.223665

right f4 [64, 128]
0	0x3f7b0134	0.9804871
1	0x3efb8d64	0.4913131
2	0x3f6e633b	0.93120164
3	0x3f411ef1	0.7543784
4	0x3ec3ff8c	0.38280904
5	0x3f6887fb	0.9083249
6	0x3e628bb4	0.22123605
7	0x3e334b34	0.17509156
8	0x3f696b8f	0.91179746
9	0x3f1592e8	0.58427286
10	0x3f7dd8f5	0.99159175
11	0x3f788132	0.97072136
12	0x3d806600	0.06269455
13	0x3f194598	0.59871817
14	0x3c282b80	0.010264277
15	0x3f30f9cd	0.69131166
16	0x3e4e8550	0.20168042
17	0x3f056ada	0.5211617
18	0x3ebe48ec	0.3716501
19	0x3f415f10	0.7553568
20	0x3f5448ef	0.8292379
21	0x3f1a132c	0.60185504
22	0x3f236231	0.63821703
23	0x3f54ccc3	0.8312494
24	0x3f6b3e88	0.9189229
25	0x3f03d500	0.5149689
26	0x3ee7bc20	0.45260715
27	0x3eb3a7f0	0.35089064
28	0x3f06cb56	0.52654016
29	0x3e38b734	0.18038636
30	0x3e9ac244	0.30226338
31	0x3f0fc85e	0.5616511
32	0x3e8f36b0	0.2797141
33	0x3e8d31b6	0.2757699
34	0x3f7b2d3d	0.98115903
35	0x3ea2777a	0.31731778
36	0x3f2c9826	0.6741966
37	0x3ee50b94	0.44735396
38	0x3f441665	0.7659667
39	0x3ef07e7e	0.46971506
40	0x3f0a2f0f	0.53978056
41	0x3e7742a4	0.24146515
42	0x3d28da80	0.041224003
43	0x3f40aa23	0.7525961
44	0x3c74b4c0	0.014935672
45	0x3f27dc22	0.6557027
46	0x3dd16558	0.10224408
47	0x3f6ff0dd	0.93726903
48	0x3ef48e36	0.47764748
49	0x3de1e0c8	0.11029202
50	0x3f01eac4	0.5074885
51	0x3f451c08	0.769959
52	0x3f39bd52	0.72554505
53	0x3e335c54	0.17515689
54	0x3f28a472	0.65875924
55	0x3f1fd4a5	0.62433845
56	0x3e930b4e	0.28719562
57	0x3f3a09a7	0.7267098
58	0x3f70ae1b	0.94015664
59	0x3f55bb8c	0.834893
60	0x3db60848	0.08888298
61	0x3ec1b2b2	0.37831646
62	0x3f18893b	0.595844
63	0x3f7d690c	0.98988414
64	0x3ebb4454	0.36575568
65	0x3f23dfbc	0.64013267
66	0x3f41aa85	0.7565082
67	0x3e7a3fb0	0.24438357
68	0x3f424cf7	0.7589869
69	0x3d76de60	0.060270667
70	0x3ec10392	0.37698036
71	0x3e756f0c	0.23968142
72	0x3e5c8ac8	0.21537316
73	0x3f0c3a1c	0.5477617
74	0x3f1e0a10	0.61734104
75	0x3f247ffd	0.64257795
76	0x3f6d12d4	0.92606854
77	0x3f60e882	0.8785478
78	0x3ee543fc	0.4477843
79	0x3f6153d2	0.88018525
80	0x3d6479e0	0.05578029
81	0x3e674354	0.22584277
82	0x3d93b4b8	0.07212204
83	0x3e455a2c	0.19272679
84	0x3f70d19c	0.9406984
85	0x3d39e200	0.045381546
86	0x3f74cc9a	0.956247
87	0x3efe034c	0.4961189
88	0x3f2383c1	0.63872916
89	0x3d74ec90	0.059795916
90	0x3f20e337	0.628467
91	0x3e7e4ca0	0.24833918
92	0x3ebed56c	0.37272203
93	0x3f295047	0.6613812
94	0x3f3ad6fe	0.729843
95	0x3de73178	0.11288732
96	0x3ee4bde6	0.4467613
97	0x3f58ac71	0.84638125
98	0x3f50854f	0.8145341
99	0x3dadbb20	0.08482957
100	0x3ef32fe6	0.4749748
101	0x3f79648b	0.9741904
102	0x3df6b878	0.12046903
103	0x3e132b18	0.14371908
104	0x3f760668	0.96103525
105	0x3ebb054c	0.3652748
106	0x3e01fbb8	0.1269368
107	0x3b2f4200	0.002674222
108	0x3f7b5b08	0.9818578
109	0x3ed79cb4	0.42111742
110	0x3f18abb3	0.5963699
111	0x3f173ddf	0.5907878
112	0x3e9fd594	0.31217635
113	0x3d9e53e8	0.077308476
114	0x3f3b22d1	0.731
115	0x3ed84f40	0.42247963
116	0x3d65e0f0	0.05612272
117	0x3c5537c0	0.01301378
118	0x3c8404e0	0.016115606
119	0x3f4aa00c	0.7915046
120	0x3da7a4b8	0.081857145
121	0x3eb1408e	0.34619564
122	0x3f572751	0.8404437
123	0x3ec501f6	0.3847806
124	0x3f0ec4ce	0.5576905
125	0x3ece6d78	0.40317893
126	0x3e143e04	0.14476782
127	0x3f76526e	0.9621953
128	0x3f088173	0.53322524
129	0x3f3dc204	0.7412417
130	0x3f3db4bf	0.7410392
131	0x3f6507fc	0.8946531
132	0x3e8c18f0	0.27362776
133	0x3db23d40	0.08703089
134	0x3f0a479a	0.54015505
135	0x3f110fb7	0.56664604
136	0x3f6b89b1	0.92006975
137	0x3f51a8ed	0.81898385
138	0x3ecb551a	0.39713365
139	0x3f310df7	0.69161934
140	0x3e8d9da2	0.27659327
141	0x3ef298c0	0.47382164
142	0x3e764840	0.24050999
143	0x3f5f6824	0.8726828
144	0x3e7a8360	0.24464178
145	0x3f4c7ef0	0.7988119
146	0x3ed0a370	0.40749693
147	0x3f27e3d1	0.65581995
148	0x3e6918e4	0.22763401
149	0x3e8f80ca	0.28027946
150	0x3e9fc71c	0.31206596
151	0x3ee8b2e6	0.4544899
152	0x3e6886e4	0.22707707
153	0x3d54b5b0	0.051931083
154	0x3e86a51e	0.2629785
155	0x3f2f1697	0.68393844
156	0x3e88441a	0.26614457
157	0x3f6142c6	0.87992513
158	0x3e1ada5c	0.1512236
159	0x3e1e8280	0.1547947
160	0x3e127944	0.14304072
161	0x3f3d6722	0.73985493
162	0x3e407ec4	0.18798357
163	0x3e2a4fc0	0.16631985
164	0x3f6f169b	0.9339387
165	0x3f025d31	0.5092345
166	0x3f01031c	0.5039537
167	0x3e614e24	0.22002465
168	0x3ef82108	0.484627
169	0x3e00a2c0	0.12562084
170	0x3f13a55e	0.57674205
171	0x3e037a60	0.12839651
172	0x3f5c1919	0.85975796
173	0x3e0b56ec	0.13607377
174	0x3e2871f8	0.16449726
175	0x3edd5f80	0.43236923
176	0x3ef3eaa4	0.47639954
177	0x3ee59cc8	0.44846177
178	0x3f7b95c7	0.9827542
179	0x3f5022b1	0.81302935
180	0x3f057857	0.5213675
181	0x3dd14cf0	0.10219753
182	0x3f682d3d	0.9069403
183	0x3f02a159	0.51027447
184	0x393d5000	0.00018054247
185	0x3f184fe0	0.5949688
186	0x3d406e30	0.046980083
187	0x3ed466ac	0.41484582
188	0x3ec642f8	0.38722968
189	0x3f6579be	0.8963889
190	0x3f29731f	0.66191286
191	0x3f1ea398	0.61968374
192	0x3f73ff16	0.95311105
193	0x3eb9e724	0.3630916
194	0x3f2819ef	0.6566457
195	0x3f3e70ad	0.7439068
196	0x3f709ec9	0.93992287
197	0x3f64f07b	0.89429444
198	0x3f2e8a51	0.68179804
199	0x3e6f003c	0.23339933
200	0x3ecf425c	0.40480316
201	0x3eec249a	0.46121675
202	0x3e1c31ec	0.15253419
203	0x3e08d3f8	0.1336211
204	0x3d996e90	0.07491791
205	0x3e9bbe4a	0.30418617
206	0x3f5872b8	0.84550047
207	0x3ea49502	0.32144934
208	0x3f3cba13	0.73721427
209	0x3f4c71cc	0.7986114
210	0x3eafcd38	0.34336257
211	0x3f739d4f	0.9516191
212	0x3f23a63f	0.63925546
213	0x3f37e80a	0.7183844
214	0x3e19ebb0	0.15031314
215	0x3d44c1b0	0.048036277
216	0x3f662191	0.8989497
217	0x3f2f1ed0	0.6840639
218	0x3f770456	0.9649099
219	0x3f4d049f	0.80085176
220	0x3d6c17a0	0.057639718
221	0x3f36d123	0.7141287
222	0x3ebb2bf0	0.3655696
223	0x3e5494b0	0.20759845
224	0x3eac8d62	0.33701617
225	0x3f6a0a73	0.91422194
226	0x3e82cc14	0.25546324
227	0x3f50d687	0.8157734
228	0x3f495abc	0.78654075
229	0x3ec899d0	0.3917985
230	0x3f071957	0.5277304
231	0x3d9c7840	0.07640123
232	0x3f07ac26	0.5299705
233	0x3e73d264	0.23810726
234	0x3f3d58ca	0.73963606
235	0x3f5916d3	0.8480045
236	0x3e96f976	0.294872
237	0x3e294118	0.16528738
238	0x3f2d9885	0.6781085
239	0x3f170840	0.58996964
240	0x3f603ba3	0.87591
241	0x3cf03060	0.029319942
242	0x3e06f864	0.13180691
243	0x3eceb1f4	0.40370142
244	0x3e9bb2e4	0.3040992
245	0x3f6cc6ec	0.9249103
246	0x3f3b5808	0.731812
247	0x3f391f75	0.72313625
248	0x3f3dc993	0.741357
249	0x3f4edc05	0.80804473
250	0x3e32a484	0.1744557
251	0x3f2b4329	0.66899353
252	0x3f7c28de	0.9849986
253	0x3f10c90d	0.5655678
254	0x3f1e3713	0.61802787
255	0x3f74d54e	0.9563798

right_grad f4 [64, 128]
0	0x4270ec17	60.230556
1	0x4270ec17	60.230556
2	0x4270ec17	60.230556
3	0x4270ec17	60.230556
4	0x4270ec17	60.230556
5	0x4270ec17	60.230556
6	0x4270ec17	60.230556
7	0x4270ec17	60.230556
8	0x4270ec17	60.230556
9	0x4270ec17	60.230556
10	0x4270ec17	60.230556
11	0x4270ec17	60.230556
12	0x4270ec17	60.230556
13	0x4270ec17	60.230556
14	0x4270ec17	60.230556
15	0x4270ec17	60.230556
16	0x4270ec17	60.230556
17	0x4270ec17	60.230556
18	0x4270ec17	60.230556
19	0x4270ec17	60.230556
20	0x4270ec17	60.230556
21	0x4270ec17	60.230556
22	0x4270ec17	60.230556
23	0x4270ec17	60.230556
24	0x4270ec17	60.230556
25	0x4270ec17	60.230556
26	0x4270ec17	60.230556
27	0x4270ec17	60.230556
28	0x4270ec17	60.230556
29	0x4270ec17	60.230556
30	0x4270ec17	60.230556
31	0x4270ec17	60.230556
32	0x4270ec17	60.230556
33	0x4270ec17	60.230556
34	0x4270ec17	60.230556
35	0x4270ec17	60.230556
36	0x4270ec17	60.230556
37	0x4270ec17	60.230556
38	0x4270ec17	60.230556
39	0x4270ec17	60.230556
40	0x4270ec17	60.230556
41	0x4270ec17	60.230556
42	0x4270ec17	60.230556
43	0x4270ec17	60.230556
44	0x4270ec17	60.230556
45	0x4270ec17	60.230556
46	0x4270ec17	60.230556
47	0x4270ec17	60.230556
48	0x4270ec17	60.230556
49	0x4270ec17	60.230556
50	0x4270ec17	60.230556
51	0x4270ec17	60.230556
52	0x4270ec17	60.230556
53	0x4270ec17	60.230556
54	0x4270ec17	60.230556
55	0x4270ec17	60.230556
56	0x4270ec17	60.230556
57	0x4270ec17	60.230556
58	0x4270ec17	60.230556
59	0x4270ec17	60.230556
60	0x4270ec17	60.230556
61	0x4270ec17	60.230556
62	0x4270ec17	60.230556
63	0x4270ec17	60.230556
64	0x4270ec17	60.230556
65	0x4270ec17	60.230556
66	0x4270ec17	60.230556
67	0x4270ec17	60.230556
68	0x4270ec17	60.230556
69	0x4270ec17	60.230556
70	0x4270ec17	60.230556
71	0x4270ec17	60.230556
72	0x4270ec17	60.230556
73	0x4270ec17	60.230556
74	0x4270ec17	60.230556
75	0x4270ec17	60.230556
76	0x4270ec17	60.230556
77	0x4270ec17	60.230556
78	0x4270ec17	60.230556
79	0x4270ec17	60.230556
80	0x4270ec17	60.230556
81	0x4270ec17	60.230556
82	0x4270ec17	60.230556
83	0x4270ec17	60.230556
84	0x4270ec17	60.230556
85	0x4270ec17	60.230556
86	0x4270ec17	60.230556
87	0x4270ec17	60.230556
88	0x4270ec17	60.230556
89	0x4270ec17	60.230556
90	0x4270ec17	60.230556
91	0x4270ec17	60.230556
92	0x4270ec17	60.230556
93	0x4270ec17	60.230556
94	0x4270ec17	60.230556
95	0x4270ec17	60.230556
96	0x4270ec17	60.230556
97	0x4270ec17	60.230556
98	0x4270ec17	60.230556
99	0x4270ec17	60.230556
100	0x4270ec17	60.230556
101	0x4270ec17	60.230556
102	0x4270ec17	60.230556
103	0x4270ec17	60.230556
104	0x4270ec17	60.230556
105	0x4270ec17	60.230556
106	0x4270ec17	60.230556
107	0x4270ec17	60.230556
108	0x4270ec17	60.230556
109	0x4270ec17	60.230556
110	0x4270ec17	60.230556
111	0x4270ec17	60.230556
112	0x4270ec17	60.230556
113	0x4270ec17	60.230556
114	0x4270ec17	60.230556
115	0x4270ec17	60.230556
116	0x4270ec17	60.230556
117	0x4270ec17	60.230556
118	0x4270ec17	60.230556
119	0x4270ec17	60.230556
120	0x4270ec17	60.230556
121	0x4270ec17	60.230556
122	0x4270ec17	60.230556
123	0x4270ec17	60.230556
124	0x4270ec17	60.230556
125	0x4270ec17	60.230556
126	0x4270ec17	60.230556
127	0x4270ec17	60.230556
128	0x4280c7d5	64.3903
129	0x4280c7d5	64.3903
130	0x4280c7d5	64.3903
131	0x4280c7d5	64.3903
132	0x4280c7d5	64.3903
133	0x4280c7d5	64.3903
134	0x4280c7d5	64.3903
135	0x4280c7d5	64.3903
136	0x4280c7d5	64.3903
137	0x4280c7d5	64.3903
138	0x4280c7d5	64.3903
139	0x4280c7d5	64.3903
140	0x4280c7d5	64.3903
141	0x4280c7d5	64.3903
142	0x4280c7d5	64.3903
143	0x4280c7d5	64.3903
144	0x4280c7d5	64.3903
145	0x4280c7d5	64.3903
146	0x4280c7d5	64.3903
147	0x4280c7d5	64.3903
148	0x4280c7d5	64.3903
149	0x4280c7d5	64.3903
150	0x4280c7d5	64.3903
151	0x4280c7d5	64.3903
152	0x4280c7d5	64.3903
153	0x4280c7d5	64.3903
154	0x4280c7d5	64.3903
155	0x4280c7d5	64.3903
156	0x4280c7d5	64.3903
157	0x4280c7d5	64.3903
158	0x4280c7d5	64.3903
159	0x4280c7d5	64.3903
160	0x4280c7d5	64.3903
161	0x4280c7d5	64.3903
162	0x4280c7d5	64.3903
163	0x4280c7d5	64.3903
164	0x4280c7d5	64.3903
165	0x4280c7d5	64.3903
166	0x4280c7d5	64.3903
167	0x4280c7d5	64.3903
168	0x4280c7d5	64.3903
169	0x4280c7d5	64.3903
170	0x4280c7d5	64.3903
171	0x4280c7d5	64.3903
172	0x4280c7d5	64.3903
173	0x4280c7d5	64.3903
174	0x4280c7d5	64.3903
175	0x4280c7d5	64.3903
176	0x4280c7d5	64.3903
177	0x4280c7d5	64.3903
178	0x4280c7d5	64.3903
179	0x4280c7d5	64.3903
180	0x4280c7d5	64.3903
181	0x4280c7d5	64.3903
182	0x4280c7d5	64.3903
183	0x4280c7d5	64.3903
184	0x4280c7d5	64.3903
185	0x4280c7d5	64.3903
186	0x4280c7d5	64.3903
187	0x4280c7d5	64.3903
188	0x4280c7d5	64.3903
189	0x4280c7d5	64.3903
190	0x4280c7d5	64.3903
191	0x4280c7d5	64.3903
192	0x4280c7d5	64.3903
193	0x4280c7d5	64.3903
194	0x4280c7d5	64.3903
195	0x4280c7d5	64.3903
196	0x4280c7d5	64.3903
197	0x4280c7d5	64.3903
198	0x4280c7d5	64.3903
199	0x4280c7d5	64.3903
200	0x4280c7d5	64.3903
201	0x4280c7d5	64.3903
202	0x4280c7d5	64.3903
203	0x4280c7d5	64.3903
204	0x4280c7d5	64.3903
205	0x4280c7d5	64.3903
206	0x4280c7d5	64.3903
207	0x4280c7d5	64.3903
208	0x4280c7d5	64.3903
209	0x4280c7d5	64.3903
210	0x4280c7d5	64.3903
211	0x4280c7d5	64.3903
212	0x4280c7d5	64.3903
213	0x4280c7d5	64.3903
214	0x4280c7d5	64.3903
215	0x4280c7d5	64.3903
216	0x4280c7d5	64.3903
217	0x4280c7d5	64.3903
218	0x4280c7d5	64.3903
219	0x4280c7d5	64.3903
220	0x4280c7d5	64.3903
221	0x4280c7d5	64.3903
222	0x4280c7d5	64.3903
223	0x4280c7d5	64.3903
224	0x4280c7d5	64.3903
225	0x4280c7d5	64.3903
226	0x4280c7d5	64.3903
227	0x4280c7d5	64.3903
228	0x4280c7d5	64.3903
229	0x4280c7d5	64.3903
230	0x4280c7d5	64.3903
231	0x4280c7d5	64.3903
232	0x4280c7d5	64.3903
233	0x4280c7d5	64.3903
234	0x4280c7d5	64.3903
235	0x4280c7d5	64.3903
236	0x4280c7d5	64.3903
237	0x4280c7d5	64.3903
238	0x4280c7d5	64.3903
239	0x4280c7d5	64.3903
240	0x4280c7d5	64.3903
241	0x4280c7d5	64.3903
242	0x4280c7d5	64.3903
243	0x4280c7d5	64.3903
244	0x4280c7d5	64.3903
245	0x4280c7d5	64.3903
246	0x4280c7d5	64.3903
247	0x4280c7d5	64.3903
248	0x4280c7d5	64.3903
249	0x4280c7d5	64.3903
250	0x4280c7d5	64.3903
251	0x4280c7d5	64.3903
252	0x4280c7d5	64.3903
253	0x4280c7d5	64.3903
254	0x4280c7d5	64.3903
255	0x4280c7d5	64.3903
