src/Sci.NET.Mathematics.IntegrationTests/Tensors/LinearAlgebra/Examples/MatrixMultiply_4.safetensors (safetensors, 9184 bytes, 5 tensors)

left f8 [24, 9]
000000 32 1e 4f 59 8b a1 e0 3f 0d d6 be 7f 08 aa e3 3f
       0.5197197670285674 0.6145060057667152
000010 fc 90 63 99 10 0f d7 3f c5 d9 91 2b 0a 76 e9 3f
       0.3602944848955898 0.7956591464015267
000020 7e 82 25 4d d0 f3 d1 3f d9 20 e9 2a 00 88 e8 3f
       0.280506205881501 0.766601642427328
000030 b8 f0 37 0b 8f 11 ea 3f 01 ad c1 2f 62 4e e2 3f
       0.814643403922239 0.5720683033700028
000040 aa fc aa b1 97 5d d0 3f a0 65 a6 df 04 76 c7 3f
       0.255712436202837 0.1832891552010496
000050 0c cb de 54 62 a4 e2 3f ee 56 a2 db c5 c7 d8 3f
       0.58256641937473 0.38719316910406476
000060 56 63 0b 6e 7d 80 d6 3f 67 33 a9 f4 d9 5f e8 3f
       0.3515924048093003 0.7617006090673443
000070 3e d1 a5 1a 8d 39 e7 3f f7 fe 78 cb 4f ee ee 3f
       0.7257752914870605 0.9665907835078248
000080 60 32 d2 ec 8a 70 9f 3f 10 74 fe 86 04 60 c2 3f
       0.03070275373879594 0.14355522719861868
000090 56 a3 9f f9 80 f3 e1 3f 26 e3 86 bd ca 46 e4 3f
       0.5609745860539117 0.6336415960023245
0000a0 08 38 56 6c f3 77 ce 3f 30 22 3a a1 d0 ad bb 3f
       0.23803561010248608 0.10812095581253156
0000b0 28 7f 00 1e 01 40 d4 3f 54 91 75 6e a2 0b ea 3f
       0.31640651636006334 0.8139202268035128
0000c0 18 35 54 44 01 87 de 3f 08 92 a3 b0 7c 61 cd 3f
       0.4769900481486089 0.22953756928394875
0000d0 60 99 7a ba fb 5e d4 3f 10 c4 b3 c3 7b d5 ac 3f
       0.3182973214228664 0.056316249503545746
0000e0 8a 47 6b 26 7d 92 de 3f 1f 95 c5 1e 8b 40 e3 3f
       0.4776909709154259 0.6016288376819466
0000f0 90 16 77 9c f3 7a ab 3f 9d 61 91 1f d7 0e eb 3f
       0.05367242131209793 0.8455615631638015
000100 8c f9 bd 70 2c 47 d7 3f a0 03 d1 12 0a f4 d3 3f
       0.3637190915104831 0.31176997983498644
000110 84 ba 37 27 a5 d2 da 3f 38 db ea 91 37 6c d6 3f
       0.41910675840237155 0.35035504579302623
000120 44 1f 92 b6 aa 5d da 3f 5f a3 8c 85 3c 54 ef 3f
       0.41196697072199506 0.9790327652345744
000130 c6 e9 61 2f b7 9a e7 3f 26 b4 b0 36 bd 98 d9 3f
       0.7376361775816853 0.39994745579571356
000140 7c c0 4b b9 09 08 c0 3f 86 d6 0a eb 47 c5 d3 3f
       0.125245299793736 0.3089160724005996
000150 1a 78 8f 0a 3f b5 e0 3f 35 12 09 22 88 8f e2 3f
       0.5221247869737937 0.5800209679369518
000160 11 1c 5f 4b 20 67 e5 3f 4f 79 61 ed ec 61 ea 3f
       0.6688386413669624 0.824453796037952
000170 26 8a 10 a2 a1 52 db 3f e9 b9 3d 1b db c9 e9 3f
       0.4269184191381633 0.8058906108906828
000180 50 d9 e4 06 cd 89 d9 3f 8a 58 be 2f 24 45 e8 3f
       0.39903569863544863 0.7584401066294657
000190 e7 74 e7 d5 e4 49 ec 3f 1e 02 53 dd d2 34 e2 3f
       0.8840202501120559 0.5689482043017653
0001a0 60 29 b2 98 93 3c dd 3f 1c 3b f1 a6 48 62 c2 3f
       0.4568222991153075 0.1436243834636678
0001b0 ea 77 d6 0b cb ae db 3f 59 d0 bc e7 75 d3 e1 3f
       0.4325435271838375 0.5570630575298409
0001c0 00 a4 02 47 61 db 6b 3f d0 3c 92 d8 9d 74 b6 3f
       0.0034005069683940015 0.08771692788490104
0001d0 cc 58 aa 4c 3b 74 dc 3f 10 a4 c8 9b 6b 16 c8 3f
       0.44459421622140094 0.18818421465519508
0001e0 f0 3d 72 00 34 a1 ea 3f 18 54 11 ad 04 cf b7 3f
       0.8321781166759461 0.09300259804997812
0001f0 d8 9b 0d c2 ce 9b e4 3f 44 62 ef 75 49 3f e2 3f
       0.6440194883442656 0.570225458471278
000200 cb e4 b7 f7 3a 07 ed 3f 21 50 de 14 a1 c3 ed 3f
       0.9071326101540306 0.9301305205904137
000210 1a cb 01 b1 10 18 ea 3f 00 61 3d fe d4 fc 9c 3f
       0.8154376465957711 0.028308227555812415
000220 80 19 76 70 ce f9 ec 3f 4c ba f7 13 da 8d c3 3f
       0.9054939457426343 0.15276647543892563
000230 5b 9b ef 37 d9 fc ec 3f 89 6e d6 4c 1f 50 e5 3f
       0.9058652966021826 0.6660305500731322
000240 3a 0f e5 24 d4 84 da 3f de 9d 59 c9 74 11 ea 3f
       0.41435721972469575 0.8146308834665736
000250 f5 6a 00 a0 1a 29 e4 3f 84 29 ff f2 6d 17 de 3f
       0.6300175786048771 0.4701800225272097
000260 f0 ae db cd dd 09 a3 3f 8a a0 93 06 e4 6f dc 3f
       0.037184649829070326 0.4443292679047849
000270 7f ca a5 48 bd 38 e7 3f ae e0 92 b7 05 f2 e1 3f
       0.7256761950396394 0.5607937417435289
000280 aa e9 d4 56 bd 77 d4 3f 90 40 6e 7b b6 87 b5 3f
       0.3198083255735137 0.08410206330722958
000290 78 a8 7a 2b 11 c4 e0 3f 8d 5b 28 94 3e 47 e5 3f
       0.5239339684678859 0.664946832056431
0002a0 9c 5c 53 4c 71 be ce 3f 8f 3b c8 1b bb 44 eb 3f
       0.24018684603536122 0.8521400015468873
0002b0 d4 24 b3 50 67 d5 dd 3f cc 49 0c 0d 2d 38 cb 3f
       0.466150120552425 0.21265185486897875
0002c0 1f ae 03 8c 1f ca e7 3f 58 7e 80 4c ab 23 ba 3f
       0.7434232458740019 0.1021067678234372
0002d0 4e ad ac d0 a8 80 d9 3f 80 69 bf 90 ab f3 d2 3f
       0.39847774866457975 0.2961224473525803
0002e0 ec 09 3b cb 10 0b ce 3f f8 95 ed f4 ff 0d b3 3f
       0.23471269534464 0.07443237046899032
0002f0 ab 91 cb 1b 39 bf e5 3f 61 3f 12 ad 41 fd ef 3f
       0.6795926611780961 0.9996651058481626
000300 e0 4f 45 93 65 ad e7 3f 3e c1 fc e2 4f 0a ec 3f
       0.7399165989286267 0.8762587960573354
000310 6e e9 50 14 08 42 e4 3f 06 10 03 52 d1 27 d1 3f
       0.6330604931638797 0.268055276956375
000320 ee 74 8a 1d 3c 8e da 3f c2 98 35 92 f2 3e d0 3f
       0.4149313248143035 0.25384201315172217
000330 fc 06 0f 99 22 4d e3 3f 5e 5b ae 97 df e5 da 3f
       0.6031659116199246 0.42028035938840513
000340 76 b8 55 7d 74 e2 dc 3f fc 85 0b 36 3c 50 ea 3f
       0.45132171859484715 0.8222943358961738
000350 a0 b6 bf e5 0e 97 ca 3f 63 1f 09 a7 24 32 eb 3f
       0.2077349302120881 0.8498709928908109
000360 7e 2d 8c 31 12 b8 ef 3f 70 4f 1c e9 82 4f a5 3f
       0.991219612858387 0.04162224860752317
000370 85 21 86 1f 0d f1 ec 3f c8 d1 48 e3 9f df c7 3f
       0.9044252029134873 0.18651198003648362
000380 78 d8 55 32 a1 4b d7 3f cb 10 83 e0 07 be e4 3f
       0.3639910689884185 0.6481971154212486
000390 b2 ce cd aa 10 52 d4 3f f0 45 a8 2f d2 1c b9 3f
       0.3175088565833263 0.09809602416523666
0003a0 69 6d e7 3d 01 78 ea 3f 64 f5 c1 ac 01 0f e9 3f
       0.8271490296423681 0.7830818533108581
0003b0 66 8d b2 bb c1 09 d0 3f 80 84 e0 6b 20 2d 8c 3f
       0.2505955059989077 0.013757947246690216
0003c0 54 90 3e 84 59 5c ed 3f 48 db 12 91 33 e1 da 3f
       0.9175231535814512 0.4199952046141573
0003d0 52 88 fb 58 54 7e ef 3f b2 96 c4 f2 d4 3e e4 3f
       0.984171079439202 0.6326699010430359
0003e0 c4 85 dc 97 15 fa ce 3f d6 43 a0 6b 9f 77 de 3f
       0.24200696864231308 0.47605119238238325
0003f0 c7 6e c1 d9 37 4f e9 3f b8 08 b6 49 d9 bd c6 3f
       0.7909201863326069 0.17766872500584951
000400 20 c4 82 aa 23 be ad 3f 99 1a b9 c4 59 97 ec 3f
       0.058091272892291324 0.8934754221198374
000410 e4 c4 70 10 ff b5 e1 3f 07 2e d9 81 1e 43 e2 3f
       0.5534663506606674 0.5706932579136613
000420 14 5d 68 90 ba c5 ca 3f d7 7e ef f4 06 18 ec 3f
       0.20915920306354308 0.8779330047509245
000430 26 0d b7 89 b8 a9 e5 3f 8c 98 6a 78 ac 60 cc 3f
       0.6769678773638688 0.221700247571054
000440 6b 9e 30 ce 8e 09 e7 3f 0a a7 70 96 50 b2 ee 3f
       0.7199167277476141 0.9592669428140834
000450 d9 2b 28 7b 5c 4f e1 3f 9f ee 8d 3f f4 58 ea 3f
       0.5409376531036926 0.823358654145938
000460 f8 af c3 c0 7f ec c4 3f f8 de 0d ab 83 17 e4 3f
       0.16346737778019338 0.6278704014684697
000470 f9 62 c2 03 5d 68 ed 3f 7c 9a 99 df e8 1b e4 3f
       0.9189896653579971 0.6284069411456836
000480 2f 07 ae fc 77 58 e5 3f ed 92 65 ea e2 fb e4 3f
       0.6670494017746246 0.6557478502332664
000490 71 16 2c fd 72 18 ed 3f 51 dc b2 42 9e b0 e4 3f
       0.9092345185060379 0.6465598395069582
0004a0 74 ac ab 54 68 00 c7 3f f8 b8 fb 13 e3 48 c8 3f
       0.17969993719393396 0.1897243354391731
0004b0 e2 18 8c cf 67 01 e3 3f a6 e3 48 fb 03 8d d6 3f
       0.5939215711266821 0.3523569063141231
0004c0 3c d1 2c 80 67 09 dc 3f 9e 4e c0 6d dd ab da 3f
       0.4380739928922315 0.4167398044385012
0004d0 2c 82 a1 bf ce 56 cc 3f b8 3c 57 84 ee c9 be 3f
       0.22139915806748556 0.12026873332000576
0004e0 8d cb e9 c3 9d f8 eb 3f d8 18 9a e0 68 66 c7 3f
       0.8740986658507254 0.18281279532329253
0004f0 2a 62 94 5e 69 70 e5 3f 76 79 41 2d 9b a5 d8 3f
       0.6699721190698871 0.3851077978087213
000500 d7 de 2c 0e 4b 66 ea 3f c0 1d 0f 3d 4a 28 d3 3f
       0.824986961065373 0.299334106090523
000510 66 7a 13 b2 ca 16 e8 3f f9 3b 05 d5 ee 34 e1 3f
       0.7527821996735156 0.5377115402751534
000520 4b d8 ca 9f ee 47 ed 3f 80 33 51 9d f3 9b 94 3f
       0.9150307770676219 0.020126158215407752
000530 f8 e0 4d e4 47 ed dc 3f c0 04 38 06 37 46 8d 3f
       0.4519824723752346 0.014294080617221261
000540 f4 03 57 e7 e2 c6 cf 3f b8 52 b0 95 91 61 e9 3f
       0.248257029494226 0.7931602405174862
000550 0c 3b ea f0 76 24 e4 3f 0f 30 ce 68 e2 83 e3 3f
       0.6294512467737561 0.6098491713505626
000560 d0 c5 cf d6 44 4c da 3f 74 3e 00 79 35 77 e3 3f
       0.41090508439728257 0.6083018649387228
000570 c6 40 65 26 04 bc e3 3f 38 47 c5 69 3b 96 d8 3f
       0.6167011976158612 0.38416943864023123
000580 a4 38 74 86 c7 15 eb 3f d6 cf dc 59 55 29 e9 3f
       0.8464086175970533 0.7862955813529833
000590 40 8c 09 b0 82 e9 b6 3f 98 8a 51 c3 ba b5 e3 3f
       0.0895005874422603 0.6159337820830215
0005a0 50 0f f9 aa 4d 6b c0 3f 78 f2 64 84 c9 2a d6 3f
       0.12827463959012642 0.34636152199872283
0005b0 a4 fa d9 9f a8 29 ca 3f 6f 37 1d 6a 2f 66 ee 3f
       0.20439632230041582 0.9499737808743997
0005c0 90 2f e2 77 df 63 aa 3f b1 c8 db ed 7e 6e e4 3f
       0.05154321993276689 0.6384882589029727
0005d0 f6 84 f3 16 4d 91 e2 3f 10 66 e2 0d 6f d5 a4 3f
       0.5802369545237116 0.04069087070929467
0005e0 0b 70 f3 fb 63 02 ed 3f 3d cb f3 50 c2 a7 ec 3f
       0.9065418167988367 0.8954783993816374
0005f0 34 0b 5d dd 2f e2 c5 3f 3e 33 98 a4 97 93 de 3f
       0.170965178573249 0.47775832246479755
000600 7a e4 b5 40 c5 86 d8 3f c8 e5 d6 8c 77 67 d3 3f
       0.3832257396639488 0.3031901240716164
000610 f6 6c 9c 0d ae e4 e1 3f 06 71 b6 2f ed 09 d0 3f
       0.5591650262680605 0.2506058660453764
000620 a8 2b 8d c0 24 5c d2 3f 22 c2 7f ae b0 82 eb 3f
       0.2868739967713574 0.8597033889946639
000630 04 46 31 23 10 90 e1 3f b8 56 4e 1a 19 16 e0 3f
       0.5488358199456234 0.5026975168027183
000640 b9 9e 26 a9 e2 9a eb 3f 78 62 29 d7 a2 df b8 3f
       0.8626569083907817 0.09716241600961861
000650 70 b8 5d 0b 4c ce a8 3f e6 ea d0 6f c6 3f d9 3f
       0.048448921573126635 0.3945175258592556
000660 7a ac fb e9 a9 5f d0 3f 74 ea ad 00 82 85 ec 3f
       0.25583885049736177 0.8912973416584706
000670 60 b5 05 19 ab cf b6 3f 3d 7d 0c e1 0d 62 e5 3f
       0.08910626755615203 0.6682195086940862
000680 c4 22 3d 3f d2 d5 d7 3f f4 c1 73 b5 cc 00 ca 3f
       0.3724256150785943 0.20314940319032326
000690 a0 d6 4a e5 17 3c db 3f 0c 77 17 37 a0 ac c1 3f
       0.42554280654744936 0.13808062257788156
0006a0 ac 45 72 70 74 33 d9 3f b4 0b 3f 72 f6 1c c7 3f
       0.3937655542477738 0.18057137087279573
0006b0 50 2c 49 fb 49 d3 e4 3f 92 83 12 f1 9d 71 e6 3f
       0.6507921131063856 0.7013692577785255

left_grad f8 [24, 9]
000000 0c 93 bf 67 05 94 1a 40 de f8 4b 68 05 92 1b 40
       6.644551869457029 6.892598752629253
000010 6a 07 31 c7 8d a6 1d 40 b3 81 f5 65 6f 04 21 40
       7.412650215499392 8.508662401408264
000020 9a cd 40 14 51 7c 22 40 9c 70 1a b9 eb c8 20 40
       9.242806084547556 8.392423424222493
000030 db 92 15 45 66 fc 17 40 35 79 ea ca 89 58 23 40
       5.996483878556968 9.672926274416207
000040 13 89 09 b3 d4 b0 1e 40 0c 93 bf 67 05 94 1a 40
       7.672686383683202 6.644551869457029
000050 de f8 4b 68 05 92 1b 40 6a 07 31 c7 8d a6 1d 40
       6.892598752629253 7.412650215499392
000060 b3 81 f5 65 6f 04 21 40 9a cd 40 14 51 7c 22 40
       8.508662401408264 9.242806084547556
000070 9c 70 1a b9 eb c8 20 40 db 92 15 45 66 fc 17 40
       8.392423424222493 5.996483878556968
000080 35 79 ea ca 89 58 23 40 13 89 09 b3 d4 b0 1e 40
       9.672926274416207 7.672686383683202
000090 0c 93 bf 67 05 94 1a 40 de f8 4b 68 05 92 1b 40
       6.644551869457029 6.892598752629253
0000a0 6a 07 31 c7 8d a6 1d 40 b3 81 f5 65 6f 04 21 40
       7.412650215499392 8.508662401408264
0000b0 9a cd 40 14 51 7c 22 40 9c 70 1a b9 eb c8 20 40
       9.242806084547556 8.392423424222493
0000c0 db 92 15 45 66 fc 17 40 35 79 ea ca 89 58 23 40
       5.996483878556968 9.672926274416207
0000d0 13 89 09 b3 d4 b0 1e 40 0c 93 bf 67 05 94 1a 40
       7.672686383683202 6.644551869457029
0000e0 de f8 4b 68 05 92 1b 40 6a 07 31 c7 8d a6 1d 40
       6.892598752629253 7.412650215499392
0000f0 b3 81 f5 65 6f 04 21 40 9a cd 40 14 51 7c 22 40
       8.508662401408264 9.242806084547556
000100 9c 70 1a b9 eb c8 20 40 db 92 15 45 66 fc 17 40
       8.392423424222493 5.996483878556968
000110 35 79 ea ca 89 58 23 40 13 89 09 b3 d4 b0 1e 40
       9.672926274416207 7.672686383683202
000120 0c 93 bf 67 05 94 1a 40 de f8 4b 68 05 92 1b 40
       6.644551869457029 6.892598752629253
000130 6a 07 31 c7 8d a6 1d 40 b3 81 f5 65 6f 04 21 40
       7.412650215499392 8.508662401408264
000140 9a cd 40 14 51 7c 22 40 9c 70 1a b9 eb c8 20 40
       9.242806084547556 8.392423424222493
000150 db 92 15 45 66 fc 17 40 35 79 ea ca 89 58 23 40
       5.996483878556968 9.672926274416207
000160 13 89 09 b3 d4 b0 1e 40 0c 93 bf 67 05 94 1a 40
       7.672686383683202 6.644551869457029
000170 de f8 4b 68 05 92 1b 40 6a 07 31 c7 8d a6 1d 40
       6.892598752629253 7.412650215499392
000180 b3 81 f5 65 6f 04 21 40 9a cd 40 14 51 7c 22 40
       8.508662401408264 9.242806084547556
000190 9c 70 1a b9 eb c8 20 40 db 92 15 45 66 fc 17 40
       8.392423424222493 5.996483878556968
0001a0 35 79 ea ca 89 58 23 40 13 89 09 b3 d4 b0 1e 40
       9.672926274416207 7.672686383683202
0001b0 0c 93 bf 67 05 94 1a 40 de f8 4b 68 05 92 1b 40
       6.644551869457029 6.892598752629253
0001c0 6a 07 31 c7 8d a6 1d 40 b3 81 f5 65 6f 04 21 40
       7.412650215499392 8.508662401408264
0001d0 9a cd 40 14 51 7c 22 40 9c 70 1a b9 eb c8 20 40
       9.242806084547556 8.392423424222493
0001e0 db 92 15 45 66 fc 17 40 35 79 ea ca 89 58 23 40
       5.996483878556968 9.672926274416207
0001f0 13 89 09 b3 d4 b0 1e 40 0c 93 bf 67 05 94 1a 40
       7.672686383683202 6.644551869457029
000200 de f8 4b 68 05 92 1b 40 6a 07 31 c7 8d a6 1d 40
       6.892598752629253 7.412650215499392
000210 b3 81 f5 65 6f 04 21 40 9a cd 40 14 51 7c 22 40
       8.508662401408264 9.242806084547556
000220 9c 70 1a b9 eb c8 20 40 db 92 15 45 66 fc 17 40
       8.392423424222493 5.996483878556968
000230 35 79 ea ca 89 58 23 40 13 89 09 b3 d4 b0 1e 40
       9.672926274416207 7.672686383683202
000240 0c 93 bf 67 05 94 1a 40 de f8 4b 68 05 92 1b 40
       6.644551869457029 6.892598752629253
000250 6a 07 31 c7 8d a6 1d 40 b3 81 f5 65 6f 04 21 40
       7.412650215499392 8.508662401408264
000260 9a cd 40 14 51 7c 22 40 9c 70 1a b9 eb c8 20 40
       9.242806084547556 8.392423424222493
000270 db 92 15 45 66 fc 17 40 35 79 ea ca 89 58 23 40
       5.996483878556968 9.672926274416207
000280 13 89 09 b3 d4 b0 1e 40 0c 93 bf 67 05 94 1a 40
       7.672686383683202 6.644551869457029
000290 de f8 4b 68 05 92 1b 40 6a 07 31 c7 8d a6 1d 40
       6.892598752629253 7.412650215499392
0002a0 b3 81 f5 65 6f 04 21 40 9a cd 40 14 51 7c 22 40
       8.508662401408264 9.242806084547556
0002b0 9c 70 1a b9 eb c8 20 40 db 92 15 45 66 fc 17 40
       8.392423424222493 5.996483878556968
0002c0 35 79 ea ca 89 58 23 40 13 89 09 b3 d4 b0 1e 40
       9.672926274416207 7.672686383683202
0002d0 0c 93 bf 67 05 94 1a 40 de f8 4b 68 05 92 1b 40
       6.644551869457029 6.892598752629253
0002e0 6a 07 31 c7 8d a6 1d 40 b3 81 f5 65 6f 04 21 40
       7.412650215499392 8.508662401408264
0002f0 9a cd 40 14 51 7c 22 40 9c 70 1a b9 eb c8 20 40
       9.242806084547556 8.392423424222493
000300 db 92 15 45 66 fc 17 40 35 79 ea ca 89 58 23 40
       5.996483878556968 9.672926274416207
000310 13 89 09 b3 d4 b0 1e 40 0c 93 bf 67 05 94 1a 40
       7.672686383683202 6.644551869457029
000320 de f8 4b 68 05 92 1b 40 6a 07 31 c7 8d a6 1d 40
       6.892598752629253 7.412650215499392
000330 b3 81 f5 65 6f 04 21 40 9a cd 40 14 51 7c 22 40
       8.508662401408264 9.242806084547556
000340 9c 70 1a b9 eb c8 20 40 db 92 15 45 66 fc 17 40
       8.392423424222493 5.996483878556968
000350 35 79 ea ca 89 58 23 40 13 89 09 b3 d4 b0 1e 40
       9.672926274416207 7.672686383683202
000360 0c 93 bf 67 05 94 1a 40 de f8 4b 68 05 92 1b 40
       6.644551869457029 6.892598752629253
000370 6a 07 31 c7 8d a6 1d 40 b3 81 f5 65 6f 04 21 40
       7.412650215499392 8.508662401408264
000380 9a cd 40 14 51 7c 22 40 9c 70 1a b9 eb c8 20 40
       9.242806084547556 8.392423424222493
000390 db 92 15 45 66 fc 17 40 35 79 ea ca 89 58 23 40
       5.996483878556968 9.672926274416207
0003a0 13 89 09 b3 d4 b0 1e 40 0c 93 bf 67 05 94 1a 40
       7.672686383683202 6.644551869457029
0003b0 de f8 4b 68 05 92 1b 40 6a 07 31 c7 8d a6 1d 40
       6.892598752629253 7.412650215499392
0003c0 b3 81 f5 65 6f 04 21 40 9a cd 40 14 51 7c 22 40
       8.508662401408264 9.242806084547556
0003d0 9c 70 1a b9 eb c8 20 40 db 92 15 45 66 fc 17 40
       8.392423424222493 5.996483878556968
0003e0 35 79 ea ca 89 58 23 40 13 89 09 b3 d4 b0 1e 40
       9.672926274416207 7.672686383683202
0003f0 0c 93 bf 67 05 94 1a 40 de f8 4b 68 05 92 1b 40
       6.644551869457029 6.892598752629253
000400 6a 07 31 c7 8d a6 1d 40 b3 81 f5 65 6f 04 21 40
       7.412650215499392 8.508662401408264
000410 9a cd 40 14 51 7c 22 40 9c 70 1a b9 eb c8 20 40
       9.242806084547556 8.392423424222493
000420 db 92 15 45 66 fc 17 40 35 79 ea ca 89 58 23 40
       5.996483878556968 9.672926274416207
000430 13 89 09 b3 d4 b0 1e 40 0c 93 bf 67 05 94 1a 40
       7.672686383683202 6.644551869457029
000440 de f8 4b 68 05 92 1b 40 6a 07 31 c7 8d a6 1d 40
       6.892598752629253 7.412650215499392
000450 b3 81 f5 65 6f 04 21 40 9a cd 40 14 51 7c 22 40
       8.508662401408264 9.242806084547556
000460 9c 70 1a b9 eb c8 20 40 db 92 15 45 66 fc 17 40
       8.392423424222493 5.996483878556968
000470 35 79 ea ca 89 58 23 40 13 89 09 b3 d4 b0 1e 40
       9.672926274416207 7.672686383683202
000480 0c 93 bf 67 05 94 1a 40 de f8 4b 68 05 92 1b 40
       6.644551869457029 6.892598752629253
000490 6a 07 31 c7 8d a6 1d 40 b3 81 f5 65 6f 04 21 40
       7.412650215499392 8.508662401408264
0004a0 9a cd 40 14 51 7c 22 40 9c 70 1a b9 eb c8 20 40
       9.242806084547556 8.392423424222493
0004b0 db 92 15 45 66 fc 17 40 35 79 ea ca 89 58 23 40
       5.996483878556968 9.672926274416207
0004c0 13 89 09 b3 d4 b0 1e 40 0c 93 bf 67 05 94 1a 40
       7.672686383683202 6.644551869457029
0004d0 de f8 4b 68 05 92 1b 40 6a 07 31 c7 8d a6 1d 40
       6.892598752629253 7.412650215499392
0004e0 b3 81 f5 65 6f 04 21 40 9a cd 40 14 51 7c 22 40
       8.508662401408264 9.242806084547556
0004f0 9c 70 1a b9 eb c8 20 40 db 92 15 45 66 fc 17 40
       8.392423424222493 5.996483878556968
000500 35 79 ea ca 89 58 23 40 13 89 09 b3 d4 b0 1e 40
       9.672926274416207 7.672686383683202
000510 0c 93 bf 67 05 94 1a 40 de f8 4b 68 05 92 1b 40
       6.644551869457029 6.892598752629253
000520 6a 07 31 c7 8d a6 1d 40 b3 81 f5 65 6f 04 21 40
       7.412650215499392 8.508662401408264
000530 9a cd 40 14 51 7c 22 40 9c 70 1a b9 eb c8 20 40
       9.242806084547556 8.392423424222493
000540 db 92 15 45 66 fc 17 40 35 79 ea ca 89 58 23 40
       5.996483878556968 9.672926274416207
000550 13 89 09 b3 d4 b0 1e 40 0c 93 bf 67 05 94 1a 40
       7.672686383683202 6.644551869457029
000560 de f8 4b 68 05 92 1b 40 6a 07 31 c7 8d a6 1d 40
       6.892598752629253 7.412650215499392
000570 b3 81 f5 65 6f 04 21 40 9a cd 40 14 51 7c 22 40
       8.508662401408264 9.242806084547556
000580 9c 70 1a b9 eb c8 20 40 db 92 15 45 66 fc 17 40
       8.392423424222493 5.996483878556968
000590 35 79 ea ca 89 58 23 40 13 89 09 b3 d4 b0 1e 40
       9.672926274416207 7.672686383683202
0005a0 0c 93 bf 67 05 94 1a 40 de f8 4b 68 05 92 1b 40
       6.644551869457029 6.892598752629253
0005b0 6a 07 31 c7 8d a6 1d 40 b3 81 f5 65 6f 04 21 40
       7.412650215499392 8.508662401408264
0005c0 9a cd 40 14 51 7c 22 40 9c 70 1a b9 eb c8 20 40
       9.242806084547556 8.392423424222493
0005d0 db 92 15 45 66 fc 17 40 35 79 ea ca 89 58 23 40
       5.996483878556968 9.672926274416207
0005e0 13 89 09 b3 d4 b0 1e 40 0c 93 bf 67 05 94 1a 40
       7.672686383683202 6.644551869457029
0005f0 de f8 4b 68 05 92 1b 40 6a 07 31 c7 8d a6 1d 40
       6.892598752629253 7.412650215499392
000600 b3 81 f5 65 6f 04 21 40 9a cd 40 14 51 7c 22 40
       8.508662401408264 9.242806084547556
000610 9c 70 1a b9 eb c8 20 40 db 92 15 45 66 fc 17 40
       8.392423424222493 5.996483878556968
000620 35 79 ea ca 89 58 23 40 13 89 09 b3 d4 b0 1e 40
       9.672926274416207 7.672686383683202
000630 0c 93 bf 67 05 94 1a 40 de f8 4b 68 05 92 1b 40
       6.644551869457029 6.892598752629253
000640 6a 07 31 c7 8d a6 1d 40 b3 81 f5 65 6f 04 21 40
       7.412650215499392 8.508662401408264
000650 9a cd 40 14 51 7c 22 40 9c 70 1a b9 eb c8 20 40
       9.242806084547556 8.392423424222493
000660 db 92 15 45 66 fc 17 40 35 79 ea ca 89 58 23 40
       5.996483878556968 9.672926274416207
000670 13 89 09 b3 d4 b0 1e 40 0c 93 bf 67 05 94 1a 40
       7.672686383683202 6.644551869457029
000680 de f8 4b 68 05 92 1b 40 6a 07 31 c7 8d a6 1d 40
       6.892598752629253 7.412650215499392
000690 b3 81 f5 65 6f 04 21 40 9a cd 40 14 51 7c 22 40
       8.508662401408264 9.242806084547556
0006a0 9c 70 1a b9 eb c8 20 40 db 92 15 45 66 fc 17 40
       8.392423424222493 5.996483878556968
0006b0 35 79 ea ca 89 58 23 40 13 89 09 b3 d4 b0 1e 40
       9.672926274416207 7.672686383683202

result f8 [24, 16]
000000 8b 90 35 f3 4e 1d 09 40 e7 ef 5d 5d 97 7d 05 40
       3.13931074149338 2.68632386153148
000010 59 ec f7 9b d4 63 05 40 a6 03 15 06 b3 e2 03 40
       2.6737453637156645 2.4856930232203522
000020 24 f3 f6 e2 05 b5 04 40 de 89 5f 22 b6 3d 04 40
       2.588390134011563 2.5301325498014497
000030 ab 5f fe 09 28 f3 05 40 f7 ad 96 fc 0e b2 f8 3f
       2.743728712153787 1.543471323656261
000040 82 17 de 1d 87 23 02 40 c1 17 5c b7 3b 03 00 40
       2.26734755834599 2.001578743455838
000050 55 1f 9a 05 87 bd 08 40 7a fb d7 de 22 9d 01 40
       3.0925426900538846 2.2017266664183213
000060 5c ca 07 1c ab f8 04 40 d9 41 24 b7 73 f7 01 40
       2.6214201154592 2.2458261783542466
000070 93 0d c6 ba 85 47 fa 3f ef 1b 5a d0 04 95 00 40
       1.6424615188451284 2.072763087987816
000080 4a 54 d1 cd a4 a7 01 40 15 21 86 e2 c6 d7 01 40
       2.2068573073870867 2.230359811514186
000090 c5 03 04 33 2b 57 01 40 55 51 31 b6 7c 5a 00 40
       2.1675628648376652 2.0441831811714715
0000a0 27 f3 cc ed 97 61 01 40 93 2d 3b d7 ff 85 04 40
       2.172653062645981 2.5654293837485027
0000b0 ef d0 a8 9d 33 45 ff 3f 51 35 5b b3 6d 37 fa 3f
       1.9543949278423118 1.6385323530297067
0000c0 e6 85 8c 84 ce f5 f9 3f 1f b6 82 e8 93 58 f5 3f
       1.6225114038173785 1.3341254312939623
0000d0 f6 51 b7 c8 92 be 02 40 79 b8 f9 7e 35 bc f9 3f
       2.343053405851829 1.60844945525926
0000e0 2f 0b 15 fe bc 10 02 40 70 6b 3a 3d bd cd 01 40
       2.2581729746028922 2.2254586013272544
0000f0 8f 17 76 54 67 54 f4 3f 05 5a ed b5 a6 74 fc 3f
       1.27060635559744 1.7784793001679884
000100 aa db e9 3d eb 7c 02 40 f8 d5 e7 ae 50 13 ff 3f
       2.3109955632202928 1.9422156173944796
000110 55 c6 25 0e 80 4d 01 40 94 5c 23 ec cc 18 f7 3f
       2.162841902282518 1.4435548042436368
000120 96 cb dc 55 3a 51 ff 3f 6f 57 76 73 10 ff 01 40
       1.9573310235980208 2.2495430965890857
000130 ce 54 b8 77 1b d8 fd 3f c7 a6 6c ae ad 34 f2 3f
       1.8652605701984615 1.1378609479383373
000140 07 e9 65 fa db e9 f9 3f a3 67 a3 c8 d0 bb f2 3f
       1.619594553105857 1.1708534085687254
000150 93 ec 6c 5a 4a 32 01 40 3b 64 3f 75 54 14 f8 3f
       2.149555880021191 1.5049633579240111
000160 8b 37 8a 8b 76 e9 ff 3f 06 1f 92 f0 0a f7 fd 3f
       1.994497819021009 1.8728131673141788
000170 ee 4e 3b a1 a6 1a f7 3f ab 9a fc 76 e4 b3 f3 3f
       1.4440065668213111 1.2314190528792703
000180 db d1 0b d0 e7 ce fb 3f 86 84 ab fc eb db 01 40
       1.738014042549472 2.2323837032168425
000190 10 6c 0e 0b 15 8a 01 40 fd d3 63 9c a9 c9 f9 3f
       2.1924229491974145 1.611734019182449
0001a0 19 e0 be 74 5d 45 04 40 c1 b8 c7 62 5b 71 01 40
       2.5338696594954055 2.180350085945151
0001b0 45 ae ad a3 19 e0 f9 3f 39 42 1f ce 2d ef f7 3f
       1.6172119516076162 1.4958932925839135
0001c0 ed d1 7f 70 8f 11 f8 3f b1 af 37 da 67 a4 f0 3f
       1.5042871851447857 1.0401381038782171
0001d0 e5 9b ed fc 64 ad 00 40 37 b0 67 f5 cc 83 fc 3f
       2.0846652755749226 1.782177885640534
0001e0 83 98 2d 41 4d 8b fc 3f 58 39 92 d4 02 79 fb 3f
       1.7840092226047382 1.7170437148630153
0001f0 2d d2 2f 94 b1 06 f5 3f 5e 07 ca 3f 88 bf f3 3f
       1.3141341961428552 1.2342607967152257
000200 ef 91 fc 01 28 bb 04 40 f5 22 43 7a d1 aa 05 40
       2.591384902496649 2.7084073592890214
000210 01 6e 50 f3 69 44 05 40 6f 63 cd d2 35 79 fd 3f
       2.658405209438343 1.842092345663527
000220 d1 ba ea 96 75 e2 07 40 76 52 03 9a 30 ca 03 40
       2.9855758467086635 2.473725512720473
000230 7e 9b 98 ee ba 35 02 40 ce 6f 93 ab c6 d2 fa 3f
       2.276235450775345 1.6764589979347764
000240 a6 a4 d1 ff 38 ea fe 3f 0f 33 e6 f2 20 01 fd 3f
       1.9321832650114543 1.81277556307322
000250 1c c0 c1 55 22 6d 05 40 a1 31 e1 20 1d 2a 03 40
       2.678288145041746 2.3955633705829347
000260 bb 4f 56 c2 c1 2d 01 40 99 f3 56 e7 c7 a1 00 40
       2.1473422224607623 2.078994567242671
000270 e2 b2 cb ea db b8 fb 3f 51 0e 37 f5 54 d5 ff 3f
       1.73263160435743 1.9895829752648704
000280 06 36 61 fd 6f 7f 09 40 ca e2 b5 a1 07 39 06 40
       3.1872253222743465 2.777846587527482
000290 8c 38 80 9a 72 27 09 40 75 6b 67 c3 7e 3f 03 40
       3.1442615576152715 2.4060035005508618
0002a0 69 2d 04 93 a8 5a 08 40 1d 9d 16 08 da f3 05 40
       3.044266842427238 2.744068206014744
0002b0 f6 11 18 31 47 f5 05 40 30 37 78 07 87 04 fe 3f
       2.744764693781913 1.8761053363591138
0002c0 fa a1 53 e0 b5 02 06 40 1c 2c 9f ef 21 09 f9 3f
       2.7513234639666253 1.5647296295380846
0002d0 b4 5e e5 3f ec fe 09 40 03 53 c0 83 bf 93 03 40
       3.249474047839465 2.447142628962298
0002e0 39 04 11 9a c8 75 08 40 3a 37 77 fc ce a7 03 40
       3.0575115238612196 2.456937763584304
0002f0 5e 73 49 c1 8c 18 ff 3f 6a 2f 0d 3e a7 19 fc 3f
       1.9434936094541722 1.7562630103957084
000300 14 d2 f7 6a 6e 65 fa 3f a3 bd 9b d6 7a e1 f8 3f
       1.649763505786841 1.555048788370052
000310 a2 9e 56 10 ac 9f fc 3f 31 7a f9 ec 9a 37 f5 3f
       1.7889824522225486 1.3260754830186097
000320 a9 5d 6d 2b ea b1 fd 3f 4e fa 98 e1 a9 fd 00 40
       1.8559362121940046 2.123859179001818
000330 15 23 98 ea 2b 36 f4 3f fb 25 65 a5 19 08 f1 3f
       1.2632254756774206 1.0644775830027118
000340 8d ee bc f1 2d 65 ee 3f 0d 6d 7f 96 22 3c f2 3f
       0.9498510095067602 1.1396814230745946
000350 23 9f 3d c0 c6 f6 fa 3f 4e 4d 2c 6f 71 e9 f4 3f
       1.6852481374170984 1.3069929449746556
000360 23 61 69 c8 4e 0e f6 3f ca 64 1d a5 e2 dd 00 40
       1.378493101938212 2.1083424472422836
000370 23 d5 5e 88 c5 43 f5 3f c3 0a 64 99 d1 ad f7 3f
       1.329045803734808 1.4799362174823478
000380 bc ad f5 f2 12 16 0e 40 f4 bc 48 3d f9 07 0d 40
       3.760778329966085 3.628893355161944
000390 b0 b3 13 3e b0 6d 0c 40 c5 bd 62 54 51 4d 03 40
       3.553558812118773 2.4127527802117776
0003a0 45 98 69 d0 cc d6 0c 40 a1 a6 6d ef a6 23 07 40
       3.604882839415071 2.8924082475030706
0003b0 e5 0a 17 47 f9 3c 0a 40 75 fd 62 40 00 6e fc 3f
       3.2797723344714194 1.7768557086090742
0003c0 ad 3c 05 aa a3 fb 06 40 1d 5d e4 5f aa dd 00 40
       2.872870758328267 2.108235119968994
0003d0 df a5 74 70 91 1c 0d 40 9b 3c 5c 4a d9 21 09 40
       3.6389492784116864 3.141527729930727
0003e0 5c 66 3c e6 60 e7 08 40 3a 4a 2e d4 82 e9 01 40
       3.112977789610154 2.239019067442567
0003f0 39 06 b9 08 6f 26 02 40 70 30 7a 7c aa da 01 40
       2.268766468187803 2.231770489195746
000400 3c 27 f7 95 87 3f 04 40 d3 9f 23 e5 1b bf 02 40
       2.531020328145045 2.3433149243828466
000410 b3 e6 b3 f2 72 5f 02 40 f3 0c 93 da 6d 32 ff 3f
       2.296605964770458 1.949811796003641
000420 2e 32 e3 ce ba f3 03 40 06 d0 b1 dd 3e 70 01 40
       2.4940086520275804 2.179807407368574
000430 3b 41 0a 2f 21 6a 02 40 2b 6e 3f 79 8d dd f8 3f
       2.301821105480625 1.5540899978867724
000440 aa e4 c9 13 e4 74 ff 3f a4 7c cb a4 84 b6 fd 3f
       1.9660378239625893 1.8570600926684984
000450 f8 bb e1 f4 1f 88 04 40 54 73 2b ab ec 90 00 40
       2.5664672023190143 2.070763909591202
000460 f5 a8 ad b0 40 99 00 40 7c ef cd 35 5d cf fd 3f
       2.074830417918856 1.8631260015235673
000470 7d e7 a5 94 9f ea f6 3f 7a 9d 8f 03 c9 c3 fd 3f
       1.4322810942234974 1.860299123678344
000480 e3 85 a1 1f f3 98 01 40 4b 97 7d 43 1b a6 04 40
       2.19968247138671 2.5811066887571648
000490 c3 88 32 24 b2 72 03 40 1a 16 a8 55 30 2f 00 40
       2.4310038402482816 2.023041409675682
0004a0 41 00 44 ef fb 56 06 40 29 c6 af 6c db 7f 01 40
       2.792472714674688 2.187430237878989
0004b0 15 ee a3 e7 fd e9 00 40 81 65 7c 1f fd 77 fa 3f
       2.1142538163092106 1.6542941312712574
0004c0 d4 39 22 22 b4 20 ff 3f 62 08 12 43 ce 86 f6 3f
       1.9454842885348755 1.4079115505160407
0004d0 54 d1 91 d8 e9 d8 04 40 8c 11 9f 8b 9d 1a 00 40
       2.6059147758007075 2.0129958064955584
0004e0 7d 60 14 10 34 c8 00 40 3e f6 c3 e0 d4 6e f9 3f
       2.097755551931242 1.5895584850217257
0004f0 9a 8e de cf aa dd f4 3f b6 00 d4 76 50 bd f3 3f
       1.304117977132512 1.2337193147396142
000500 84 62 59 2c 30 7b 07 40 ba b7 2c c6 5a ab 05 40
       2.935150476911362 2.708669231643367
000510 ab dd 81 fc de 66 08 40 08 f0 95 73 ed 5d 03 40
       3.0502300002223897 2.4208630590565043
000520 26 71 5a 48 bd 86 08 40 c9 f7 83 81 63 d0 08 40
       3.0657907154656128 3.101752292480317
000530 a6 e4 0b 95 9e f0 04 40 0e d8 8c ec 64 a3 f6 3f
       2.6174899715666298 1.4148911705247005
000540 46 d2 6c 1a 2b 81 02 40 3a a5 fe 26 c7 ea fb 3f
       2.3130704941234255 1.7448188327055747
000550 7b 70 d7 a1 ef 98 07 40 8b d1 37 90 46 af 02 40
       2.9496758121368294 2.335583807662436
000560 39 12 40 2c 35 f4 02 40 ff 0c e3 38 26 0a 05 40
       2.369242044167802 2.6299557155886073
000570 0b b2 54 75 de 63 01 40 ac 58 76 51 e1 c0 fa 3f
       2.173764149329377 1.672089880191872
000580 cb 35 7b c3 c4 7a 02 40 f2 45 96 ba 92 e2 02 40
       2.3099456092811343 2.360631425581908
000590 0b 4b cd 94 ae 51 03 40 f3 0c b2 83 ba dd fe 3f
       2.4148837685728544 1.9291329521518576
0005a0 f5 66 5b 7d 0c 9f 03 40 50 d0 04 4b 16 5a 04 40
       2.452660540916322 2.5439878331035644
0005b0 bd 34 54 d4 a7 9c fe 3f 6f 3b 6a 2c 2c 3f f4 3f
       1.9132459920977418 1.2654229865035764
0005c0 88 cb 91 7c be a5 f7 3f 8f 68 b6 79 e2 41 f6 3f
       1.4779648653027113 1.391085124435026
0005d0 38 77 52 26 57 62 02 40 e1 7c a6 45 e0 4b 00 40
       2.298017787353185 2.037048858779244
0005e0 d6 50 ee 28 5a 4f 00 40 3f 1d 83 f1 19 a1 03 40
       2.0387461850860786 2.453662764371671
0005f0 cf 9a c9 31 c5 01 fc 3f 9f a2 a1 e4 da 35 01 40
       1.7504321999382915 2.151296411688534
000600 67 ed e6 4b 08 a6 03 40 a2 b9 9f 6f 2d a5 00 40
       2.456070511803478 2.080653068601536
000610 c9 f9 1e 80 35 d4 06 40 75 30 ea 0d d5 95 f6 3f
       2.8536176690533677 1.411580137591071
000620 49 62 9c 68 ae 41 05 40 43 d1 f2 e3 60 5e 02 40
       2.6570709393238627 2.2960832413174628
000630 e8 93 25 f2 fe 71 fe 3f 9e e2 5f ff 2d fe f3 3f
       1.9028310259684478 1.249555585438578
000640 71 5e b8 59 b0 b6 01 40 6c 1c 85 22 2d 88 e7 3f
       2.2142035493268897 0.7353730844705644
000650 a9 cc 1f 35 28 f1 01 40 7c 3d 28 a0 c8 ec 02 40
       2.24275247100157 2.365617037990601
000660 7b 8f 2f 7f c7 6d 03 40 a7 e5 08 87 56 36 03 40
       2.4286031662358574 2.4015322255697416
000670 9d 01 91 01 79 d9 01 40 05 c2 6d d7 a8 41 fa 3f
       2.2311878321053897 1.641030160444758
000680 76 46 99 5c 99 d5 09 40 3a 68 f7 80 13 f7 03 40
       3.2292964205051318 2.495642669248835
000690 28 67 b5 77 12 1e 06 40 c4 1e 03 c9 0a 0e 02 40
       2.7646836616740025 2.2568565086438372
0006a0 42 d3 8c 19 53 e3 01 40 95 d1 79 0c cd 6c 04 40
       2.235998344049592 2.553125474422084
0006b0 5b eb fd 56 5f 2e 04 40 55 d5 54 34 60 92 f1 3f
       2.5226427837600744 1.098236278933958
0006c0 e4 c8 4c 7c f2 b0 00 40 39 83 5a ff ba 90 f7 3f
       2.0864000044758644 1.4728345846890092
0006d0 68 f5 c1 6d 76 6e 07 40 9c 82 04 0c e1 22 00 40
       2.9289368223968957 2.017030805480614
0006e0 e9 8f e0 37 07 3c 06 40 2a 76 92 ac 61 eb 03 40
       2.7793106427579812 2.4899323923298384
0006f0 d5 0d 72 a3 5b 0d fe 3f fe 44 b6 a2 03 58 ff 3f
       1.8782612213698162 1.958987842172348
000700 88 c9 ca e8 13 7c 0a 40 1f e7 d0 3f 1c af 06 40
       3.310584849060607 2.8355030999781685
000710 5e d6 40 f4 c4 f8 08 40 7f 92 ec c9 b6 4b 03 40
       3.1214694101607128 2.4119697356530305
000720 c2 49 1e d9 1a 80 07 40 d9 30 fc 0f 3d 67 03 40
       2.937551208721943 2.425409436115029
000730 23 b0 e8 9b ee 52 05 40 b7 0f 12 18 07 d0 f1 3f
       2.665494173086715 1.1132880153900098
000740 c0 2f 2b 3c 43 36 02 40 6a 6f 7a 39 c1 8a fb 3f
       2.2764954281501275 1.7213756795162802
000750 58 6b 72 25 5f 1e 0a 40 fd cf fe 08 3a c6 03 40
       3.2648299146216395 2.4717903807413664
000760 23 71 b7 0c 36 d8 04 40 79 c6 8c 37 81 a2 02 40
       2.605571841572002 2.3293480243526656
000770 34 49 24 18 ba c3 00 40 4e 30 93 6d e8 5a fc 3f
       2.0955697904656976 1.7721943168899261
000780 2d 70 70 fe e0 0a 07 40 ec c7 8f 3e b3 45 0b 40
       2.8803119543136035 3.4090332877758467
000790 e6 21 c7 cd cc 58 0a 40 0c 97 80 00 8a c1 05 40
       3.293359382285632 2.7195014991037905
0007a0 7a cf b0 ad e2 97 0f 40 a8 ac d2 c2 33 86 07 40
       3.9491628236373204 2.9405284138243424
0007b0 5b 24 44 c0 1e c9 05 40 7c 66 df 0e 73 da 01 40
       2.7232031842036526 2.231664768402707
0007c0 82 4c d8 b6 d1 93 03 40 ff e6 e2 74 0e ed 00 40
       2.4471773419150518 2.1157502300019355
0007d0 58 ab bb a7 66 2b 0b 40 e2 b1 3f 30 1e 2e 08 40
       3.3961918930194024 3.0225185174406173
0007e0 24 70 01 1b 1d f2 04 40 51 c6 b1 88 81 43 04 40
       2.6182195768178804 2.532961910176518
0007f0 7c 0f dc a5 ae 05 00 40 eb dc 6b af d5 97 02 40
       2.002774520662511 2.324138040999619

right f8 [9, 16]
000000 0c b7 a0 44 6e 18 ec 3f e0 4a e7 a0 e2 d8 a4 3f
       0.8779822674166282 0.040717203275240754
000010 05 5c 16 6e e3 b9 e5 3f 7c cc e5 7c 9d ea c4 3f
       0.678941454901065 0.16340988729971062
000020 aa bc 02 18 24 8c d6 3f 64 ca 2c 1b 4c d0 c9 3f
       0.3523035273055465 0.20166922881033422
000030 ec 0d dc 53 62 a3 dc 3f 88 a0 a2 63 f5 dd c0 3f
       0.4474721735898288 0.1317736374378493
000040 ae bc cc df 52 84 e6 3f 70 ef 96 b9 00 0d c9 3f
       0.7036527987564989 0.19570931493751287
000050 9e 22 bd 12 c8 c7 e5 3f 00 d1 2a 92 7e 63 d5 3f
       0.6806373945228932 0.33419765733857787
000060 c5 65 85 61 64 75 e5 3f 39 dc 53 f1 a7 69 e2 3f
       0.6705800919254946 0.5753974641255645
000070 d7 f3 ba d1 7e 66 e1 3f c0 3f 12 dc ad ba a7 3f
       0.5437616440100282 0.04634612380425507
000080 45 0b 12 3b 5e 0f e3 3f 64 f2 bf 08 95 43 ea 3f
       0.5956259874077224 0.8207497759718305
000090 52 59 47 82 71 62 dc 3f d8 48 c1 39 bc b8 c4 3f
       0.443508507943439 0.16188767261571146
0000a0 e8 45 f7 12 3a 80 e2 3f 27 43 3e b8 2e bc e6 3f
       0.5781526918819369 0.7104714964390028
0000b0 50 6a 05 91 b0 67 db 3f 97 e0 7c ca 93 a7 e2 3f
       0.4282037178251459 0.582956214412678
0000c0 b0 f0 d8 a0 61 e2 a6 3f 77 09 bd 1c 3a 33 e3 3f
       0.04469590271443857 0.600003296022165
0000d0 35 c6 25 a2 b7 2a e5 3f c0 9f bb 97 c5 a0 cb 3f
       0.6614645163483092 0.215843867386182
0000e0 8c aa 4e 06 ca f4 db 3f 0e 96 3b 19 c5 a5 d0 3f
       0.4368157445520999 0.26011779274117053
0000f0 e0 6a bb d9 e2 b3 a2 3f d8 1b 09 a9 58 32 d4 3f
       0.03652867229330581 0.31557289607411354
000100 70 9a a2 44 7f 10 cc 3f e3 38 78 f1 25 42 e1 3f
       0.21925345279051411 0.5393247333720662
000110 0d 23 7a e7 1f 29 e2 3f 4c 5a e2 a7 38 40 d0 3f
       0.5675200959240968 0.25391975779476605
000120 3f 76 4f fc 5c 8f eb 3f c0 aa cf ca 46 51 cd 3f
       0.8612503936707937 0.22904286291971765
000130 32 47 6a 0b ae 38 da 3f f6 83 dc 32 e3 29 e6 3f
       0.4097094642139495 0.6926132195841308
000140 2e 41 20 1b 4a 55 e9 3f 80 bd 5c 5d 2c b9 a9 3f
       0.7916613130383092 0.050240885159264614
000150 e2 56 18 32 5f a2 d7 3f ce 43 65 cc 14 27 eb 3f
       0.36928539173218955 0.8485206596470733
000160 9e 0f 22 6d 2e b7 e2 3f 58 e6 c2 99 3c e9 c7 3f
       0.584861004972925 0.18680531986119564
000170 b8 97 02 e9 39 ee d5 3f 82 e3 d6 0a 8f d2 dd 3f
       0.3426651740541007 0.4659764867642978
000180 79 8f dc ea 43 7c eb 3f 54 bd a7 d0 c7 32 ea 3f
       0.8589191043033529 0.8186987948701394
000190 0a da 8d b1 c8 3f de 3f 4e e2 a2 0b d5 ae e8 3f
       0.47264306391971955 0.771341822363931
0001a0 fa e9 5c 1f e2 f5 d5 3f 7c 14 e4 6a 3f 82 c1 3f
       0.3431325250891458 0.1367873451164633
0001b0 d9 2a 6e e7 9a 03 e6 3f 6c 52 c4 84 69 17 ca 3f
       0.6879400749324659 0.20383948309667532
0001c0 1c e3 b9 f4 b3 e7 d7 3f d0 86 d6 14 a5 be dc 3f
       0.3735170259383709 0.4491360381599465
0001d0 dc 6b 70 05 3b 28 eb 3f 83 7e b4 6b 3c 9c e1 3f
       0.8486609560235325 0.5503217795957912
0001e0 88 ac dd 54 ad ca e9 3f ee f6 27 84 05 17 d0 3f
       0.8059908540284519 0.2514051237666156
0001f0 c0 76 4f f8 1a b5 bd 3f 5f 8f 7a a0 c3 3f ea 3f
       0.11604469835534825 0.8202837118483152
000200 02 c2 7b 9f e6 27 dc 3f 97 a7 bc 83 16 93 ea 3f
       0.43993535589746113 0.8304550717341382
000210 79 b5 98 21 05 b7 ea 3f a0 20 08 aa b5 fb e5 3f
       0.8348413139516843 0.686976272671945
000220 b1 fc 38 19 79 3c ee 3f 8a f1 05 5f d9 c0 eb 3f
       0.9448819630269069 0.867291150657864
000230 ce b3 82 2c d0 a7 d4 3f b4 99 23 f8 c3 e2 e3 3f
       0.32274250361188883 0.6214313360658736
000240 24 d5 72 b5 77 00 d5 3f 58 7e 7d be b1 d3 b0 3f
       0.3281535407980576 0.06573019886627074
000250 23 b4 00 34 05 a5 e9 3f b4 9b 59 ce 88 52 db 3f
       0.8013940826109586 0.42691249991770097
000260 e4 55 57 42 0c d2 e7 3f e6 dc 58 9e bc 38 e8 3f
       0.7443906112409278 0.7569258778302383
000270 c0 f1 9d 95 4c 01 d7 3f b0 44 5f 14 8d 0b cb 3f
       0.3594542943099235 0.21129001135571945
000280 ca 03 bc 49 93 d4 ed 3f f2 f7 73 04 b1 4a e5 3f
       0.9321991386533395 0.6653676115963647
000290 c4 5a 99 bb 49 86 e6 3f 74 38 f1 7e b8 f1 d9 3f
       0.703892580417993 0.40537845989900423
0002a0 c2 12 e3 df 9b 8a d1 3f d9 e7 d6 d2 25 e0 eb 3f
       0.27408501495328264 0.8711117856939793
0002b0 c8 f4 e0 ab d2 2b e9 3f 78 bf de 2c f1 50 b1 3f
       0.7865994793898148 0.06764132829152725
0002c0 f5 db 5d 86 81 5f e5 3f 70 d6 25 01 0b e0 b5 3f
       0.6679084419582738 0.08544987466833631
0002d0 e1 7e 91 88 79 12 e3 3f 0e 34 1c 1b 04 a3 d5 3f
       0.5960052172995028 0.33807470939137907
0002e0 a4 72 a5 f8 08 58 eb 3f b4 65 20 7c 45 13 dd 3f
       0.8544964653370539 0.45430123445256787
0002f0 13 5c 36 d4 4c b9 e0 3f 34 9f 46 b2 d6 69 c5 3f
       0.5226196427128137 0.16729243950725847
000300 c8 73 ef 1e b2 0a ce 3f c0 63 d0 c8 32 bc 8e 3f
       0.2347014094401898 0.015007397416455848
000310 30 fd 67 1a 91 2e bd 3f 15 96 d0 4f ba 25 e7 3f
       0.11399180311854162 0.7233554419405573
000320 d4 e0 08 f9 e5 ad cf 3f b9 d1 3e 6b 14 12 e2 3f
       0.24749445590874208 0.5647070021282651
000330 14 10 9b 3f 8f c3 d7 3f 5c 4a e2 ee f4 c7 da 3f
       0.3713110085629989 0.41845439270506346
000340 fe b3 79 33 12 c9 d1 3f 7c 85 6b 0f 0d d1 e4 3f
       0.2778974058808784 0.6505189229175552
000350 3e ab a9 63 75 0d d3 3f 8c 63 50 8c 2b c8 c9 3f
       0.2976964448231917 0.20142120696325738
000360 3c 6a 31 99 97 8c c3 3f 0a 14 5b 6f a8 47 e9 3f
       0.15272803287628445 0.7899973082463714
000370 a4 cb 32 56 fd eb c6 3f f6 bb aa f8 8e 42 e8 3f
       0.17907683094889848 0.7581248146797168
000380 1a f3 db 2e 78 64 e8 3f 54 1e 5b 53 0c 9d e5 3f
       0.7622643389910053 0.6754209163709199
000390 84 ff 48 a2 0c 8d e5 3f c8 81 ea a5 20 6a eb 3f
       0.6734679383880438 0.8567050209567748
0003a0 fd d4 0e fc a9 4e ef 3f 5a 84 b5 89 fa 13 d6 3f
       0.9783525393492308 0.3449694008650731
0003b0 f8 62 50 8b 7f 4c ed 3f 68 0e eb b7 c4 99 ce 3f
       0.915588161561657 0.2390676401174574
0003c0 57 64 db 24 73 a1 e9 3f d2 2e e6 ec 54 27 ee 3f
       0.8009582252372053 0.9423012377678452
0003d0 4d 11 8a 21 3d 65 ee 3f e7 86 65 b2 20 df e6 3f
       0.9498582511010142 0.7147372707661049
0003e0 a0 de 98 20 9c af c8 3f f8 06 8d 61 62 49 c1 3f
       0.19285918800027435 0.13505201113917287
0003f0 48 aa 8f 99 23 9e d9 3f 50 48 2e b8 dc 4e b7 3f
       0.4002770423527733 0.09104709145165768
000400 84 b9 20 c6 23 59 d6 3f 08 d9 3f bb c0 b4 e5 3f
       0.34919065807744 0.6783145577635716
000410 41 a0 4d 4f 65 04 eb 3f 90 1a 4b 3c 99 81 aa 3f
       0.8442865895167487 0.05177000866892911
000420 fb ba 41 7c 9c cf ec 3f 90 47 a6 01 8c a5 ec 3f
       0.9003431727304297 0.8952083618371365
000430 c4 c9 9e e5 8d a4 c0 3f 00 73 19 ab ac 3c 73 3f
       0.1300217982475954 0.004696535573739835
000440 c0 0b e5 3c da cd 88 3f c0 77 44 c2 91 0c 86 3f
       0.012111382468566023 0.010766161671707297
000450 2c ff 8a 95 0b 40 cc 3f 6e c8 9b e3 ec 04 e9 3f
       0.2207045059385505 0.7818512387732548
000460 60 49 5f 80 d5 f4 ca 3f 7c fb 25 c0 71 ce ed 3f
       0.21059674041914445 0.9314507248781037
000470 11 1c 00 82 bd b1 ee 3f d7 c0 0a ab 50 26 e6 3f
       0.9591968096800675 0.6921771374382172

right_grad f8 [9, 16]
000000 fb ac 35 2e b3 65 28 40 fb ac 35 2e b3 65 28 40
       12.198632663776598 12.198632663776598
000010 fb ac 35 2e b3 65 28 40 fb ac 35 2e b3 65 28 40
       12.198632663776598 12.198632663776598
000020 fb ac 35 2e b3 65 28 40 fb ac 35 2e b3 65 28 40
       12.198632663776598 12.198632663776598
000030 fb ac 35 2e b3 65 28 40 fb ac 35 2e b3 65 28 40
       12.198632663776598 12.198632663776598
000040 fb ac 35 2e b3 65 28 40 fb ac 35 2e b3 65 28 40
       12.198632663776598 12.198632663776598
000050 fb ac 35 2e b3 65 28 40 fb ac 35 2e b3 65 28 40
       12.198632663776598 12.198632663776598
000060 fb ac 35 2e b3 65 28 40 fb ac 35 2e b3 65 28 40
       12.198632663776598 12.198632663776598
000070 fb ac 35 2e b3 65 28 40 fb ac 35 2e b3 65 28 40
       12.198632663776598 12.198632663776598
000080 e0 7d 29 52 ba 45 27 40 e0 7d 29 52 ba 45 27 40
       11.636187141003518 11.636187141003518
000090 e0 7d 29 52 ba 45 27 40 e0 7d 29 52 ba 45 27 40
       11.636187141003518 11.636187141003518
0000a0 e0 7d 29 52 ba 45 27 40 e0 7d 29 52 ba 45 27 40
       11.636187141003518 11.636187141003518
0000b0 e0 7d 29 52 ba 45 27 40 e0 7d 29 52 ba 45 27 40
       11.636187141003518 11.636187141003518
0000c0 e0 7d 29 52 ba 45 27 40 e0 7d 29 52 ba 45 27 40
       11.636187141003518 11.636187141003518
0000d0 e0 7d 29 52 ba 45 27 40 e0 7d 29 52 ba 45 27 40
       11.636187141003518 11.636187141003518
0000e0 e0 7d 29 52 ba 45 27 40 e0 7d 29 52 ba 45 27 40
       11.636187141003518 11.636187141003518
0000f0 e0 7d 29 52 ba 45 27 40 e0 7d 29 52 ba 45 27 40
       11.636187141003518 11.636187141003518
000100 62 c1 ec dc 0a 2b 28 40 62 c1 ec dc 0a 2b 28 40
       12.084067253018194 12.084067253018194
000110 62 c1 ec dc 0a 2b 28 40 62 c1 ec dc 0a 2b 28 40
       12.084067253018194 12.084067253018194
000120 62 c1 ec dc 0a 2b 28 40 62 c1 ec dc 0a 2b 28 40
       12.084067253018194 12.084067253018194
000130 62 c1 ec dc 0a 2b 28 40 62 c1 ec dc 0a 2b 28 40
       12.084067253018194 12.084067253018194
000140 62 c1 ec dc 0a 2b 28 40 62 c1 ec dc 0a 2b 28 40
       12.084067253018194 12.084067253018194
000150 62 c1 ec dc 0a 2b 28 40 62 c1 ec dc 0a 2b 28 40
       12.084067253018194 12.084067253018194
000160 62 c1 ec dc 0a 2b 28 40 62 c1 ec dc 0a 2b 28 40
       12.084067253018194 12.084067253018194
000170 62 c1 ec dc 0a 2b 28 40 62 c1 ec dc 0a 2b 28 40
       12.084067253018194 12.084067253018194
000180 ef 77 e8 b7 e7 e6 25 40 ef 77 e8 b7 e7 e6 25 40
       10.95098662102461 10.95098662102461
000190 ef 77 e8 b7 e7 e6 25 40 ef 77 e8 b7 e7 e6 25 40
       10.95098662102461 10.95098662102461
0001a0 ef 77 e8 b7 e7 e6 25 40 ef 77 e8 b7 e7 e6 25 40
       10.95098662102461 10.95098662102461
0001b0 ef 77 e8 b7 e7 e6 25 40 ef 77 e8 b7 e7 e6 25 40
       10.95098662102461 10.95098662102461
0001c0 ef 77 e8 b7 e7 e6 25 40 ef 77 e8 b7 e7 e6 25 40
       10.95098662102461 10.95098662102461
0001d0 ef 77 e8 b7 e7 e6 25 40 ef 77 e8 b7 e7 e6 25 40
       10.95098662102461 10.95098662102461
0001e0 ef 77 e8 b7 e7 e6 25 40 ef 77 e8 b7 e7 e6 25 40
       10.95098662102461 10.95098662102461
0001f0 ef 77 e8 b7 e7 e6 25 40 ef 77 e8 b7 e7 e6 25 40
       10.95098662102461 10.95098662102461
000200 db 20 8e 0c c2 e6 22 40 db 20 8e 0c c2 e6 22 40
       9.450699226712848 9.450699226712848
000210 db 20 8e 0c c2 e6 22 40 db 20 8e 0c c2 e6 22 40
       9.450699226712848 9.450699226712848
000220 db 20 8e 0c c2 e6 22 40 db 20 8e 0c c2 e6 22 40
       9.450699226712848 9.450699226712848
000230 db 20 8e 0c c2 e6 22 40 db 20 8e 0c c2 e6 22 40
       9.450699226712848 9.450699226712848
000240 db 20 8e 0c c2 e6 22 40 db 20 8e 0c c2 e6 22 40
       9.450699226712848 9.450699226712848
000250 db 20 8e 0c c2 e6 22 40 db 20 8e 0c c2 e6 22 40
       9.450699226712848 9.450699226712848
000260 db 20 8e 0c c2 e6 22 40 db 20 8e 0c c2 e6 22 40
       9.450699226712848 9.450699226712848
000270 db 20 8e 0c c2 e6 22 40 db 20 8e 0c c2 e6 22 40
       9.450699226712848 9.450699226712848
000280 b4 c0 3d 14 2c c8 2a 40 b4 c0 3d 14 2c c8 2a 40
       13.390961296594789 13.390961296594789
000290 b4 c0 3d 14 2c c8 2a 40 b4 c0 3d 14 2c c8 2a 40
       13.390961296594789 13.390961296594789
0002a0 b4 c0 3d 14 2c c8 2a 40 b4 c0 3d 14 2c c8 2a 40
       13.390961296594789 13.390961296594789
0002b0 b4 c0 3d 14 2c c8 2a 40 b4 c0 3d 14 2c c8 2a 40
       13.390961296594789 13.390961296594789
0002c0 b4 c0 3d 14 2c c8 2a 40 b4 c0 3d 14 2c c8 2a 40
       13.390961296594789 13.390961296594789
0002d0 b4 c0 3d 14 2c c8 2a 40 b4 c0 3d 14 2c c8 2a 40
       13.390961296594789 13.390961296594789
0002e0 b4 c0 3d 14 2c c8 2a 40 b4 c0 3d 14 2c c8 2a 40
       13.390961296594789 13.390961296594789
0002f0 b4 c0 3d 14 2c c8 2a 40 b4 c0 3d 14 2c c8 2a 40
       13.390961296594789 13.390961296594789
000300 6f f1 65 49 df 6d 28 40 6f f1 65 49 df 6d 28 40
       12.214594167417742 12.214594167417742
000310 6f f1 65 49 df 6d 28 40 6f f1 65 49 df 6d 28 40
       12.214594167417742 12.214594167417742
000320 6f f1 65 49 df 6d 28 40 6f f1 65 49 df 6d 28 40
       12.214594167417742 12.214594167417742
000330 6f f1 65 49 df 6d 28 40 6f f1 65 49 df 6d 28 40
       12.214594167417742 12.214594167417742
000340 6f f1 65 49 df 6d 28 40 6f f1 65 49 df 6d 28 40
       12.214594167417742 12.214594167417742
000350 6f f1 65 49 df 6d 28 40 6f f1 65 49 df 6d 28 40
       12.214594167417742 12.214594167417742
000360 6f f1 65 49 df 6d 28 40 6f f1 65 49 df 6d 28 40
       12.214594167417742 12.214594167417742
000370 6f f1 65 49 df 6d 28 40 6f f1 65 49 df 6d 28 40
       12.214594167417742 12.214594167417742
000380 e9 0d c2 4c ea 7b 27 40 e9 0d c2 4c ea 7b 27 40
       11.742021940887712 11.742021940887712
000390 e9 0d c2 4c ea 7b 27 40 e9 0d c2 4c ea 7b 27 40
       11.742021940887712 11.742021940887712
0003a0 e9 0d c2 4c ea 7b 27 40 e9 0d c2 4c ea 7b 27 40
       11.742021940887712 11.742021940887712
0003b0 e9 0d c2 4c ea 7b 27 40 e9 0d c2 4c ea 7b 27 40
       11.742021940887712 11.742021940887712
0003c0 e9 0d c2 4c ea 7b 27 40 e9 0d c2 4c ea 7b 27 40
       11.742021940887712 11.742021940887712
0003d0 e9 0d c2 4c ea 7b 27 40 e9 0d c2 4c ea 7b 27 40
       11.742021940887712 11.742021940887712
0003e0 e9 0d c2 4c ea 7b 27 40 e9 0d c2 4c ea 7b 27 40
       11.742021940887712 11.742021940887712
0003f0 e9 0d c2 4c ea 7b 27 40 e9 0d c2 4c ea 7b 27 40
       11.742021940887712 11.742021940887712
000400 8d 43 3a ce 9a 7c 28 40 8d 43 3a ce 9a 7c 28 40
       12.243368572819032 12.243368572819032
000410 8d 43 3a ce 9a 7c 28 40 8d 43 3a ce 9a 7c 28 40
       12.243368572819032 12.243368572819032
000420 8d 43 3a ce 9a 7c 28 40 8d 43 3a ce 9a 7c 28 40
       12.243368572819032 12.243368572819032
000430 8d 43 3a ce 9a 7c 28 40 8d 43 3a ce 9a 7c 28 40
       12.243368572819032 12.243368572819032
000440 8d 43 3a ce 9a 7c 28 40 8d 43 3a ce 9a 7c 28 40
       12.243368572819032 12.243368572819032
000450 8d 43 3a ce 9a 7c 28 40 8d 43 3a ce 9a 7c 28 40
       12.243368572819032 12.243368572819032
000460 8d 43 3a ce 9a 7c 28 40 8d 43 3a ce 9a 7c 28 40
       12.243368572819032 12.243368572819032
000470 8d 43 3a ce 9a 7c 28 40 8d 43 3a ce 9a 7c 28 40
       12.243368572819032 12.243368572819032
