src/Sci.NET.Mathematics.IntegrationTests/Tensors/LinearAlgebra/Examples/MatrixMultiply_1.safetensors (safetensors, 556 bytes, 5 tensors)

left f4 [3, 4]
0	0x3f35f7cb	0.7108123
1	0x3f592427	0.8482079
2	0x3dc9dbb8	0.09856361
3	0x3cd85720	0.026408732
4	0x3f6fbea0	0.93650246
5	0x3f67abf2	0.9049674
6	0x3eeb26fc	0.4592818
7	0x3f3b4f8c	0.73168254
8	0x3f2a7721	0.66588026
9	0x3e1dcd30	0.15410304
10	0x3f427a33	0.7596771
11	0x3f3ded0b	0.74189824

left_grad f4 [3, 4]
0	0x4005b3d1	2.0891001
1	0x40290c70	2.6413841
2	0x3fa92a82	1.3216097
3	0x3f97763e	1.183296
4	0x4005b3d1	2.0891001
5	0x40290c70	2.6413841
6	0x3fa92a82	1.3216097
7	0x3f97763e	1.183296
8	0x4005b3d1	2.0891001
9	0x40290c70	2.6413841
10	0x3fa92a82	1.3216097
11	0x3f97763e	1.183296

result f4 [3, 3]
0	0x3fc4c1a4	1.5371594
1	0x3fa7d9bd	1.3113323
2	0x3f84eafd	1.0384213
3	0x400ca164	2.1973505
4	0x3ffe9ed8	1.9892225
5	0x3fd1071b	1.6330293
6	0x3fbe1fb5	1.4853426
7	0x3fa41a9e	1.2820623
8	0x3f69a0fe	0.9126128

right f4 [4, 3]
0	0x3f7588b9	0.9591175
1	0x3f5d6c3c	0.8649328
2	0x3e87b4a2	0.26505
3	0x3f69eae3	0.91374034
4	0x3f44c3ac	0.7686107
5	0x3f758332	0.95903313
6	0x3f45b791	0.77233225
7	0x3ea96c04	0.33090222
8	0x3e5f9dbc	0.21837515
9	0x3e247570	0.16060424
10	0x3ee815e2	0.45329195
11	0x3f11c430	0.56939983

right_grad f4 [4, 3]
0	0x40140b63	2.313195
1	0x40140b63	2.313195
2	0x40140b63	2.313195
3	0x3ff421b2	1.9072783
4	0x3ff421b2	1.9072783
5	0x3ff421b2	1.9072783
6	0x3fa8a494	1.3175225
7	0x3fa8a494	1.3175225
8	0x3fa8a494	1.3175225
9	0x3fbfffa8	1.4999895
10	0x3fbfffa8	1.4999895
11	0x3fbfffa8	1.4999895
