src/Sci.NET.Mathematics.IntegrationTests/Tensors/LinearAlgebra/Examples/MatrixMultiply_3.safetensors (safetensors, 5976 bytes, 5 tensors)

left f8 [16, 4]
00000000: c2cd a96a 786c e83f 62c1 6547 b70c e93f
00000010: b10d e56e 7c08 ed3f 4e95 7b13 dbec ea3f
00000020: d0de e868 fe81 a63f 808d aa1d 349a 733f
00000030: 2f38 d9c0 e910 e33f 6973 4de1 1aa5 e43f
00000040: 5b63 2d9a f802 e93f 006b 06cf d9d6 ee3f
00000050: 2139 7ca7 37d0 e03f 44a9 5069 31ed e83f
00000060: c0ba 109b 30e5 bb3f 8a17 9297 00b9 eb3f
00000070: f487 11d5 bbad d23f 3d56 9535 4d4a e63f
00000080: cbb3 a8c9 e6a7 e03f e5bb 5163 0d09 e73f
00000090: 274c 54f8 67ce e53f d689 0fa9 bf3e de3f
000000a0: a38c c6b7 ae8e e13f 0007 c6c8 0b27 6a3f
000000b0: 763d e3c9 b140 ef3f 48ef 8c24 ae95 e63f
000000c0: a063 9ebc 3441 d33f 8a41 1596 65cb ee3f
000000d0: e2c4 5eff 45a9 d13f b01a fa55 70e2 de3f
000000e0: 8011 3086 9c2d d83f 0025 2207 f45e 643f
000000f0: 5a73 c041 49cc d83f 815c d76c 7fd6 e33f
00000100: 105c da87 2763 e33f e8a7 b88e cd5b df3f
00000110: 4fdc ac6f 1379 e93f 3556 e4fb 0aba e03f
00000120: f8e3 0812 273e b33f 25fd 62c4 297a e53f
00000130: d4b1 f0ec 4fdc dd3f ff33 7295 126f e73f
00000140: feb7 c41e 2c53 df3f 8070 da51 54dc 993f
00000150: f05b 3216 3025 a13f cea3 eb21 6d8c e13f
00000160: 749f 55cd efd9 e73f b45f e298 9cfb d23f
00000170: be8e cacf 6125 eb3f e7ea bea9 a045 e93f
00000180: 11df c00e 4789 e73f 4316 bf41 b553 e33f
00000190: c657 d56c 342a d43f 00d3 9212 80de 623f
000001a0: c1b6 f15a b19a ed3f ac88 5d31 926b ce3f
000001b0: 3511 05f2 67b6 ee3f b62f ba0a d763 d03f
000001c0: 60a0 0dae 5e49 a73f 3e63 46a2 355e d73f
000001d0: e4a4 53d8 d895 c03f a402 9083 6a96 d03f
000001e0: 0e36 1a74 e531 d13f 88c7 7ac1 d2e8 dc3f
000001f0: 565c dc1c 6ff3 d33f 8e3e 901f 1212 e63f
0.763241012884855 0.7828022379381248 0.907285896865167 0.8414130573770906 0.043960523897508375 0.004785731866522425 0.5958145872662096 0.6451544189873007
0.7816126834178293 0.9637269061525728 0.5254171630092835 0.77895422524788 0.10896590982222687 0.8663332901348764 0.29185386474102804 0.6965700193929433
0.5204957903530326 0.7198550166921193 0.6814460611516368 0.47257987508615196 0.5486672963492264 0.003192446724086362 0.9766472762220662 0.7057715143086876
0.3008548585872237 0.9623287135419087 0.2759566301202324 0.48257072826565217 0.3777839003016865 0.0024866834801896553 0.38746863766737294 0.6199338079267279
0.6058538106325404 0.4899782079470456 0.7960297757298437 0.522710315681883 0.07516712370205869 0.6711624942471742 0.46657179011051864 0.7323086661214119
0.48945143704156624 0.0252545523604657 0.03348684569316862 0.5483918821820397 0.7453536043585545 0.2966071599016644 0.848313241808192 0.789749461683951
0.7355075157310883 0.6039682659254101 0.31507597568758816 0.0023033620278404277 0.9251333976987653 0.23765780840318962 0.9597663618992899 0.25609375045382465
0.04548164248154829 0.3651250920025183 0.12957296908215377 0.2591806683340485 0.2686704286396385 0.45171040434353715 0.3117330343097299 0.6897059074853631

left_grad f8 [16, 4]
00000000: 29a4 5a34 919a 2740 2199 8144 b14a 2a40
00000010: 0754 3557 da9e 2440 1c2d 470a df38 2640
00000020: 29a4 5a34 919a 2740 2199 8144 b14a 2a40
00000030: 0754 3557 da9e 2440 1c2d 470a df38 2640
00000040: 29a4 5a34 919a 2740 2199 8144 b14a 2a40
00000050: 0754 3557 da9e 2440 1c2d 470a df38 2640
00000060: 29a4 5a34 919a 2740 2199 8144 b14a 2a40
00000070: 0754 3557 da9e 2440 1c2d 470a df38 2640
00000080: 29a4 5a34 919a 2740 2199 8144 b14a 2a40
00000090: 0754 3557 da9e 2440 1c2d 470a df38 2640
000000a0: 29a4 5a34 919a 2740 2199 8144 b14a 2a40
000000b0: 0754 3557 da9e 2440 1c2d 470a df38 2640
000000c0: 29a4 5a34 919a 2740 2199 8144 b14a 2a40
000000d0: 0754 3557 da9e 2440 1c2d 470a df38 2640
000000e0: 29a4 5a34 919a 2740 2199 8144 b14a 2a40
000000f0: 0754 3557 da9e 2440 1c2d 470a df38 2640
00000100: 29a4 5a34 919a 2740 2199 8144 b14a 2a40
00000110: 0754 3557 da9e 2440 1c2d 470a df38 2640
00000120: 29a4 5a34 919a 2740 2199 8144 b14a 2a40
00000130: 0754 3557 da9e 2440 1c2d 470a df38 2640
00000140: 29a4 5a34 919a 2740 2199 8144 b14a 2a40
00000150: 0754 3557 da9e 2440 1c2d 470a df38 2640
00000160: 29a4 5a34 919a 2740 2199 8144 b14a 2a40
00000170: 0754 3557 da9e 2440 1c2d 470a df38 2640
00000180: 29a4 5a34 919a 2740 2199 8144 b14a 2a40
00000190: 0754 3557 da9e 2440 1c2d 470a df38 2640
000001a0: 29a4 5a34 919a 2740 2199 8144 b14a 2a40
000001b0: 0754 3557 da9e 2440 1c2d 470a df38 2640
000001c0: 29a4 5a34 919a 2740 2199 8144 b14a 2a40
000001d0: 0754 3557 da9e 2440 1c2d 470a df38 2640
000001e0: 29a4 5a34 919a 2740 2199 8144 b14a 2a40
000001f0: 0754 3557 da9e 2440 1c2d 470a df38 2640
11.801889072479826 13.145883694477165 10.310259557018083 11.111076661289694 11.801889072479826 13.145883694477165 10.310259557018083 11.111076661289694
11.801889072479826 13.145883694477165 10.310259557018083 11.111076661289694 11.801889072479826 13.145883694477165 10.310259557018083 11.111076661289694
11.801889072479826 13.145883694477165 10.310259557018083 11.111076661289694 11.801889072479826 13.145883694477165 10.310259557018083 11.111076661289694
11.801889072479826 13.145883694477165 10.310259557018083 11.111076661289694 11.801889072479826 13.145883694477165 10.310259557018083 11.111076661289694
11.801889072479826 13.145883694477165 10.310259557018083 11.111076661289694 11.801889072479826 13.145883694477165 10.310259557018083 11.111076661289694
11.801889072479826 13.145883694477165 10.310259557018083 11.111076661289694 11.801889072479826 13.145883694477165 10.310259557018083 11.111076661289694
11.801889072479826 13.145883694477165 10.310259557018083 11.111076661289694 11.801889072479826 13.145883694477165 10.310259557018083 11.111076661289694
11.801889072479826 13.145883694477165 10.310259557018083 11.111076661289694 11.801889072479826 13.145883694477165 10.310259557018083 11.111076661289694

result f8 [16, 24]
00000000: 062b 267c 2800 fe3f 2345 00ae ba1d f93f
00000010: c15d 2401 5c3b f53f 3dd3 2cf0 9a8c 0140
00000020: b276 1274 0d17 f33f 44cc 255d 5158 e93f
00000030: 0ec4 ec8a c490 f83f 56e0 6906 88df f83f
00000040: ab6c 6ca2 b5cb f03f eccb c061 463c fa3f
00000050: b2f0 e495 0e26 fa3f 292d 5706 86a8 f23f
00000060: 65fd 8018 7932 0240 2898 8dd0 298f 0340
00000070: d034 7bff 77f8 fb3f aac0 9de3 9664 fe3f
00000080: ffcf ead4 94e4 f43f 986c 6dd8 04cb f43f
00000090: eed9 c18f 297c e23f 1325 7ee8 bb5c 0040
000000a0: b4d1 e38d ab53 0140 f5b5 d1ab 5c21 f33f
000000b0: 0a3d f816 83ba fc3f e9cd a8f6 9d7f fb3f
000000c0: 85af 3684 4135 db3f f221 8ed9 a41f e53f
000000d0: 2b94 355e 52ad de3f 38f2 82c7 9696 f03f
000000e0: 9680 da4c b99e d63f fce7 56eb 4add d83f
000000f0: 284b 133a 73e1 e43f 8991 5116 3f3e e93f
00000100: 7b50 c2cd 3f7d c63f d8b4 75fc b2b2 ec3f
00000110: 47ae 25f8 4341 e13f 7e56 561b 2c5b e33f
00000120: a759 147b 5a0f f13f 49ef 8015 89e4 ec3f
00000130: e677 3484 ec16 e93f 4d46 3152 dfe7 e13f
00000140: 76ce 426f 8720 d63f d84b ed4a 4236 dc3f
00000150: 59bf 24f0 7b4f ab3f 8e65 74b4 aea2 e53f
00000160: 5245 69f3 d727 e73f 386d d406 fd1c d23f
00000170: 801e 3056 fc3e d83f 6c66 8178 0aaf e53f
00000180: e061 1a4d d0f5 ff3f aa63 abbb edd7 f83f
00000190: ef05 57ad f21e f43f eae7 a10e eb64 ff3f
000001a0: 998e 047b 2219 f13f 2029 5256 d223 e53f
000001b0: 9698 bda6 c303 f63f 9367 4ded b593 f53f
000001c0: 2436 ec16 b468 f03f 4dee ff56 b69c f73f
000001d0: 7226 2142 feb5 f63f bdfd 8cdc 2175 f03f
000001e0: 08c9 e301 dc5d 0040 ae1c 7d80 8c9e 0240
000001f0: 4a13 1ee1 a1b5 fa3f 8f35 98a9 110b fd3f
00000200: 9d11 d61d 2865 f43f 6c9b 58c4 1bfd f13f
00000210: 7192 ac87 cb42 e53f 4c96 32f9 b399 fd3f
00000220: 9266 f620 f37e 0140 b3fe 54cd 3c60 f33f
00000230: 96c2 a03b 5f53 fd3f e9aa cff6 aba6 fc3f
00000240: 5265 b044 0f2e f53f 85c2 ff2e a44c f33f
00000250: 1c7f 5f02 4017 ea3f 756a dd82 f658 f43f
00000260: 94c6 db93 5cb0 e03f 42cf 8254 b54d d53f
00000270: f5d3 fe27 acf4 e73f e9f9 dc1a 7d9b f03f
00000280: f2ff 8b11 b043 d53f 09dd 241e 9c69 f13f
00000290: 350a 90f0 432d e43f 0b0d ba72 d0d9 e93f
000002a0: 4f72 5e06 43a0 f73f db50 20be 82eb f83f
000002b0: 26f3 907c 5c99 f13f 7e56 8808 02a3 f33f
000002c0: 4f09 7c5c b966 ec3f d978 7d3e dd74 e03f
000002d0: 53b8 f1f9 b6e5 e03f a49f db8b fb25 f13f
000002e0: 4ced b173 59ba f83f e8d9 b7d5 8eb5 eb3f
000002f0: b5b8 aba2 07dc f13f f68b 4f9f bba7 f63f
00000300: 30bf 395f dbb2 f63f e4cd 1acc ae0a f23f
00000310: f08d 5a65 d333 ef3f 74d9 f149 2850 f83f
00000320: 2672 39f9 76d7 ec3f 7104 b800 b601 e13f
00000330: 1294 158d 3bdd f03f 91a8 ec92 5e24 f23f
00000340: 56bd 3ee7 7332 e83f 2d34 0beb f496 f13f
00000350: 8f1d 31eb 3940 f33f ab4e e6dc afce ea3f
00000360: ca25 7675 232c fa3f c1fc ae41 73bb fc3f
00000370: c012 54d3 bed8 f23f e142 ed66 52e7 f73f
00000380: 7651 5ad7 7fc0 f03f 8c53 956b f4a5 ee3f
00000390: 7774 cd85 88a6 df3f 6c97 4001 cfd5 f83f
000003a0: 9faa ee9c 9e87 f93f 83b2 ec44 15d2 ee3f
000003b0: 076f 43d0 b93d f63f 5c38 0543 1c89 f33f
000003c0: cca6 2ce9 6a12 ec3f 6ab5 2983 a06a ed3f
000003d0: 03c6 acf2 ec32 eb3f 7ebd 6c11 6998 fa3f
000003e0: dfd1 26ce 54f7 ea3f f841 32ee 1d5b e63f
000003f0: 1f67 ce65 bc36 f33f baec 06e8 02fd f13f
00000400: e878 11cb 6111 e73f a32c aed7 a803 f43f
00000410: 664f 21ad 0922 f43f 76c9 b73a a3ba ea3f
00000420: 7c8a c45c 72ab f93f 8c32 0a12 c3b6 f83f
00000430: ad71 1794 a0c1 f33f bfb2 4de1 fa0a f13f
00000440: d0e0 1653 346b e53f e528 7513 3506 f03f
00000450: e258 f4f2 5802 bf3f 8899 7083 fe15 f63f
00000460: d016 b414 851a f33f efdb bfc5 b993 e13f
00000470: 2420 d045 7158 ed3f 6156 d92a 9502 ed3f
00000480: 84ce 09a9 fb48 f73f 7f05 d5c7 674e f23f
00000490: 3b39 75c9 344e eb3f 471a 3a92 8a7d f33f
000004a0: e929 75d5 32bf e43f 9fc9 229f e143 d53f
000004b0: 5d86 8395 0aba e83f 86dd f43c 67dc ee3f
000004c0: 0402 e31c 6c93 e03f e15a 0068 346d ee3f
000004d0: 2def b532 b14b e93f 8431 e0b0 1389 e73f
000004e0: cd7b 6c4e cf85 f63f 932c 7343 e5af f93f
000004f0: 9d3a 9f11 f6ab f03f 4618 31e3 2cad f53f
00000500: cfe6 c34d 739c ef3f a4fd 87cf fb46 e43f
00000510: 3a9d 51f6 dff2 e23f 8cd3 3e7c 5681 f33f
00000520: 371c 9a0c 1e4c f93f 58f7 7f24 5fbb ee3f
00000530: 69ec cac1 9cd5 f43f 4b78 48a3 756b f53f
00000540: ad22 53d8 a38e e43f b99f 9e53 f072 e53f
00000550: 2c2b 982d 8f15 e13f c8b3 693c 253d f13f
00000560: 4c7c 68ca ff5b dc3f 512e 0f95 cf80 db3f
00000570: f681 aeaf 7cba e83f e10e fd78 561b e53f
00000580: 8b86 268c d4b5 dc3f 1ad1 230d 57f2 eb3f
00000590: 54ed 9872 e992 e53f c3fa 96e8 3b89 e03f
000005a0: 67f3 efa6 a5fa ef3f c946 503d e076 ef3f
000005b0: 5e32 386f f2fd ec3f 763f c1b2 2558 e23f
000005c0: 4a8c bfa2 bc7e d63f 023e e961 b41c e13f
000005d0: 7f01 09c7 be67 b43f 40a1 172c 28c0 e73f
000005e0: fc7e aa6c 47f5 ea3f f7fa cb6b 7c9d d33f
000005f0: 4b05 69ef a126 e23f 4560 7061 a2df e73f
00000600: a07c 32a5 b1ae f43f 09d2 cd3f 0109 f13f
00000610: 1f27 4089 1cdf ee3f f409 1c76 0ba5 f93f
00000620: dd18 bd9e 9cf5 ed3f 69a9 da25 0b88 e33f
00000630: c712 b22e a060 f23f aba0 4c13 e92d f23f
00000640: 9c88 8e43 3c36 ea3f f122 e645 c170 f23f
00000650: bc9a 52c3 ddc7 f43f 570a a8ae a8cc ea3f
00000660: 77f7 1b94 0e5b fa3f 3f7f 87cb 9534 fc3f
00000670: 4053 3300 f891 f33f c8fd 257b dc69 f63f
00000680: 9508 3ae3 b98e ee3f 9791 9432 3c80 f03f
00000690: cd86 5db3 427b d83f 2b2b 4592 5909 f93f
000006a0: e09d 306e 91ff f73f 6252 3d55 b75a eb3f
000006b0: 4d45 d100 d0cc f43f 0b84 fed3 c7eb f13f
000006c0: 7442 5227 8d3f f23f 997e 6920 dc3d f23f
000006d0: c73d 45be cc30 e93f 3d49 32a2 e529 f53f
000006e0: 24a2 dbce f5df e03f 288c e2a0 7cb3 d83f
000006f0: 06ae fd52 bb31 e93f f842 0f54 d445 f13f
00000700: b934 b2dc d436 d33f c17c d84e a017 f23f
00000710: 5a63 779d a699 e53f f8f9 85c1 a6a5 ea3f
00000720: 0c07 3395 ed0a f83f 59be 59fa 99fc f73f
00000730: 8338 2a43 7368 f13f d2a8 479a 8a5b f23f
00000740: 676d 6ff8 4fed e93f 0d7f 371a 0da8 e13f
00000750: 6c79 2780 1521 db3f 37dd 89ec 0f12 f13f
00000760: 7f41 88fe 26ad f63f 6d79 90fb 6f8f e83f
00000770: 2397 a8e6 1b58 ef3f 15da 10ed cfb2 f43f
00000780: 462d e079 deab e53f 9111 cdc9 f34e e23f
00000790: 8d7e 85a0 dff7 db3f 3d0b 8307 d22c eb3f
000007a0: 8335 5252 c279 d53f 889d de02 597e d53f
000007b0: c167 2e72 a5f7 e43f a51a 5045 e377 d93f
000007c0: cfab ace9 c74d df3f 1770 51cb 081d e63f
000007d0: ba02 887e 016f e03f 639d f85e 497b d53f
000007e0: 3fd7 990e 7fc7 e63f 68c3 cc96 96a9 e93f
000007f0: e325 9331 1f67 ea3f fb41 6cf7 f97b d93f
1.8750386094640716 1.5697581097522935 1.326992039166598 2.19365489613338 1.1931280645434694 0.7920309848108293 1.5353436877014732 1.5545730829744762
1.0497337670010818 1.6397155588608667 1.6342912535902028 1.166143440978724 2.2746450342526026 2.4449039738856477 1.748161313985566 1.899557961583961
1.3058059994773428 1.2995651678273017 0.5776565368421964 2.045280281400332 2.165854557528485 1.1956450187384438 1.7955351731541804 1.7186565051205156
0.4251254836224166 0.6601127862095935 0.4793287200939768 1.0367648881357479 0.35343773370005616 0.3885066316830714 0.6525207647594913 0.788848441687649
0.1756973032648864 0.8968138628821647 0.5392169806122603 0.6048794301920706 1.0662483985703177 0.9028973979943454 0.7840483266952532 0.5595547299692015
0.3457354151280251 0.44081170384487 0.05334079081001048 0.6761086964135516 0.7236137155652307 0.28301931063625174 0.3788443414382314 0.6776172975180095
1.9975131046140788 1.5527169543113168 1.2575556536761459 1.9621382304744608 1.068636398828778 0.6606227575260029 1.3759190095238742 1.3485621709464553
1.0255623717706692 1.4757598303248358 1.4194319327529255 1.0285967459929986 2.0458297870292235 2.3274164236241495 1.6693438333179125 1.815202391127375
1.274696461246186 1.1242940587778447 0.6644036912808372 1.8500251516610602 2.1869871688075557 1.2109954853803344 1.8328544930665536 1.7906913415014805
1.3237450297513829 1.20621126517304 0.8153381391857439 1.2717194663915994 0.5215285194264703 0.3328679395010462 0.7486172467384892 1.0379611062377256
0.3322563334804719 1.0882836511135017 0.6305255602349634 0.8078386536366521 1.4766264199053187 1.557497732811547 1.0999417177074036 1.2272968610099322
0.8875395590151046 0.5142656536588915 0.5280413514826797 1.0717730963897134 1.5454954642617222 0.8659128355200751 1.11621821921612 1.4159504149508826
1.4186662406681982 1.127608105930329 0.9750763873639112 1.5195696724382204 0.901301848188784 0.5314588560141954 1.054011870489607 1.1338792552219596
0.7561587826257135 1.0993546658894602 1.2031802355939794 0.8377303423353245 1.6357760036793132 1.7957642141116568 1.1779163603797969 1.4939750691011613
1.0469969188899007 0.9577581502186248 0.49453938547760096 1.5521993683737163 1.5956102495353333 0.963144907587392 1.3900697837152067 1.2209742181762726
0.8772482446849721 0.9192659913802974 0.8499665012115546 1.662209575715536 0.8426918054961411 0.6986226703903062 1.2008632637793608 1.12427034984175
0.7208718267609386 1.250893442632141 1.2583100092787958 0.8352829119524319 1.604357111333825 1.544619627445317 1.234772280199745 1.0651806641500767
0.6693364737357346 1.0015154609741839 0.12112956935411348 1.380369676052938 1.1939745720605295 0.5492829191488208 0.9170462001357049 0.9065652691740064
1.4553181269701847 1.1441419416372296 0.8532966551518152 1.2181497299185524 0.6483396691413051 0.3322681478558937 0.7727101249876785 0.9644046965176336
0.5179958881563498 0.950830653312405 0.7904897680705055 0.735483022175274 1.4076684058597835 1.605443252063911 1.0419827164038573 1.3547791361502433
0.9878479498722416 0.633664994558718 0.5921478091158072 1.2190766194664517 1.5810833446755745 0.9603725159538312 1.3021514482523122 1.338735235046914
0.6424121117680294 0.670280612296657 0.5338817492023273 1.0774280891302954 0.44311518446369713 0.4297369914681655 0.7727645331652286 0.6595871317917635
0.44859803854533514 0.8733325249327522 0.6741835821370992 0.5167521994370293 0.9993465672010701 0.98326122260388 0.9059993908172819 0.5732601634317536
0.35148540395147576 0.5347539818121165 0.07970802649743368 0.7422066556146447 0.8424412844069304 0.3064871838286502 0.5672158885937874 0.7460491088013518
1.292649884511583 1.064698456987687 0.9647352867770883 1.602794133534755 0.9362319088329759 0.6103568782175844 1.148590261845287 1.1362086061363168
0.8191205329387858 1.1525280695370237 1.2987954740325867 0.8374827777154888 1.6472307000653623 1.7628381681788168 1.2231369026023486 1.4008450327381627
0.9549226224919659 1.0313074088854586 0.3825232268919592 1.5647826875380797 1.4998945526402778 0.8548237480959637 1.300003054803102 1.12006361780391
1.1405154739369694 1.1401025072190463 0.7872070041866487 1.3227287612722443 0.5273388900942035 0.3859550067083455 0.7873207684437495 1.0795481952265487
0.3002216487155454 1.1307681159885734 0.6750062060847128 0.8327211169960824 1.502667982873791 1.4991702822989252 1.0880005477552295 1.1473489786681523
0.8102187969447358 0.5517640602156192 0.42389428629930737 1.0669097175394435 1.4172735159555427 0.767509452187182 0.9795054917383123 1.293655324972524
0.6772301082977854 0.5721377316881889 0.43700400043415116 0.8492212435452086 0.33555658377812153 0.33583665161355514 0.6552302579977934 0.39794236916388065
0.489122369954825 0.6910442324692693 0.5135505172075547 0.33564981722380177 0.7118525777029631 0.801951689272852 0.8250881164796592 0.39819192087546157

right f8 [4, 24]
00000000: 8a8d 9422 e454 e83f 9c97 8827 5d04 cf3f
00000010: fc8a 1390 8cd6 da3f 1e25 817d 32c3 e33f
00000020: bbda fe26 b1c8 e23f 5e64 db77 c4e3 d53f
00000030: 4592 b8c9 58d9 e53f a8bd 05c4 1c75 b53f
00000040: 3b63 71b4 a0fa ed3f ba22 1c45 f623 d13f
00000050: 9bfd 5b2f 85b9 eb3f 60fb d29c 1857 ad3f
00000060: be24 f815 9459 d73f b4e9 b650 b577 e63f
00000070: 15d0 756e 2500 e33f 62d0 231c 9c9a de3f
00000080: 80ba 8927 1957 d33f 7ffd bb78 ba05 e53f
00000090: 1022 a7a3 ea3a bb3f 0a22 02be 14b4 e73f
000000a0: 93cd ef8d 9f90 e33f ee81 4a90 e9e4 d13f
000000b0: 2c74 9bde 3f63 e93f 1227 ee24 f9c2 d33f
000000c0: 4565 95c2 c9be ef3f 93ca 241f c7e2 e43f
000000d0: 5684 9b05 dd97 dd3f 4c34 04f2 042a da3f
000000e0: ac9d 0ab0 a0cf d43f 007c 595a 9d08 6e3f
000000f0: 7c83 573d d0ba c73f 1470 1ab2 8d2c df3f
00000100: 08bb b3dc 6648 c63f f68d 78ee 10a8 d23f
00000110: 4894 e382 778d d23f 5441 82ad 66f2 d63f
00000120: 9b5e 5688 8793 e53f 2ac5 a3a1 8360 ec3f
00000130: b013 c0a3 6898 d63f 199a a1fd 55bb ee3f
00000140: de97 1009 2a1a e83f 0cd2 37e9 1964 ce3f
00000150: e12b d4d9 b5aa e13f cf66 33c5 61ea e53f
00000160: d95f eb42 98f3 ee3f 6688 bf6b db40 e83f
00000170: c95a fdc9 58c7 ec3f 527a a631 0338 e93f
00000180: 5840 3ff5 b677 ba3f e82d 1f01 9867 ce3f
00000190: 0ee2 6687 5cfa d63f ad32 b5da e8a4 e53f
000001a0: cb2e a161 450b e03f b2aa 8f4c 142d d43f
000001b0: a0ee f121 c9b0 dc3f 5195 217f 7fb4 e53f
000001c0: 40b9 b88b 4caa c73f ec19 d9d7 c7dc da3f
000001d0: 8b90 5560 542e e73f ea55 c179 44b0 dc3f
000001e0: d6a1 fa6c b048 e93f 8ee1 ad11 156a e43f
000001f0: 1c79 27f0 52bd cf3f bf73 e4b0 0e3e e53f
00000200: f8b6 be3a d6da db3f f476 f939 82ce e23f
00000210: e0c0 e785 03cd a03f 93ee b807 9aba ea3f
00000220: 40b0 a618 775d d33f aabe 52cc 1ef3 d33f
00000230: 8e10 d064 e923 d53f f0f7 c89f 006d a33f
00000240: 491a 41e7 3823 e03f 31fb 7c5d ee09 e93f
00000250: b09f 9d98 ee47 d83f e3ea 7065 d6fd ed3f
00000260: 00e2 c57d 79b4 a53f 2c2e 1355 f569 d23f
00000270: cc3a 3bdd 9a95 e13f 4dbe 3ca8 a6c8 e23f
00000280: 10bd da0d 09ab a23f f555 e3f7 dc6c ef3f
00000290: 785f 4a2c e208 bb3f 13bd 2474 868b e03f
000002a0: 1f68 0c59 a394 ec3f 294c 0089 8a30 e83f
000002b0: 609d 4f6b c32e ee3f 487d ecd6 8176 cb3f
000002c0: 4023 7947 e196 bb3f f8f0 794b ef0e b83f
000002d0: f07f d8e0 0d02 a53f 6cfd a2f3 a24a cc3f
000002e0: fe1a 7c28 0763 e93f 6030 42cf 3925 c03f
000002f0: d02a 9f5b ca57 cc3f d27b 0700 eaa0 ef3f
0.7603626895328699 0.24232067518567824 0.41934503622012165 0.6175777865657073 0.5869985353118276 0.34202682213578395 0.6827815952170303 0.08381824289039363
0.9368442081714429 0.26781994580282353 0.8663965153681831 0.057305115836689735 0.364842435316472 0.7021128250556132 0.593767848723021 0.4781866335681625
0.30219105588086137 0.6569492681591526 0.10636774535590399 0.7407325469112618 0.611404206485917 0.27959670153543825 0.7933654163167652 0.30877522093270315
0.9920395660839537 0.652682839229174 0.46239400432211164 0.40881465563217456 0.3251725882677998 0.0036662171649335384 0.18538859362800142 0.4870943297662518
0.17408452774494543 0.2915079430406132 0.2898844507420262 0.3585449881002394 0.6742589629020189 0.8867815167451785 0.35305229178657793 0.9603681520209789
0.7531938721701825 0.2374298466453556 0.5520886663883823 0.6848610736444359 0.9672356898327009 0.757917128034262 0.8993343300924944 0.7880874604923724
0.10338920104482108 0.23753643088126286 0.3590308496746112 0.6763805648457343 0.5013758570507546 0.3152514217060044 0.44829014124818833 0.6782834513693762
0.18488461325018513 0.4197253806964045 0.7244054681327879 0.44825851335676126 0.7901231888291089 0.6379494996354411 0.24796520925787824 0.6638253645829691
0.4352317403489532 0.5877085811914342 0.03281413087450047 0.8352785254314362 0.302579664300314 0.31171388581695203 0.330316875886873 0.037940997605332316
0.5042995945630732 0.7824622941915093 0.3793903818500395 0.9372360211630987 0.042392536738535824 0.28771718319032646 0.5495123215603939 0.5869935308346129
0.03646114629861519 0.982038959652242 0.10560430127440934 0.5170318859508448 0.8931442965724762 0.7559254337123821 0.9432084175031541 0.2145540522987892
0.10777099604559925 0.09397788613017954 0.04103129739473832 0.221027726138327 0.7933383742063993 0.1261360418324129 0.22142915223806492 0.9883928299494704

right_grad f8 [4, 24]
00000000: 084a e20e 4558 1d40 084a e20e 4558 1d40
00000010: 084a e20e 4558 1d40 084a e20e 4558 1d40
00000020: 084a e20e 4558 1d40 084a e20e 4558 1d40
00000030: 084a e20e 4558 1d40 084a e20e 4558 1d40
00000040: 084a e20e 4558 1d40 084a e20e 4558 1d40
00000050: 084a e20e 4558 1d40 084a e20e 4558 1d40
00000060: 084a e20e 4558 1d40 084a e20e 4558 1d40
00000070: 084a e20e 4558 1d40 084a e20e 4558 1d40
00000080: 084a e20e 4558 1d40 084a e20e 4558 1d40
00000090: 084a e20e 4558 1d40 084a e20e 4558 1d40
000000a0: 084a e20e 4558 1d40 084a e20e 4558 1d40
000000b0: 084a e20e 4558 1d40 084a e20e 4558 1d40
000000c0: 1edc 44d1 b3c9 1d40 1edc 44d1 b3c9 1d40
000000d0: 1edc 44d1 b3c9 1d40 1edc 44d1 b3c9 1d40
000000e0: 1edc 44d1 b3c9 1d40 1edc 44d1 b3c9 1d40
000000f0: 1edc 44d1 b3c9 1d40 1edc 44d1 b3c9 1d40
00000100: 1edc 44d1 b3c9 1d40 1edc 44d1 b3c9 1d40
00000110: 1edc 44d1 b3c9 1d40 1edc 44d1 b3c9 1d40
00000120: 1edc 44d1 b3c9 1d40 1edc 44d1 b3c9 1d40
00000130: 1edc 44d1 b3c9 1d40 1edc 44d1 b3c9 1d40
00000140: 1edc 44d1 b3c9 1d40 1edc 44d1 b3c9 1d40
00000150: 1edc 44d1 b3c9 1d40 1edc 44d1 b3c9 1d40
00000160: 1edc 44d1 b3c9 1d40 1edc 44d1 b3c9 1d40
00000170: 1edc 44d1 b3c9 1d40 1edc 44d1 b3c9 1d40
00000180: 6f02 8dd4 3f01 2140 6f02 8dd4 3f01 2140
00000190: 6f02 8dd4 3f01 2140 6f02 8dd4 3f01 2140
000001a0: 6f02 8dd4 3f01 2140 6f02 8dd4 3f01 2140
000001b0: 6f02 8dd4 3f01 2140 6f02 8dd4 3f01 2140
000001c0: 6f02 8dd4 3f01 2140 6f02 8dd4 3f01 2140
000001d0: 6f02 8dd4 3f01 2140 6f02 8dd4 3f01 2140
000001e0: 6f02 8dd4 3f01 2140 6f02 8dd4 3f01 2140
000001f0: 6f02 8dd4 3f01 2140 6f02 8dd4 3f01 2140
00000200: 6f02 8dd4 3f01 2140 6f02 8dd4 3f01 2140
00000210: 6f02 8dd4 3f01 2140 6f02 8dd4 3f01 2140
00000220: 6f02 8dd4 3f01 2140 6f02 8dd4 3f01 2140
00000230: 6f02 8dd4 3f01 2140 6f02 8dd4 3f01 2140
00000240: 9c12 866e 3716 2240 9c12 866e 3716 2240
00000250: 9c12 866e 3716 2240 9c12 866e 3716 2240
00000260: 9c12 866e 3716 2240 9c12 866e 3716 2240
00000270: 9c12 866e 3716 2240 9c12 866e 3716 2240
00000280: 9c12 866e 3716 2240 9c12 866e 3716 2240
00000290: 9c12 866e 3716 2240 9c12 866e 3716 2240
000002a0: 9c12 866e 3716 2240 9c12 866e 3716 2240
000002b0: 9c12 866e 3716 2240 9c12 866e 3716 2240
000002c0: 9c12 866e 3716 2240 9c12 866e 3716 2240
000002d0: 9c12 866e 3716 2240 9c12 866e 3716 2240
000002e0: 9c12 866e 3716 2240 9c12 866e 3716 2240
000002f0: 9c12 866e 3716 2240 9c12 866e 3716 2240
7.336200935899349 7.336200935899349 7.336200935899349 7.336200935899349 7.336200935899349 7.336200935899349 7.336200935899349 7.336200935899349
7.336200935899349 7.336200935899349 7.336200935899349 7.336200935899349 7.336200935899349 7.336200935899349 7.336200935899349 7.336200935899349
7.336200935899349 7.336200935899349 7.336200935899349 7.336200935899349 7.336200935899349 7.336200935899349 7.336200935899349 7.336200935899349
7.446975011661406 7.446975011661406 7.446975011661406 7.446975011661406 7.446975011661406 7.446975011661406 7.446975011661406 7.446975011661406
7.446975011661406 7.446975011661406 7.446975011661406 7.446975011661406 7.446975011661406 7.446975011661406 7.446975011661406 7.446975011661406
7.446975011661406 7.446975011661406 7.446975011661406 7.446975011661406 7.446975011661406 7.446975011661406 7.446975011661406 7.446975011661406
8.502440111363482 8.502440111363482 8.502440111363482 8.502440111363482 8.502440111363482 8.502440111363482 8.502440111363482 8.502440111363482
8.502440111363482 8.502440111363482 8.502440111363482 8.502440111363482 8.502440111363482 8.502440111363482 8.502440111363482 8.502440111363482
8.502440111363482 8.502440111363482 8.502440111363482 8.502440111363482 8.502440111363482 8.502440111363482 8.502440111363482 8.502440111363482
9.043391660562797 9.043391660562797 9.043391660562797 9.043391660562797 9.043391660562797 9.043391660562797 9.043391660562797 9.043391660562797
9.043391660562797 9.043391660562797 9.043391660562797 9.043391660562797 9.043391660562797 9.043391660562797 9.043391660562797 9.043391660562797
9.043391660562797 9.043391660562797 9.043391660562797 9.043391660562797 9.043391660562797 9.043391660562797 9.043391660562797 9.043391660562797
